files/model_micro_8k.onnx (onnx, 482006 bytes, 73 tensors)

adaptive_normalization.filter_ f4 [1, 1, 17]
000000 69 55 8c 38 c6 c5 e4 39 b1 39 11 3b 28 98 0f 3c
       6.691629e-05 0.00043634902 0.002215963 0.008764304
000010 a1 26 dd 3c dc a0 84 3d 4a c8 f7 3d b8 42 34 3e
       0.026995959 0.06475994 0.12098749 0.17603576
000020 15 43 4c 3e b8 42 34 3e 4a c8 f7 3d dc a0 84 3d
       0.19947465 0.17603576 0.12098749 0.06475994
000030 a1 26 dd 3c 28 98 0f 3c b1 39 11 3b c6 c5 e4 39
       0.026995959 0.008764304 0.002215963 0.00043634902
000040 69 55 8c 38
       6.691629e-05

encoder.0.0.dw_conv.0.weight f4 [161, 1, 5]
000000 3a 02 a0 bc de 51 cc bd d2 65 cc be e0 08 62 3e
       -0.019532312 -0.099765524 -0.39921433 0.22073698
000010 58 30 d4 3e d6 bc 08 bd 4c a8 a3 bd 36 79 90 be
       0.41443133 -0.033383213 -0.079910845 -0.28217477
000020 4f 98 11 be 2d c1 09 be 89 fb a5 3d b8 28 37 3e
       -0.14218257 -0.13452597 0.08104617 0.17886627
000030 6b 3b c5 3d d5 47 bc 3e b3 f8 c0 3e 0a 29 11 bc
       0.09630474 0.36773553 0.37689742 -0.008859882
000040 a1 86 86 be 65 9d d7 bd 16 d4 e8 3e 77 d1 b0 3d
       -0.2627459 -0.105280675 0.4547431 0.08633702
000050 12 a4 85 be 32 84 f5 bd 60 e2 fe bd 6a 30 89 bd
       -0.26101738 -0.11988105 -0.12445521 -0.066986874
000060 ae bb 33 be 5b 2e c4 3d 6c 54 88 3d 00 06 b8 3d
       -0.17552063 0.09579154 0.06656727 0.089855194
000070 90 4c c6 be 07 d8 ba 3d b3 97 a0 be 79 c1 c1 be
       -0.38730288 0.09123235 -0.31365737 -0.3784292
000080 ac 69 7f 3e db ef b0 3e 99 8c 52 be ee 0d e0 3d
       0.24942654 0.34557995 -0.20561446 0.10940157
000090 1a 0f 09 be 73 41 aa 3e 9b 7d e9 be de 10 0d 3f
       -0.13384667 0.3325306 -0.45603642 0.5510386
0000a0 d4 89 a5 3e 1d 18 39 3e 0e 63 72 bc 81 3b 56 be
       0.32331717 0.18075605 -0.014794124 -0.20921136
0000b0 16 33 0b bf ed 57 9c 3e 94 87 28 be 0a 21 3a bd
       -0.54374826 0.30535832 -0.16457969 -0.045441665
0000c0 d3 e8 6b bf eb 5d 30 be e1 c7 07 3d fc 06 cd 3e
       -0.92152137 -0.17223327 0.033149604 0.4004439
0000d0 25 bd f3 3c 40 e4 6e 3a 8d 8d 2a bf 41 d5 d2 3e
       0.029753277 0.00091129914 -0.6662224 0.41178325
0000e0 ea 94 14 3e 04 74 51 3e 57 c0 8d be 49 2d 89 3e
       0.14509931 0.20454413 -0.27685806 0.26792362
0000f0 31 31 95 be 0f 13 b0 be 3b 58 05 bc ad e6 cf 3e
       -0.29139093 -0.3438954 -0.008138712 0.4060568
000100 d4 b6 d4 3d a9 07 85 bd bd 55 97 be 93 16 3e 3e
       0.10386434 -0.06495602 -0.295576 0.18563299
000110 d9 4b 1e 3e e0 d3 f6 3e 12 2f 20 be 7a fc 4b 3d
       0.15458621 0.48208523 -0.15642956 0.049801327
000120 04 cc 83 3e fb c9 e8 3e e3 01 51 be 3f e3 0e bc
       0.2574159 0.454666 -0.20410876 -0.008721172
000130 f6 91 16 3e ea 7f 1a 3f fa 31 01 3e d4 08 a1 bd
       0.14704117 0.6035143 0.12616721 -0.07863012
000140 f7 5d cf be d4 36 df bd 1a a7 51 3e 80 11 55 3e
       -0.40501377 -0.108991295 0.204739 0.20807457
000150 6f 88 b7 3b 59 af 21 3d b1 c1 62 bd a7 83 08 3f
       0.005600981 0.039473865 -0.0553605 0.53325886
000160 ac cd 3e be 6c 1f 86 3e 88 08 7d 3e 0f ba 28 3e
       -0.18633145 0.26195848 0.24710286 0.16477226
000170 31 d5 37 bf fd b6 00 3a 27 7a aa 3d 54 8d dd bd
       -0.7180968 0.000491008 0.0832408 -0.10817972
000180 45 bf 9f be 83 27 78 bd 17 af 88 3e 37 c3 fa 3d
       -0.31200615 -0.060584556 0.26696083 0.122442655
000190 0a a4 06 3f 59 08 b3 3e 45 dc 91 be bb 51 8a be
       0.52594054 0.34967306 -0.28488365 -0.2701548
0001a0 17 11 10 be 61 d8 16 be 9e 4d 1c bf 6d 46 8b 3e
       -0.1406902 -0.1473098 -0.61055934 0.27202168
0001b0 cb d9 ab be 87 67 5b bc d1 e0 12 be f9 4e 8b be
       -0.335646 -0.013391382 -0.14343573 -0.2720869
0001c0 37 50 81 bd ea 6b f6 3e 7e 2f 29 3e 4a b9 79 be
       -0.06314128 0.48129207 0.16522023 -0.24387088
0001d0 b2 14 86 3e 49 0f 04 be 5c 2f 65 bd 70 75 22 bf
       0.26187664 -0.12896456 -0.05595337 -0.63460445
0001e0 0f 8f 9c bc e4 52 1a bf 1a 2d 2c 3e 79 46 8b bd
       -0.019111184 -0.6028273 0.1681408 -0.06800551
0001f0 6d 48 72 be 53 fc 19 be f8 69 19 3e 44 5a 11 bf
       -0.2366044 -0.1503766 0.1498183 -0.5677836
000200 b3 7b a9 be 13 eb 65 3e a1 ce 02 3f 56 a3 96 bd
       -0.33102188 0.22452955 0.5109654 -0.073553726
000210 6b 24 e6 bd b6 fe 0a be 55 72 ab bd 16 49 89 3d
       -0.11237415 -0.13573727 -0.083714165 0.06703393
000220 51 5b 7e 3e e9 0b 8e 3e b7 5f 90 bc 31 00 de be
       0.24839522 0.27743462 -0.017623765 -0.4335952
000230 f0 66 90 bc 78 2a 90 3d 51 48 7b be 0e 74 0a 3f
       -0.01762721 0.0703935 -0.24539305 0.54083335
000240 12 80 19 bd 5b 45 fa 3e 0f 49 1e bd 8e a6 c8 bd
       -0.037475653 0.4888104 -0.038643893 -0.09797393
000250 10 82 16 be db ff 19 be ca d7 1c 3c fc 60 2e 3b
       -0.14698052 -0.15039007 0.0095729325 0.00266081
000260 dc f7 e6 be c8 73 80 3d 1e ec a9 3d e8 dd bc bd
       -0.45110977 0.062720835 0.08296989 -0.09222013
000270 aa a3 71 be 7d a8 34 bf 74 63 65 bd 55 9d 08 3e
       -0.23597589 -0.7056959 -0.05600305 0.13341267
000280 fc 86 45 be c7 88 78 be 04 54 ca bd d4 77 0a 3e
       -0.19289774 -0.24270926 -0.09879306 0.13522273
000290 38 a6 ec 3e 42 f8 ba 3a 7f 93 34 3b 5a 24 12 3f
       0.46220565 0.001426466 0.0027553735 0.5708672
0002a0 51 92 ef 3d 2d 4b 03 be 35 95 d9 3d d1 26 49 bd
       0.116978295 -0.12821646 0.10624162 -0.049109284
0002b0 a3 1e 93 bd 66 a3 b6 3b 62 d7 c0 3d d4 83 0c 3f
       -0.07183578 0.005573678 0.09416081 0.54888654
0002c0 f4 f4 c2 be 35 09 05 be a6 d8 d7 bd 8c 1e 8e bc
       -0.3807751 -0.12991793 -0.10539369 -0.01734855
0002d0 58 00 21 3e 84 d8 f7 3e 08 0a 08 be 48 4a 43 be
       0.15722787 0.48407376 -0.13285077 -0.19071305
0002e0 8b 7e 1d be 9a 7b ad 3d 36 ff 86 3d b4 be a2 be
       -0.15380304 0.08470841 0.065916464 -0.3178612
0002f0 1e 96 6d 3e 8b d4 e5 3d 5e 97 13 3e 0c 0d 15 3f
       0.23201796 0.1122218 0.14413211 0.5822303
000300 5c cc 58 be 05 da 51 be bb 08 0e be 72 fe 17 be
       -0.21171707 -0.20493324 -0.13870518 -0.14843157
000310 44 06 31 bd 45 45 94 3e 6e da b8 3e 5c 2a a3 be
       -0.043218866 0.28959098 0.3610415 -0.31868255
000320 35 41 0c 3e 4a 39 1a be 2f 77 43 bf 00 6f ce bd
       0.1369675 -0.15060917 -0.76353735 -0.10079765
000330 db c7 09 3d a5 a6 f1 3c bd 4c 94 bd 44 21 9d 3e
       0.033637863 0.029498408 -0.07241199 0.30689442
000340 b7 82 8f bd d9 4b e1 3c 7d 2a a7 3e 83 13 63 3e
       -0.07007354 0.027501987 0.32649603 0.22175412
000350 57 8e ab be 10 1e ef 3d ca c1 a7 3e 5f 29 08 3f
       -0.33507034 0.11675656 0.32765037 0.5318813
000360 33 27 e9 3c e9 fc 98 be 26 9c f5 bd 30 1d a6 bd
       0.028461074 -0.29880455 -0.119926736 -0.08111036
000370 41 5e ac bd 5a fa 7c bd 96 49 0d bf 54 18 f4 3e
       -0.08416415 -0.06176219 -0.5519041 0.4767481
000380 a4 95 c4 3e 01 7b 27 be 65 df 7e 3d 05 eb 1f 3f
       0.38395417 -0.16355516 0.062224764 0.62467986
000390 77 b8 a9 3e 2e b6 60 be a9 bf 38 3d 38 52 5e 3e
       0.33148548 -0.21944496 0.045104656 0.21711051
0003a0 3f 1e b8 3e bf fb d6 3e b0 e8 b1 bd 6e 1d d4 be
       0.35960576 0.41988942 -0.0868696 -0.41428703
0003b0 68 71 9a be 9e f0 7d 3e 67 fb af 3e cb 7a a5 3d
       -0.30164647 0.2479882 0.34371492 0.080800615
0003c0 35 a8 4f 3e 76 20 25 3f 8a 1b 8a be 85 5d 7b be
       0.2027901 0.64502656 -0.26974136 -0.24547394
0003d0 6f 7f 10 be 41 a7 3d bd 78 da 92 bd 60 f0 6e be
       -0.14111112 -0.046302084 -0.07170576 -0.23333883
0003e0 3b 31 54 bc fe 68 75 bd 20 32 ef bd b8 fd 59 be
       -0.012951191 -0.05991458 -0.116794825 -0.21288192
0003f0 e9 e7 04 3d 56 82 34 be 98 6f 29 be e0 61 d2 3e
       0.03244773 -0.17627844 -0.16546476 0.41090298

encoder.0.0.dw_conv.0.bias f4 [161]
000000 89 78 06 bf 5d 64 7e 3f 92 fd 48 bf de 82 1b bf
       -0.5252767 0.9937189 -0.7851192 -0.6074656
000010 bb 79 8f 3f f0 9f 90 3f 30 df 81 bf a2 a5 ad 38
       1.1209024 1.1298809 -1.0146236 8.280134e-05
000020 ac c1 1f 3f c4 ea a8 b8 18 7c 0e 3f 0f 4e 05 3f
       0.62404895 -8.054593e-05 0.556581 0.5207223
000030 ba c0 ce 3e f3 ea 1e 3f a3 60 0e 39 f7 84 77 bf
       0.40381414 0.62077254 0.00013578175 -0.96687263
000040 de dc 90 3e b2 b4 50 39 fa 75 31 3f 68 55 86 3e
       0.28293508 0.0001990374 0.6932064 0.26237035
000050 56 33 5b bf 70 b8 dc b8 ca 9d 26 bf 71 4e 7a b9
       -0.8562521 -0.00010524772 -0.65084517 -0.0002387108
000060 1e 25 3f b9 0d 28 71 b8 56 b3 0a bf 1a b9 f6 be
       -0.00018229007 -5.7496178e-05 -0.54179895 -0.48188096
000070 38 bd 1d bf 22 bd a1 be 2e 6e 22 3f ab 4f bd 3c
       -0.6161685 -0.3158961 0.6344937 0.023109278
000080 3a ea 63 be 95 7b 83 bd c9 ae 88 3f 98 c2 c1 b9
       -0.22257319 -0.06420056 1.067834 -0.00036956812
000090 e5 9b 1d bf fe 4c ee 3d b7 e9 33 bf 93 7d 9b be
       -0.61566 0.11635779 -0.70278496 -0.30369243
0000a0 7c e6 8b 38 33 30 3e 3f f0 28 a8 3e 88 2e c2 be
       6.6709676e-05 0.74292296 0.32843733 -0.37926126
0000b0 88 47 f9 be b5 d9 10 be 4c f6 55 be fe 95 92 3e
       -0.48687387 -0.14145549 -0.20894736 0.2863006
0000c0 d4 0f 39 bf ad e8 34 3f f4 b6 6a 3f 8f a0 1f bf
       -0.72289777 0.70667535 0.91685414 -0.6235437
0000d0 c0 17 67 38 ab 7e 05 bf 97 8b ae be e2 a7 f6 be
       5.509681e-05 -0.52146405 -0.34090874 -0.4817496
0000e0 12 4a d3 be f4 8f a6 be ed d2 c4 be dd 39 3b 3f
       -0.4126745 -0.32531703 -0.38442174 0.7313517
0000f0 69 67 2b 3f 09 1a 00 3e 17 81 8f be 22 20 28 3f
       0.66954666 0.12509932 -0.28028175 0.6567403
000100 a6 7a 89 be 3a 06 3c 3e 3d cc 14 bf 59 19 a9 be
       -0.26851386 0.1836175 -0.5812414 -0.3302715
000110 89 d4 fe be c8 52 1e bf 45 19 b1 3e 59 06 b2 be
       -0.49771526 -0.61845064 0.34589592 -0.34770468
000120 46 37 6c 3e 4b ce 79 3f c2 25 f9 be 9f 20 fe 3b
       0.2306796 0.97580403 -0.4866162 0.0077553536
000130 4b 38 2d be c2 8d ea 3e 93 d1 48 3f 3e f7 83 3d
       -0.16916005 0.45811278 0.78444785 0.06443642
000140 68 c7 05 3f d8 1a b9 be 92 5e 00 be a4 b0 e4 3e
       0.52257395 -0.36153293 -0.12536076 0.44666016
000150 95 e2 e1 be fc f1 c3 be 2d 03 bd 3e 23 2b 5b 3e
       -0.4411818 -0.38270557 0.36916485 0.21403174
000160 11 38 cd be 06 91 05 3f c1 b1 b0 be 64 9c 48 bf
       -0.40081838 0.52174413 -0.34510615 -0.78363633
000170 dd e4 2f bf 4d 62 0b bd 8a 8e 33 bf 30 0c 30 3f
       -0.6870859 -0.034029294 -0.7013937 0.68768597
000180 0b b4 ac bd 1e 9b 0c 3f bb dc 5b bf c5 f7 00 bd
       -0.08432778 0.5492419 -0.8588368 -0.03148629
000190 ef d3 11 3f c0 c4 d6 3e 14 41 ec be 2a 6e 9b 3e
       0.5696401 0.41946983 -0.461434 0.30357486
0001a0 e8 c4 91 bc 27 9a 61 be e8 7c 16 bf 6c d7 37 bd
       -0.017794088 -0.2203146 -0.5878434 -0.044883177
0001b0 35 32 e1 3e 21 66 0a 3f f8 43 16 3e 79 5c 99 be
       0.43983617 0.54062086 0.14674366 -0.29953364
0001c0 0b 9b a8 3e d0 61 2e bf 30 13 21 3f f1 7c 81 3e
       0.32930788 -0.68118 0.629199 0.25290635
0001d0 29 86 c4 3e 93 90 0b bf 5f 0d 80 be 03 bc 87 be
       0.38383606 -0.5451748 -0.250102 -0.2651063
0001e0 56 5b 1d 3f 85 6b bd be 01 cf 43 bd 81 62 8c 3e
       0.6146749 -0.36996093 -0.047804836 0.27418903
0001f0 fa 37 cf 3e 2a a5 7f 3f 12 61 ef be c3 ea b1 3e
       0.40472394 0.99861395 -0.46753746 0.3474942
000200 73 e5 34 3f 75 89 b0 be 36 36 10 bf af 79 db 3e
       0.7066261 -0.3447987 -0.5633272 0.42866275
000210 f8 a8 a7 be 78 bb eb be c3 94 1b 3f ae 7c 10 bf
       -0.327461 -0.46041465 0.6077387 -0.56440246
000220 78 7b a0 3d 26 a2 04 bf 7b 55 e7 3e bc d1 19 bf
       0.0783605 -0.5180992 0.45182404 -0.60085654
000230 5d b0 18 bf 9d 4f 9c 3e 5e 11 1d 3f 68 87 11 3e
       -0.5964411 0.3052949 0.61354625 0.1421181
000240 48 82 37 bf d4 ca a1 3e e4 08 eb 3e c4 bb b4 3e
       -0.7168317 0.31600058 0.4590522 0.35299504
000250 e1 0d ae 3e f8 36 b8 be ce a0 4e 3e c5 df 1a bb
       0.33994964 -0.35979438 0.2017853 -0.0023631912
000260 8b 53 04 3f b3 8e 22 3f 42 2b 3d 3f 70 17 1f 3f
       0.51689976 0.6349899 0.7389413 0.6214514
000270 29 f3 43 be 0d d7 2e 3a f8 20 1d 3f 1a 1d 24 3a
       -0.19135727 0.00066696183 0.6137843 0.000626044
000280 9f 88 2b 3f
       0.6700534

encoder.0.0.pw_conv.0.weight f4 [8, 161, 1]
000000 c2 eb e2 3e 5f 92 6d be d0 c5 14 3e 6a 88 67 be
       0.44320494 -0.23200367 0.14528584 -0.22610632
000010 10 2d c2 be 60 af a1 3e a8 ac af be 67 cd e1 bc
       -0.37925005 0.31579113 -0.34311414 -0.027563764
000020 c1 c1 28 3e bc 28 25 3d 74 61 5b 3c 7f fd d4 3d
       0.16480161 0.04032205 0.013389934 0.10399913
000030 f4 22 37 3d de fc 9d bc 08 7d 64 be dd 4d 52 bd
       0.04471107 -0.019285616 -0.2231332 -0.051343787
000040 08 15 db 3d 31 74 40 bd 1c 85 52 3e 74 97 d4 3d
       0.10697371 -0.04698581 0.2055859 0.1038045
000050 a7 e2 67 3e 92 8c 25 be f4 93 bb 3d 41 b8 28 be
       0.22645055 -0.16166905 0.09159079 -0.16476537
000060 24 0d 5e bd 63 3a 87 bb 09 50 8d 3d 3c 25 a4 bc
       -0.05421175 -0.0041268333 0.06900031 -0.020037286
000070 83 7f 19 be c7 45 05 3e a0 19 e9 3d ee 0d 5a 3d
       -0.14990048 0.13014899 0.11381841 0.05323594
000080 69 1c c1 bc b7 9e 7a bc a5 6f 14 3e ba 08 51 3e
       -0.023573117 -0.01529663 0.14495714 0.20413485
000090 e9 d4 ad bc 20 d4 5a bd af 81 18 be c3 95 62 bd
       -0.021219688 -0.053424954 -0.1489322 -0.055318605
0000a0 09 f8 07 3e e9 a4 e3 3d fd a3 89 3c 69 dd 15 bd
       0.13278212 0.111154385 0.016801829 -0.036588106
0000b0 24 05 28 bd 62 46 c9 3d bd 2e 84 bd 89 b1 a2 3d
       -0.041020527 0.098278776 -0.06454227 0.079440184
0000c0 2a a8 1b be a3 c4 2a 3e cb 0d 0f 3e 35 9d 27 bc
       -0.15200868 0.16676573 0.13970105 -0.010230352
0000d0 ac 45 56 3d 28 28 f1 bd ec 1e d7 3d d8 44 88 bd
       0.052312538 -0.11775237 0.10503945 -0.06653756
0000e0 bc 53 dd bc 18 4d 14 bd 6d 5e 90 bd b5 6a c6 3d
       -0.027017467 -0.036206335 -0.0704926 0.096883215
0000f0 07 d1 0e be c8 01 b9 3d 5b 26 78 3c b6 e1 74 be
       -0.13946925 0.09033543 0.015145863 -0.23914227
000100 0c 90 87 3b 45 39 16 3e 0f 17 59 be 9b c9 76 3e
       0.004137045 0.14670284 -0.21200202 0.24100344
000110 03 b8 be 3e ec 49 1f be 96 8b f4 bd 2e a4 95 3e
       0.37249765 -0.15555543 -0.119406864 0.29226822
000120 f5 e3 f8 3d 9b 5b 19 3d 37 b9 08 3e 35 f5 79 bd
       0.12152854 0.037440877 0.13351904 -0.061024863
000130 6a 56 6d 3d e1 36 8d bd 92 1f 8f 3d a1 41 15 bc
       0.05794374 -0.06895233 0.069884434 -0.009109885
000140 58 07 2a bd 7a 92 cd 3d a1 d3 1b 3d f4 79 ed bc
       -0.04151091 0.10037704 0.038043622 -0.028988816
000150 44 f6 6c bd 9f f6 7f bd 02 a3 aa 3d 7b b1 4b be
       -0.057852045 -0.062491056 0.083318725 -0.19891922
000160 62 50 a0 3d 1e a2 29 3d 18 57 c2 bc 74 f1 33 bf
       0.07827832 0.041414373 -0.02372317 -0.70290303
000170 34 1c c1 be 7a 25 8b bd 73 1b 9e bd 4f e1 82 3d
       -0.3771683 -0.067942575 -0.07720079 0.063906305
000180 c0 ff e9 bd 6d a8 b7 3c 9a 09 de be 60 02 be bc
       -0.114257336 0.022419179 -0.433667 -0.023194492
000190 5e 5f 51 3d 43 ac 25 bd 85 8a c8 be 29 f1 f9 3d
       0.05111634 -0.040447485 -0.39168182 0.12204201
0001a0 28 c5 64 bd 08 32 ad 3c 22 44 9e be 59 06 e4 3c
       -0.055852085 0.02114202 -0.30911356 0.027835058
0001b0 17 0a 16 bd e2 76 a0 3c 83 87 59 be ab 52 c9 3d
       -0.036630716 0.019587938 -0.212431 0.09830221
0001c0 89 21 78 3d 47 66 3c be 45 46 a4 bc 5b c8 85 bd
       0.060578857 -0.1839839 -0.020053038 -0.065323554
0001d0 32 1d c9 3c 19 10 23 bc 02 d0 d2 bd e9 c5 f9 3d
       0.024550054 -0.009952568 -0.102935806 0.121959515
0001e0 4b e4 13 3e 1a fd 15 3e 74 1c da bd 87 61 c4 3d
       0.14442556 0.14647332 -0.10649958 0.09588914
0001f0 c0 cf 4c 3e 2a f2 46 3c 3c 21 0b be 7a e2 f8 bd
       0.20001125 0.012142697 -0.13586897 -0.12152572
000200 2c 2c 2f be 76 20 81 3d 7b 22 95 3b b7 ab aa 3d
       -0.17106694 0.063050196 0.0045512295 0.08333533
000210 25 48 0c 3e 59 81 7e be 1e e8 c5 3d b1 3e a2 3e
       0.13699396 -0.2485403 0.096634135 0.31688455
000220 cf 7d 24 bd bf ad 92 3d 26 a9 4c 3c ba 58 87 3e
       -0.040159043 0.07162046 0.0124915 0.2643488
000230 c3 05 8e be 72 72 bb 3d 34 01 48 bd bb 0b ee 3d
       -0.2773877 0.09152688 -0.048829272 0.11623331
000240 d0 6e 37 3e 26 08 c0 bd b2 f3 06 3e 1c 70 b0 3d
       0.17913365 -0.09376554 0.131789 0.08615133
000250 4e 85 bf 3d 98 25 be 3d 61 26 54 3d a3 bf c0 bd
       0.09351598 0.09284514 0.051794413 -0.09411552
000260 ab 6a a0 3d 8d 22 76 3e b3 1b 9b bd ca 96 06 3c
       0.07832845 0.24036618 -0.075736426 0.008214662
000270 54 7c 20 be ca 76 c0 bd 39 ef fe 3d 23 91 01 bf
       -0.15672427 -0.09397657 0.12447972 -0.50612086
000280 33 11 88 3c 26 2b 50 3c 27 57 26 be 18 62 dc 3c
       0.016609764 0.0127056 -0.16244183 0.026902243
000290 70 c3 d5 3e 7c 21 82 be 6b 61 3c 3c 62 26 08 bd
       0.4175067 -0.25416172 0.011497836 -0.03323973
0002a0 58 21 96 3e a7 e9 35 3d de ea cc 3d b9 45 9d bd
       0.29322314 0.04441228 0.10005735 -0.07679314
0002b0 f7 00 60 3e 7e 83 64 3b 60 1e 3e 3c 69 94 7f 3e
       0.21875368 0.0034868415 0.011603922 0.24958958
0002c0 e9 2f 96 be 0e 37 31 bd 4c 88 7a 3e c4 fb 96 3e
       -0.29333428 -0.043265395 0.24466056 0.29488957
0002d0 3e f7 be bc a0 82 aa 3e 2e e0 a2 3d 5f 17 45 3d
       -0.023311254 0.33302784 0.07952915 0.04811799
0002e0 fd c8 62 bc f3 bf fd bc a2 29 96 3d 42 8d 92 3e
       -0.013841865 -0.030975318 0.073321596 0.28623396
0002f0 c2 56 60 be 32 ba bf 3e d7 f0 8b 3c b9 48 ed 3d
       -0.21908095 0.37446743 0.017082615 0.11586136
000300 e0 a3 f7 bd 26 30 df 3d be 8e 95 bd 71 a7 ac 3d
       -0.120918036 0.108978555 -0.073026165 0.084303744
000310 56 99 ea bd 87 6d aa 3e b7 c7 b3 38 b0 82 c1 3e
       -0.11455028 0.33286688 8.572585e-05 0.3779502
000320 fb 32 b6 be 6b 8d 4e be 3f 60 26 be 69 ae 08 3e
       -0.3558577 -0.20171134 -0.16247652 0.13347782
000330 c6 4d d1 3d 7d 99 55 3e 9b 9f 13 bd 35 99 24 3d
       0.10219912 0.20859332 -0.036040884 0.040185172
000340 eb c8 62 3d ec 11 a0 3e fd bf d2 3c 2c 54 8e bc
       0.05536739 0.31263673 0.025726313 -0.01737412
000350 cc ed 64 3e e2 47 11 be f4 6d ad 3e f2 75 d3 bd
       0.22356337 -0.14187577 0.3387295 -0.10325231
000360 85 dc 87 3e d6 6c d5 bd bd f4 e4 3e 44 1c 9f 3d
       0.2653543 -0.104211494 0.4471797 0.07769063
000370 f5 9b c3 3d 72 7c 01 3d f2 23 0c 3d bc fc a9 bd
       0.09551231 0.03161282 0.034213968 -0.083001584
000380 6d 8b 8c 3d d5 04 5a bd 09 0d 89 3d 0e f9 70 3e
       0.06862531 -0.053227264 0.066919394 0.23532507
000390 ed 39 15 3d e1 72 1a 3e cc bc 3c 3e 6b bd 55 3b
       0.036432195 0.15082885 0.18431395 0.0032614123
0003a0 4e 75 b8 3d 08 6a a2 3d 64 96 6f bd 0e 68 53 3e
       0.09006749 0.0793038 -0.058493033 0.20645162
0003b0 70 12 ac bd db 1a 12 be d6 4c 7a 3d b5 e3 9c bd
       -0.08401954 -0.14268057 0.061108433 -0.07660619
0003c0 7e cf 65 bd a0 86 aa bb e9 66 01 be f6 92 37 bd
       -0.056106083 -0.005204037 -0.12636913 -0.044817887
0003d0 d7 47 9b 3d d4 f1 23 3e e6 c3 c7 3d 08 43 2a 3e
       0.07582062 0.16010219 0.097541615 0.16627133
0003e0 4b 86 99 3d 91 8e 93 bd 8d 0d 93 3c ec 6e 83 3d
       0.074963175 -0.07204927 0.017950797 0.06417641
0003f0 ed 10 1f 3d 59 cc ab bd b4 f4 9a bd 3a be 5b bd
       0.0388345 -0.083885856 -0.07566205 -0.05364821

encoder.0.0.pw_conv.0.bias f4 [8]
000000 f2 1f b3 bc ed 72 59 bc ab ff 09 be da e0 ab bd
       -0.021865819 -0.013272029 -0.13476436 -0.083924964
000010 94 1a 5f 3d be 1c 61 3f a3 11 a4 3e bd cf 06 3e
       0.054468706 0.8793448 0.32044706 0.13165183

encoder.0.0.proj.weight f4 [8, 161, 1]
000000 24 53 ae 3d 9e 4b 16 bd 9c c5 8e 3d 6b 03 e1 bd
       0.085119516 -0.036693208 0.06971285 -0.1098698
000010 f4 03 35 be 59 8d e5 bd a1 2b da bd b4 ca f1 bd
       -0.17677289 -0.112086006 -0.10652853 -0.11806241
000020 9f 7e 86 3c d6 03 7b bd 7a 45 20 bd 2a 7e 57 bd
       0.0164178 -0.061282955 -0.039128758 -0.052610554
000030 fd 47 d8 3c aa 32 25 3b 14 aa 87 bc b7 a6 27 bd
       0.026401514 0.00252072 -0.016560592 -0.040930476
000040 c5 29 36 b9 53 8a e7 3c e0 54 78 3d 6a 7d 4d bc
       -0.00017372433 0.0282642 0.060627818 -0.012542108
000050 e2 3c e3 3c 05 7e 8d bd 94 17 03 3b 06 81 89 bd
       0.027738992 -0.06908802 0.0020003067 -0.067140624
000060 c5 25 e2 bc 13 68 26 bd 5d 48 27 3b 2b 0f 81 bc
       -0.0276059 -0.040626597 0.002552531 -0.015754303
000070 7a ec 5b bc 7b ed 9a bc c9 3c 2e bc ac cd 3b ba
       -0.01342308 -0.018912068 -0.0106346095 -0.00071641314
000080 ea 23 14 bd 17 cb 0a bd 55 14 88 bd f1 2a 89 3c
       -0.036167063 -0.033885088 -0.06644503 0.016744109
000090 19 8e be bc 57 34 4e bd a0 e6 74 bd 19 15 77 bd
       -0.023261117 -0.050342884 -0.059790254 -0.060322855
0000a0 61 f6 04 3d 27 80 df bd ac cb aa bc 15 06 6b bd
       0.032461528 -0.10913115 -0.020849071 -0.057378847
0000b0 3a 95 5a bd b6 5c 74 bd e6 60 8e bd d4 29 89 bc
       -0.05336497 -0.05965873 -0.06952076 -0.016743578
0000c0 b9 0c a5 bd ed 0f 94 bd 9e c1 ce ba c4 fc 77 bd
       -0.08059067 -0.072296 -0.0015774255 -0.06054379
0000d0 c8 0b 40 bd e1 fe 4f bb ce 93 24 bd 90 e3 71 bd
       -0.046886235 -0.0031737613 -0.04018002 -0.05905491
0000e0 d9 a0 ae bc 23 97 19 bd 1d a1 9b bc b8 a3 00 bd
       -0.021316933 -0.03749765 -0.018997723 -0.031406134
0000f0 9e 59 ea bd d8 15 68 bc e2 0a 9c 3b da 4a ca bd
       -0.11442874 -0.014165364 0.0047620395 -0.09877558
000100 22 a7 22 3c b9 03 a1 3c 87 c0 71 3d 23 71 6b 3d
       0.009927543 0.019655095 0.0590215 0.057480942
000110 60 41 73 3d af 5c 36 3d 85 2d 51 bb 50 f1 89 3d
       0.05938852 0.044521984 -0.0031918 0.0673548
000120 51 52 f5 3b 3b 1c 7e 3c 60 08 17 3d ed c8 42 bc
       0.0074866195 0.01550966 0.03687322 -0.011888725
000130 ad 4e a9 3b 22 e4 40 bd a3 6d e3 bb 21 5e 15 3b
       0.0051668496 -0.047092564 -0.00694056 0.00227917
000140 37 8e b2 3b 4b 6a bb bc 83 ea 8b bc c9 bb f9 bc
       0.0054490822 -0.022877833 -0.017079597 -0.03048505
000150 cc e0 bf ba dc 1b 33 bc 84 df 56 bd 5d 94 09 3c
       -0.0014639138 -0.010931935 -0.052459255 0.008397189
000160 89 fe 9e bc d2 cf 87 bc ea ee 36 bd 48 02 4e bd
       -0.019408481 -0.016578589 -0.04466144 -0.050295144
000170 35 6f 70 bd e1 f3 87 bd fb b9 47 bd 73 36 58 bd
       -0.058699805 -0.06638313 -0.04876135 -0.0527863
000180 27 d4 32 bd 2d 5b 51 bd 22 1f 1e bd c5 7b 17 bd
       -0.043659355 -0.051112343 -0.03860391 -0.03698327
000190 72 34 91 bb 38 44 ec bc d7 8a 4c bc 41 f1 b1 3b
       -0.004431301 -0.028841123 -0.012484274 0.005430371
0001a0 18 90 e7 bc 42 21 1c bc a1 2c bd bb f3 9d 8e bc
       -0.028266951 -0.009529414 -0.0057731424 -0.0174093
0001b0 96 cb 71 bd 3d 01 44 bc 18 fd a1 3c 28 02 90 3c
       -0.059032045 -0.011963186 0.019774005 0.017579153
0001c0 8a b6 11 bc ab 1f 35 3b a5 98 07 bc 25 09 07 3d
       -0.008893618 0.0027637284 -0.008276139 0.032967705
0001d0 dc 0b b9 bc 78 3a 06 bc 7b 59 99 bb 44 61 3b bb
       -0.022588663 -0.008192651 -0.0046798564 -0.002859191
0001e0 3d 1b bc bc 16 0f 6b bc b4 d0 40 bc 03 f9 8b 3a
       -0.022962207 -0.0143468585 -0.011768509 0.001067907
0001f0 6a 61 16 bd 6b 45 30 bc 65 f2 6a bc 92 2d 84 3c
       -0.036713995 -0.010758738 -0.014340018 0.01613501
000200 1a d1 17 bb 8e bb b5 bc 95 21 c7 bc e6 77 43 bc
       -0.0023165406 -0.02218416 -0.024308005 -0.0119304415
000210 90 48 22 3b 7f 71 22 3b df 23 78 bb 97 3d b0 bb
       0.002476249 0.0024786887 -0.0037863178 -0.005378436
000220 fb 1e 7f bc d4 f8 30 b9 f5 a1 e5 bc 30 87 54 ba
       -0.015571351 -0.00016877364 -0.028031329 -0.0008107303
000230 7b 4a 34 bc 5e ef 7f 3c e2 a6 29 bd 1b 02 47 bc
       -0.011004086 0.015621034 -0.041418917 -0.012146498
000240 cb ea 3a bb d3 c7 70 ba f8 86 d7 bc 4e d2 00 3b
       -0.0028521295 -0.00091850496 -0.026309475 0.0019656601
000250 3b 07 88 bc 5b ab de 3c 91 89 31 3c 7d cb 33 3c
       -0.01660501 0.027181318 0.010836021 0.010973808
000260 a2 e2 ec 3b e1 f6 fa bb 15 0a e1 bc 27 96 9a 3c
       0.007229165 -0.007658825 -0.027470628 0.018870426
000270 3c ae 40 bd 1f a9 e1 bc 5d e2 ae 3b e2 ec 21 bd
       -0.047041163 -0.027546464 0.005337043 -0.03953255
000280 7b bf 8e 3c 34 2b d7 3d a0 96 d5 bd 85 45 94 bd
       0.01742529 0.10506287 -0.1042912 -0.07239822
000290 bd a7 6a bc d9 db e9 bd 47 45 4f 3d cd f3 63 bd
       -0.0143222185 -0.11418886 0.050603177 -0.05565243
0002a0 72 10 00 be 18 78 05 3b c9 b1 0d bd 94 3d f5 bd
       -0.12506273 0.002036577 -0.034593377 -0.11974636
0002b0 29 38 81 bd 9b a9 1e be 75 58 a3 3c 0d 1d 4d bd
       -0.0630954 -0.15494387 0.01993964 -0.050076533
0002c0 47 98 25 3c 55 5d aa bd 28 ab f6 bc ba a0 30 3d
       0.0101071065 -0.08318583 -0.03011091 0.04312203
0002d0 64 12 9f bd 5e e2 db bc af 10 58 3d 2c 55 fb bc
       -0.077671796 -0.026841339 0.052750286 -0.030680262
0002e0 4c ba 2a 3d 92 8f f9 bc 32 15 9c 3c 76 72 92 bc
       0.041681573 -0.030463967 0.019053075 -0.017876845
0002f0 8b b9 2c bc 11 f0 0e bc fe c9 f3 3a e0 90 e2 3a
       -0.010542284 -0.0087242285 0.0018599627 0.0017285608
000300 7b 28 dd bc 17 d8 fa bc 31 f4 33 3d b7 12 e7 3b
       -0.026996842 -0.030620618 0.04393405 0.0070517915
000310 2f e8 7d bd b5 82 0f bd 43 ee e6 bc cc 61 c8 bc
       -0.061989006 -0.03503676 -0.028189784 -0.024460696
000320 c9 3d 75 3c 70 53 d0 bd ca 04 33 3d 6d 0e 40 3c
       0.014968344 -0.101721644 0.04370574 0.011722189
000330 57 d5 cd 3c 63 08 2b 3d 59 a8 1e 3d 0e 20 31 bc
       0.025126142 0.041756045 0.038734768 -0.010810865
000340 36 75 d4 bc 10 fb 8f ba b1 f0 81 bc ba ed c1 bc
       -0.025934797 -0.0010984857 -0.01586184 -0.023672927
000350 9a d4 3a 3d ec 69 84 bd 79 45 57 3d 53 49 73 bb
       0.04561291 -0.064655155 0.05255649 -0.0037122562
000360 2c 31 94 3c 5e 5b c7 bc 36 b7 01 3c 98 20 cd bc
       0.018089853 -0.02433556 0.007917216 -0.025039956
000370 ee e2 80 bd 48 90 80 bd 47 72 c4 bc 49 72 8a bd
       -0.062932834 -0.062775195 -0.023980273 -0.067600794
000380 08 14 c2 3a e0 07 75 bc 2c b3 ff 3c 82 8c 33 3c
       0.0014806995 -0.014955491 0.031213365 0.010958793
000390 f2 17 92 3d 09 01 90 3d 67 46 0e 3d d8 29 b8 3b
       0.071334735 0.070314474 0.03473511 0.0056202225
0003a0 6e a5 12 3d 3d b7 fe bc 87 d3 84 bc 56 9a 58 bd
       0.035802297 -0.031093234 -0.016214145 -0.05288156
0003b0 8b da 8e bd 66 e7 b1 bd bb 79 a1 bc 2d 09 83 bd
       -0.069752775 -0.08686714 -0.019711366 -0.063982345
0003c0 07 16 69 bd ed fc 19 bd c0 04 c5 3b 7f 46 64 bb
       -0.056905773 -0.037594724 0.006012529 -0.0034832058
0003d0 52 dc 3a 3d 3b d4 f7 3b ba 0e 8f 3d 8e 97 24 3b
       0.04562027 0.0075631416 0.06985231 0.0025114748
0003e0 f9 c0 cd 3c d1 e5 d4 bb 4a 3a 2d 3c 02 3d fb bc
       0.02511643 -0.006497123 0.010572979 -0.03066874
0003f0 35 63 aa bc f3 95 19 bd a2 df 3d bd 19 9f 02 bd
       -0.020799259 -0.03749652 -0.04635585 -0.03189001

encoder.0.0.proj.bias f4 [8]
000000 b3 17 de bc d6 aa ff bb 45 4f 43 bd 79 f8 15 be
       -0.02711091 -0.0078023477 -0.04768302 -0.14645566
000010 15 73 4c 3d 8d 17 5e 3f 72 94 84 3e 80 6f 37 3e
       0.04991444 0.86754686 0.25894505 0.17913628

encoder.1.attention.QKV.bias f4 [24]
000000 0f 18 9b be 4d 79 81 3e 72 23 9b be 57 f8 92 bd
       -0.30291793 0.25287858 -0.3030048 -0.07176273
000010 6a a2 3f 3e ec a1 8b bd e1 15 ab 3e 71 b7 2e 3e
       0.187143 -0.068179935 0.3341513 0.17062165
000020 46 dc 35 bf b5 93 35 3e a7 77 b6 be a2 4f 97 3e
       -0.71039236 0.17732127 -0.35638162 0.29552943
000030 8b 35 0d 3f ac 6f 7c be e1 24 3e 3d 59 33 03 be
       0.55159825 -0.24651974 0.04642189 -0.12812556
000040 63 32 ed 3e da bc 89 3e 08 ab 0e 3f 5d e9 a5 be
       0.46327505 0.26901895 0.5572972 -0.32404605
000050 06 f0 01 3f ce 52 cb 3c 87 a5 8e 3e 4c 6d 82 be
       0.5075687 0.024819758 0.27860662 -0.25474012

encoder.1.attention.out_proj.bias f4 [8]
000000 16 d0 7f be f9 dc 72 3c fc 87 df bd c5 da bf be
       -0.24981722 0.014823192 -0.10914609 -0.37471595
000010 8b 3f 1d bf 37 0c 19 3b 28 aa 5b 3e 3d 14 d3 bd
       -0.61425084 0.0023353228 0.21451628 -0.103065945

encoder.1.linear1.bias f4 [8]
000000 0f 26 0d be cd 6b a7 be 99 d7 c7 be 42 be 06 3e
       -0.1378405 -0.32699433 -0.39031675 0.13158515
000010 b3 dc 4e 3d b8 e9 8a 3e 48 e5 b6 be d3 5e 48 be
       0.050503444 0.27131438 -0.35721803 -0.19567423

encoder.1.linear2.bias f4 [8]
000000 31 3d 61 3d 59 42 09 ba 18 8a 09 3d ad 18 c0 3b
       0.054989997 -0.0005236022 0.033578962 0.0058623166
000010 a0 03 72 3c 8e f3 60 b9 de f5 92 bc e2 57 29 bd
       0.014771372 -0.00021453036 -0.017939504 -0.041343577

encoder.1.norm1.weight f4 [8]
000000 4f 3f 6a 3f c3 7d 8c 3f 53 2e 7f 3f 8f 8d 5b 3f
       0.9150285 1.097588 0.9968006 0.85762876
000010 dc 9e 80 3f 43 11 a4 3f ee 57 58 3f 48 55 71 3f
       1.004848 1.2817768 0.8450917 0.94270754

encoder.1.norm1.bias f4 [8]
000000 eb a8 15 3c b3 0a ee bd 3e 77 97 3d cb 43 81 3e
       0.009134511 -0.116231345 0.073957905 0.25247034
000010 49 8a 0e be 9b 43 a4 bd ef 85 91 bd c4 24 d9 bd
       -0.13919939 -0.08020707 -0.07105624 -0.106027156

encoder.1.norm2.weight f4 [8]
000000 5e ab 58 3f f0 24 70 3f 97 b0 83 3f b5 c0 50 3f
       0.84636486 0.9380636 1.0288266 0.8154405
000010 10 36 88 3f a0 c4 8f 3f f0 e7 83 3f 58 41 90 3f
       1.0641499 1.123188 1.0305157 1.1269941

encoder.1.norm2.bias f4 [8]
000000 bc 1b 9d bc 02 1c a5 bb f7 a1 3a bd 08 a4 c3 bb
       -0.019178264 -0.005038739 -0.045564618 -0.005970482
000010 5f 50 68 bc 73 be 42 3b 49 1f d2 bb 43 98 42 3b
       -0.014179318 0.0029715567 -0.006412421 0.0029692806

encoder.5.0.dw_conv.0.weight f4 [8, 1, 5]
000000 bc de 82 3e af 71 eb 3e 96 51 d2 3d 28 d6 8a 3e
       0.25560558 0.4598517 0.102694675 0.27116513
000010 91 ac f5 3e a8 71 98 bd f1 63 0c be ad ce a2 be
       0.4798322 -0.07443553 -0.1371 -0.31798306
000020 44 4f ff be 41 7b fd 3e 7f 71 19 3e 8c 4a e6 be
       -0.49865162 0.49508098 0.14984702 -0.4497875
000030 fa fe 7d bd ef 50 df 3e 90 e4 98 be a4 91 b4 3e
       -0.062010743 0.43616435 -0.2986188 0.35267365
000040 fa e6 fe 3e 55 f7 37 be 88 44 14 bf 35 69 43 be
       0.49785596 -0.17965443 -0.5791707 -0.19083102
000050 6c c0 d7 bd 6a 37 1f 3e e5 f6 56 3e bd da 7f 3e
       -0.105347484 0.15548483 0.2099262 0.24985786
000060 80 c7 0f 3e 5c 45 c6 3e 3c a1 f2 3e db 96 18 3d
       0.14040947 0.38724792 0.47388637 0.037253242
000070 ce b6 62 be 21 5a ec 3e e4 31 11 be 29 1b ba 3e
       -0.22140047 0.46162513 -0.14179188 0.36348847
000080 28 97 12 3d 0b 08 d3 3e ce 56 63 3e ee 01 72 bd
       0.035788685 0.41217074 0.22201082 -0.05908387
000090 8c 84 d2 3e 02 7c 5c 3e 2e 81 8f 3e a6 1a 10 be
       0.4111675 0.2153168 0.28028244 -0.14072666

encoder.5.0.dw_conv.0.bias f4 [8]
000000 ae a2 39 be 48 43 7d bd ad 0b 13 be 81 68 9c b9
       -0.18128464 -0.061831743 -0.14359923 -0.000298325
000010 f6 3f 5e 3d eb 50 88 be f1 63 a7 3e 28 b7 c8 bd
       0.054260217 -0.26624236 0.32693437 -0.09800559

encoder.5.0.pw_conv.0.weight f4 [16, 8, 1]
000000 e8 a6 e6 3e c2 4d 82 3d 62 7e ab be f2 0a 43 3e
       0.45049214 0.063624874 -0.3349486 0.19047144
000010 06 cc 86 3d b7 94 7d 3e 5a c0 6a bd f3 7a d8 be
       0.06581883 0.24763761 -0.057312347 -0.42281303
000020 7a be a7 be b2 5f fd 3e 80 07 88 bd 49 99 74 3d
       -0.3276251 0.49487072 -0.066420555 0.059716497
000030 df 78 8c be 46 d0 c1 3e aa a8 11 3e 20 04 ad bc
       -0.27435967 0.37854213 0.14224496 -0.021120131
000040 f5 79 24 3e 46 a7 fd bd ba 2a 6b 3e d9 b5 d7 bd
       0.16062148 -0.123854205 0.22965518 -0.105327316
000050 26 72 be bd 40 59 a4 be 7e 4e 88 be 56 9a b3 bd
       -0.09299116 -0.32099342 -0.26622385 -0.087696716
000060 04 b2 b4 3e e9 fc af bd 10 5a 76 3e a0 e4 c8 bd
       0.35292065 -0.08593161 0.24057794 -0.09809232
000070 5a 8b 37 be 2d aa 8d be 8b b6 7c be 38 81 b4 be
       -0.17924252 -0.27668896 -0.2467901 -0.35254836
000080 b3 8f aa 3d 57 a3 99 be 6b 9d c7 bd fb 9f 8c 3e
       0.0832819 -0.3000743 -0.09746822 0.27465805
000090 69 00 48 be 13 d2 3e 3d 7b 28 fd 3d 70 8b c3 bd
       -0.19531406 0.04658706 0.12361237 -0.0954808
0000a0 2a 31 14 3e 68 2f 7f bd ca 24 ca bd de f7 aa 3e
       0.1447188 -0.06230107 -0.09870298 0.33392233
0000b0 8e 69 00 3e c1 f0 6e 3e d3 b0 fa 3d bf 1b 8c 3d
       0.12540266 0.23334028 0.12240758 0.0684123
0000c0 32 a6 ab 3e aa d2 ad 3e fe 84 41 3d 7f f6 32 bf
       0.33525234 0.33949786 0.04724597 -0.69907373
0000d0 b9 1b 89 3d 17 0a 1a 3e 15 26 d0 bd bf 13 9a 3e
       0.06694741 0.15042911 -0.101635136 0.3009319
0000e0 d0 e9 41 3e 57 91 c9 be 0a 24 19 be 06 36 5d 3e
       0.18936849 -0.39368698 -0.14955154 0.2160264
0000f0 64 11 7d 3e fc 36 7c be 1f 99 6c be b2 52 be 3e
       0.24713665 -0.2463035 -0.23105286 0.37172467
000100 54 d7 9f 3d b7 72 99 3e 01 3e da be d7 0f 0f bd
       0.078047425 0.29970333 -0.4262543 -0.034927215
000110 68 4b 7e 3d fa 44 bd be 63 ee 88 3d 33 ef 86 3e
       0.06208363 -0.36966687 0.06686094 0.2635437
000120 85 fe 81 3d ea a5 98 be e5 a3 d6 be 73 76 20 3d
       0.06347374 -0.29814082 -0.41921917 0.039175462
000130 0f 02 23 3d fd 1f ff be bd b2 91 bd 1f df f0 be
       0.039796885 -0.49829093 -0.0711417 -0.47045228
000140 12 a0 8a 3e 93 12 17 bf a2 00 95 3e e9 ce b5 ba
       0.2707525 -0.59012717 0.29102045 -0.0013870868
000150 5a 7f 17 3e b3 78 8b be c3 7a 74 be 3a cf 6f 3e
       0.14794675 -0.27240524 -0.23874955 0.23418894
000160 e9 9b 2e 3d 41 aa 3e bc 3b 5d 82 bd a5 40 95 3d
       0.042629156 -0.011637271 -0.063654386 0.072877206
000170 30 c1 43 3e 2d bb 99 3e dc f9 bb 3e 4a 0d e9 be
       0.19116664 0.30025616 0.36714065 -0.4551795
000180 c5 ce fe 3d 0e 36 e9 be 0c d4 31 3e ec 13 c8 3e
       0.12441782 -0.45549053 0.17366046 0.390777
000190 c3 c4 13 be 16 2a 46 be 70 0d aa 3e 74 a4 ef bb
       -0.14430527 -0.19351992 0.33213377 -0.0073133055
0001a0 fd 1e 08 3e d9 d0 c5 3e d1 7d 54 3d 23 3e 79 bd
       0.13293071 0.386359 0.0518778 -0.060850274
0001b0 2f 4a c0 bc dc 29 80 be 72 cd 16 3e 3e 04 8f be
       -0.023472873 -0.25031936 0.14726809 -0.27932924
0001c0 66 67 6f bd c2 e7 be 3d 4d 09 1d bd 30 71 37 bd
       -0.058448218 0.09321548 -0.038338948 -0.04478568
0001d0 d7 69 da 3e f5 f2 f4 3e 9f a3 8c 3d b8 ae e9 3d
       0.42658874 0.47841612 0.06867146 0.11410278
0001e0 e9 d6 c7 3e 0b 7b 34 bd e0 0d a0 3e 16 94 b1 be
       0.3903115 -0.044062655 0.31260586 -0.34683293
0001f0 5f f0 0a be b9 04 5d be f7 ac b8 bd ca af b3 be
       -0.13568257 -0.21583833 -0.090173654 -0.35095054

encoder.5.0.pw_conv.0.bias f4 [16]
000000 38 b9 3b 3e 24 1a 5c 3e 31 50 b2 be 46 9d ac 3e
       0.18332374 0.21494347 -0.34826806 0.3371374
000010 5c 9f f5 3d c5 16 88 bd 2b 6b 02 bb de 83 6e 3e
       0.11993286 -0.06644968 -0.0019900303 0.23292491
000020 5f 75 9d 3e 36 03 75 be ef 17 8d be f4 07 cb bd
       0.3075361 -0.23927006 -0.27557322 -0.09913626
000030 bd 6a 59 3e dc 23 45 3e 9b 1d 22 bd b9 e6 8b bd
       0.21232124 0.1925196 -0.039579015 -0.06831116

encoder.5.0.proj.weight f4 [16, 8, 1]
000000 e6 b0 a3 3e 2d 53 ff bd 58 7c 92 bd 39 c4 92 3e
       0.319709 -0.124670364 -0.07152623 0.2866533
000010 f5 65 4d 3d 59 d0 23 3e 25 42 f1 bd 69 bc ad bc
       0.050146062 0.15997447 -0.11780194 -0.021208005
000020 8a 1b ae bb 4d 65 d8 3d 03 d0 3b be f3 f3 d8 3e
       -0.0053133415 0.105661966 -0.18341069 0.42373618
000030 89 a2 39 be ab 01 1d 3e a8 db 8c 3e 9a a8 5e be
       -0.18128408 0.15332668 0.27511334 -0.21744004
000040 6f 33 cf bd 24 1c 0d bc 71 8d 9f bc 89 88 84 be
       -0.10117232 -0.008612666 -0.019476624 -0.25885418
000050 50 01 28 be 75 93 83 be da 17 b2 3d c0 e9 98 be
       -0.1640675 -0.25698438 0.086959556 -0.29865837
000060 0f 3a 68 be 8e 95 e7 3d 4a 5f cb 3b a6 16 c4 3d
       -0.22678398 0.11307822 0.0062064277 0.09574632
000070 cf b1 8a 3e 33 7a 1c be e4 e5 7d 3e a8 fb 8c 3d
       0.27088782 -0.1528099 0.24794728 0.06883937
000080 45 2c 85 3c 81 9d e9 3d 45 88 1d 3e e0 5a a1 be
       0.01625646 0.114069946 0.15384014 -0.31514645
000090 6a 3e 88 be 9a dd a4 be 76 b6 6d 3e 8b 21 0f 3e
       -0.26610118 -0.3220032 0.23214135 0.1397764
0000a0 4a 28 8c bd b0 31 72 be 44 25 b4 3e 8d 07 52 be
       -0.06843622 -0.23651767 0.3518468 -0.20510693
0000b0 21 b8 70 3e 04 75 28 be d0 f8 81 3e f1 46 32 be
       0.2350774 -0.16450888 0.2538514 -0.17409874
0000c0 f4 48 f4 3d 9a 73 c6 be 41 d2 3a be 76 ac 87 3e
       0.11927977 -0.38760072 -0.18244268 0.26498765
0000d0 01 db bb 3e 2b ac 07 3e 8a 6a cf 3d b0 f2 e1 3d
       0.36690524 0.1324927 0.101277426 0.11032617
0000e0 d2 4b 08 be 06 0e bd 3d 41 f7 cc bc 57 fb 80 3e
       -0.13310173 0.092311904 -0.025020244 0.25191757
0000f0 b5 2a 3b 3d 43 f1 cf 3e 8d b0 6e 3e 6c 87 4a 3e
       0.045695025 0.40613756 0.23309536 0.19778222
000100 57 6f 8e be 1f cf 4f bd 02 eb 2b be 17 96 4d 3d
       -0.2781932 -0.050734635 -0.16788867 0.050191965
000110 b4 a1 93 3e e9 a6 a7 be 18 1d 01 3e 99 3c bc 3e
       0.28834307 -0.3274453 0.12608755 0.36764982
000120 2f 8b 04 3e db e3 89 be 90 bd 39 be f8 2d b6 3e
       0.1294372 -0.26931652 -0.18138719 0.35581946
000130 ab 6f f2 bc 5d 01 e5 3d 38 c2 ae be b3 0a 9d be
       -0.029594263 0.11181901 -0.34132552 -0.30672225
000140 d5 cc 16 be b8 7e a3 3e 1d 07 ce 3e fa a5 aa be
       -0.14726575 0.31932616 0.40239802 -0.33329755
000150 05 71 9f 3e 23 8d 0c 3d fb ec 63 bd a5 b5 19 be
       0.31140915 0.034314286 -0.055645924 -0.15010698
000160 30 05 51 3e 42 1f 27 bb 03 71 a5 bc 68 04 cd 3e
       0.20412135 -0.002550081 -0.02019549 0.40042424
000170 f8 84 89 3d 70 11 3f be 36 56 60 be 43 36 8a be
       0.06714815 -0.18658996 -0.21907887 -0.26994523
000180 94 83 61 be 0a 7e 76 3e 6e c5 42 3e 26 3a bd bd
       -0.2202285 0.24071518 0.19020626 -0.092396066
000190 06 60 2a be c8 6e 3d be 29 45 d3 3e 18 cb 10 be
       -0.16638193 -0.18499291 0.41263703 -0.14139974
0001a0 0c d3 6e 3d 56 bd 5c 3e d6 be 6e be 41 9b 85 be
       0.05830674 0.21556601 -0.23314986 -0.26095012
0001b0 ca 21 88 3e d9 2b 54 3e b9 8a b2 3d a0 e7 7d be
       0.2658828 0.20719852 0.087178655 -0.24795389
0001c0 e0 1c a8 be 5b 2c 22 bd 7b 98 25 be 56 8a ac 3d
       -0.3283453 -0.039593082 -0.16171448 0.08424823
0001d0 63 6f 17 3e c6 95 c2 3d c1 a4 00 bf 55 09 5f be
       0.14788584 0.09501223 -0.50251395 -0.21780904
0001e0 25 b0 ec 3c e2 ad c7 bd 08 c3 04 be b7 9a 6b 3d
       0.028892586 -0.097499624 -0.12965024 0.057520594
0001f0 ef 27 af be 2d e8 96 3e 03 7e a3 bd d0 45 be 3d
       -0.34210154 0.2947401 -0.07983019 0.092906594

encoder.5.0.proj.bias f4 [16]
000000 fd d5 b0 3e 54 fe 82 bd f5 2a 51 be c8 64 93 be
       0.3453826 -0.063961655 -0.20426543 -0.28787827
000010 90 ce 8a 3e 79 8b 20 3e 99 db 90 be 29 80 72 be
       0.2711072 0.15678205 -0.2829254 -0.23681702
000020 47 2a 2e 3e 60 97 c1 3e b9 fb 8d be 7d 01 e5 3e
       0.17008315 0.37810802 -0.27731112 0.44727698
000030 d3 8c b5 3d aa 4b 31 3e 21 a9 da be b7 b2 e8 bd
       0.08864751 0.1731402 -0.4270716 -0.11362212

encoder.6.attention.QKV.bias f4 [48]
000000 fe b2 a2 3b 0d d6 26 bc b0 f3 a0 bd c9 12 60 be
       0.004965185 -0.01018287 -0.0785898 -0.21882166
000010 ca 14 13 3e 48 74 18 bb 62 a8 41 be e5 fe b5 3d
       0.14363399 -0.0023262668 -0.18911889 0.08886508
000020 b8 f6 21 3e a5 0d 6c be 9b 77 8b bd be 43 a7 3d
       0.15816772 -0.2305208 -0.06809922 0.08167218
000030 af 9a 28 3e 5e 18 08 be 3b f1 da 3d 9d 38 5c be
       0.16465257 -0.13290545 0.10690542 -0.21505971
000040 fb 6e 91 3e 78 28 a9 3e 85 e8 82 be e2 31 89 bd
       0.28404984 0.33038688 -0.25568023 -0.066989675
000050 01 33 a3 bc ce 69 29 be e9 ca ca 3e e9 b0 b5 bc
       -0.019921781 -0.16544268 0.39607933 -0.022179084
000060 d2 8d be 3e 7f 74 ef be 0e 40 9d 3e 14 ef b3 bd
       0.37217575 -0.46768567 0.30712932 -0.08785835
000070 6e 79 45 bd 98 ee c3 3d 4b b8 9c be 7a 14 5f 3e
       -0.048211507 0.095669925 -0.30609354 0.21785155
000080 79 a9 7b 3d d0 15 bc 3d 25 7d 26 3d ea 1d dd 3d
       0.06144092 0.09183848 0.04064669 0.10796721
000090 26 cd ad 3c b2 2a a9 3d 21 12 33 3e 3d e7 3c 3e
       0.021215986 0.082600966 0.17487384 0.18447585
0000a0 91 46 6d be 6b 50 60 3e 8b 26 83 3d 4f 47 b6 bd
       -0.2317145 0.21905677 0.06403836 -0.0890032
0000b0 43 b2 ef 3d ef 73 55 3e f6 ef 4d bd 50 14 28 3e
       0.117039226 0.20845006 -0.050277673 0.16413999

encoder.6.attention.out_proj.bias f4 [16]
000000 41 2d 8f bd a0 20 d3 3d 76 f2 88 3d 74 fe 83 be
       -0.069910534 0.10308957 0.06686871 -0.2578007
000010 d2 ec 0b bd 93 f7 cd 3c 13 c4 bb bd ff ef 09 3d
       -0.034161396 0.025142467 -0.091682576 0.033676144
000020 18 df db 3d b3 77 5e bc b3 9f 2c 3e 21 8f 4b 3e
       0.10735911 -0.013578343 0.16857795 0.19878818
000030 c8 eb e4 bd 68 49 03 be 32 33 36 be 60 fd 2f be
       -0.11177784 -0.12820971 -0.17792967 -0.17186499

encoder.6.linear1.bias f4 [16]
000000 66 b4 c2 bd af f3 9f bd 47 0b 50 be cb bc c4 3d
       -0.095070645 -0.07810151 -0.20316802 0.09606322
000010 7d dd a1 be 17 1e 1f be 74 3b 47 be 82 3b 18 be
       -0.31614295 -0.15538822 -0.19456273 -0.1486645
000020 68 08 8f be 00 81 92 bd 7a d3 cb 3d 75 06 96 bd
       -0.279361 -0.07153511 0.09952445 -0.0732545
000030 1f 3c 6e 3d c7 18 7d be 49 54 67 be 90 cb fc bd
       0.058162805 -0.24716483 -0.22590746 -0.12343514

encoder.6.linear2.bias f4 [16]
000000 7c 42 a3 3d d5 64 98 bd a2 28 1e 3e 71 39 01 3e
       0.07971665 -0.07441107 0.15445188 0.12619568
000010 20 d5 25 bb 6b 1c 22 be a8 11 d5 bd 77 93 c5 bc
       -0.0025304034 -0.15831153 -0.10403758 -0.024118168
000020 c5 b5 06 3d 4c 01 64 bd d0 f7 a8 bd e8 f1 6a 3c
       0.032888193 -0.0556653 -0.082503915 0.0143399015
000030 3e 9b 01 3c 45 15 2d 3c e6 5e 1a bd 69 33 45 3c
       0.007910548 0.010564153 -0.03768816 0.012036183

encoder.6.norm1.weight f4 [16]
000000 95 4c 8d 3f b1 a6 87 3f 44 bc 93 3f 8b 36 6e 3f
       1.1038996 1.0597745 1.1541829 0.93051976
000010 68 b8 76 3f af d3 6d 3f a9 74 8d 3f 49 06 70 3f
       0.9637513 0.9290113 1.1051227 0.9375959
000020 5e 90 79 3f 88 2d 88 3f 48 04 5f 3f c3 cd 6d 3f
       0.9748591 1.0638895 0.8711591 0.9289209
000030 3d 39 2a 3f 38 b3 54 3f 3e 67 81 3f 2d 6a 8c 3f
       0.6649359 0.83085966 1.0109632 1.0969902

encoder.6.norm1.bias f4 [16]
000000 74 67 20 3d 33 a3 f2 3a fe 00 34 3c 7b 41 9e bd
       0.03916116 0.0018511772 0.010986565 -0.07727333
000010 43 af 51 3c 57 7c 1b bc 76 c6 85 bd 2b f4 3c 3d
       0.012798133 -0.009490094 -0.06531994 0.046131294
000020 a1 60 4e bb 55 31 bf b8 92 dd da bc 70 99 fc 3c
       -0.00314907 -9.1167785e-05 -0.026716981 0.030834883
000030 1e 83 58 be 1b aa 19 3e 28 84 64 bd 44 ad 7f be
       -0.21143767 0.15006296 -0.055790097 -0.2496844

encoder.6.norm2.weight f4 [16]
000000 a0 43 87 3f e0 39 65 3f 5c 50 87 3f 74 64 73 3f
       1.0567513 0.89541435 1.0571399 0.95075154
000010 bd a0 81 3f 89 55 62 3f 8f e5 88 3f b4 32 86 3f
       1.0127178 0.88411766 1.0695056 1.0484223
000020 0a 34 87 3f bc de 84 3f df d5 73 3f 30 19 72 3f
       1.0562756 1.0380473 0.95248216 0.94569683
000030 57 5d 70 3f 94 6b 77 3f 6b 98 81 3f 61 3e 91 3f
       0.93892425 0.96648526 1.0124639 1.1347162

encoder.6.norm2.bias f4 [16]
000000 5b 7b 82 3c ec 67 d0 bb dc 4d 0c 3c 56 87 90 bb
       0.015927961 -0.0063600447 0.008563485 -0.0044106646
000010 30 1b b2 bb 82 44 bd ba b3 8e 40 bb d0 b8 d9 ba
       -0.00543537 -0.0014439973 -0.002938193 -0.0016610865
000020 24 e8 6a ba 39 d5 98 3a ad 0f 35 bb 6a 2d 9a 3b
       -0.0008960983 0.0011660225 -0.0027627752 0.004705121
000030 26 76 46 bb 70 8d b0 3b c2 fd a4 b9 86 70 e2 39
       -0.0030282824 0.0053879544 -0.00031469582 0.00043189916

encoder.10.0.dw_conv.0.weight f4 [16, 1, 5]
000000 13 5e 15 bf 81 d7 4c 3d 97 fd 82 3e ce ef 93 be
       -0.5834667 0.050010208 0.255841 -0.28893894
000010 a5 f9 fc bb f6 5f cb bd 0e f3 14 be 06 c9 79 be
       -0.0077201896 -0.099304125 -0.14545843 -0.2439309
000020 57 23 1e 3f 92 cc 85 3e b1 0a 93 3e cf 11 17 be
       0.61772674 0.26132637 0.28719094 -0.14752887
000030 e6 0a 98 bc 0c 6f 06 3f b3 06 95 3e 56 9c cc 3e
       -0.018559884 0.52513194 0.29106674 0.39963025
000040 74 f1 c5 be 78 a3 4c be a6 d4 c0 bd da b4 57 be
       -0.38660777 -0.19984233 -0.094155595 -0.21065083
000050 f6 03 8f 3d ca e8 6e bd 15 c7 dc be 50 ac 60 be
       0.06983177 -0.058327474 -0.43120638 -0.21940732
000060 81 74 68 be 62 2b fa be 77 05 b2 3e 2c e1 b0 3e
       -0.22700693 -0.48861223 0.34769794 0.34546793
000070 b8 13 34 bf a4 28 85 3e 52 0f 68 be a2 27 1f 3f
       -0.7034259 0.2600757 -0.22662094 0.6216985
000080 e2 4c e6 3e 8f 50 cd 3d 9f d3 a6 3e 69 95 81 3c
       0.44980532 0.10025131 0.3258333 0.015818315
000090 85 3c 51 be 65 ea ab 3e 9b 1b 16 be 6c 1a cc 3e
       -0.20433243 0.33577266 -0.14658968 0.39863908
0000a0 3c bf 54 be c1 40 26 3f ee 2e 8b 3e 57 ec 8e be
       -0.20776075 0.64942557 0.27184242 -0.27914688
0000b0 b9 26 4d 3e a9 21 c2 3e 8f 17 d7 be d3 dd 12 be
       0.20034303 0.37916306 -0.4201016 -0.14342432
0000c0 24 ec 4e bd 18 4e 4a be 15 7c a4 be e8 9c 34 3e
       -0.05051817 -0.19756353 -0.32125917 0.1763798
0000d0 ec b8 bb 3e ae fe 96 be 1a 50 4f be ee a3 03 3e
       0.36664522 -0.2949118 -0.202454 0.12855503
0000e0 c1 a7 49 be 37 a1 b9 3d 28 6f 3c 3e 21 ef 25 3e
       -0.196929 0.090639524 0.18401778 0.16204502
0000f0 e9 bc c8 be ba f3 a9 3e 7d 2a 95 3e ee 02 0b 3e
       -0.39206627 0.3319376 0.29133978 0.13575336
000100 46 52 75 bd c5 37 fc bd 0c 60 ad 3e 5c a9 0f 3e
       -0.059892915 -0.12315325 0.3386234 0.14029449
000110 04 19 93 3e 68 6a ab 3e 22 9e 80 3d 56 d8 f7 bb
       0.28730023 0.3347962 0.062801614 -0.007563631
000120 4b 72 b4 3e 81 e7 1f bd d1 c1 cc be 6a 9e 51 3e
       0.3524345 -0.03903914 -0.3999162 0.20470586
000130 c8 fc de 3e 9c 31 05 3f c7 0e 56 3c 48 4b 51 be
       0.43552232 0.5202882 0.013065047 -0.20438874

encoder.10.0.dw_conv.0.bias f4 [16]
000000 f2 e0 10 3f 69 29 74 3e 90 80 01 3f 27 77 8f 3e
       0.5659324 0.23843922 0.50586796 0.28020594
000010 d8 48 33 be 99 ee ac b9 cd 22 25 3e 1f a1 19 be
       -0.17508256 -0.00032984166 0.16126557 -0.15002869
000020 21 9a 37 be 01 50 68 be de ae 15 3e 80 4d c6 3e
       -0.1792989 -0.22686769 0.14617488 0.38731003
000030 03 d8 e3 be 17 af 4d 3e 8c 9f e1 be 17 0e 0a 3f
       -0.4450074 0.20086323 -0.44067037 0.5392775
