files/model_micro.onnx (onnx, 479436 bytes, 73 tensors)

617 f4 [8, 8, 1]
000000 bf a2 a6 3f d1 90 9f 3e f2 25 87 be bf bb 1c 3e
       1.3018416 0.31165174 -0.26396137 0.15305994
000010 79 d8 ae 3f 1a c0 9b be 7e df e3 3d 2f 24 49 be
       1.3659812 -0.3042 0.11126612 -0.19642709
000020 2c 00 a0 3e 7d c0 a5 3e 94 ac 5c 3f 33 a0 48 bf
       0.3125013 0.3237342 0.86200833 -0.78369445
000030 08 c1 81 bf 61 54 1a bf f6 2d 77 3f 9a c5 18 be
       -1.0137033 -0.60285 0.96554506 -0.14919129
000040 d9 ad cf bc d6 c0 59 3e c5 e6 66 3d f6 d7 21 bf
       -0.025351452 0.21264967 0.056372423 -0.63220155
000050 7e 93 ab 3e 30 1b 10 3f 9e ff f1 bd 41 f3 7f 3f
       0.33510965 0.56291485 -0.11816333 0.9998055
000060 04 b3 12 bf a3 b8 4d 3e a1 2e 8f bf a9 58 ef 3d
       -0.57304406 0.20089965 -1.1186105 0.116868325
000070 f5 7c 52 bf dc f9 2b 3e 05 82 b5 3c c0 1f 80 3f
       -0.8222192 0.16794533 0.022156725 1.0009689
000080 19 82 98 bf d8 15 16 3d 44 8e 1e 3e 96 64 43 bd
       -1.1914703 0.036641926 0.15483958 -0.047703348
000090 76 22 5d bf b5 1f 93 3f a3 07 dc 3e 29 47 c3 3e
       -0.8638071 1.1494051 0.42974576 0.38140228
0000a0 30 4e 7a 3f e0 2c 36 bf 47 b5 26 3f 16 73 7e bd
       0.97775555 -0.71162224 0.6512036 -0.062121473
0000b0 f4 c0 61 3f fd 5c 0d be 2b 27 56 be c2 59 bc bd
       0.8818505 -0.13805003 -0.20913379 -0.091968074
0000c0 b3 26 7a bf 44 d9 88 3d 2c 47 19 3f ce 47 0b 3e
       -0.977153 0.06682065 0.59874225 0.1360161
0000d0 d7 af b5 3e 4a c8 b0 be a1 ea 0a be 7c fd 0a 3e
       0.35485718 -0.34527808 -0.13566066 0.13573259
0000e0 c8 01 a2 be b6 89 8b bf 33 94 4f bf 01 e6 15 3f
       -0.31641984 -1.0901401 -0.8108551 0.58554083
0000f0 86 71 ee 3d 35 93 55 3c e5 d4 3b 3e 98 6d 87 bf
       0.116427466 0.013035585 0.18342932 -1.058032

618 f4 [8]
000000 10 a1 82 40 04 12 0a bf ac 85 9c 3f bc 75 c5 be
       4.082161 -0.5393374 1.2228293 -0.38566387
000010 24 d1 4b c0 7f 26 48 40 a1 b7 bc be 00 0b 11 3b
       -3.18464 3.1273496 -0.36858848 0.00221318

620 f4 [16, 16, 1]
000000 74 ef 4b 3e b6 b2 d6 be 21 9c 42 be 0b 07 b1 3c
       0.19915563 -0.4193322 -0.19004871 0.021609804
000010 3a db 2e 3e 86 28 03 3f 30 08 a6 be e3 7b ac bd
       0.17075816 0.5123371 -0.32428122 -0.08422067
000020 a6 53 1a 3f 36 e3 e7 bd fe 45 dc 3e 87 3f 97 be
       0.6028389 -0.11322634 0.4302215 -0.29540655
000030 9d 4c 7c be 34 3d 0f 3f 67 5b cb 3d 22 b2 d7 bd
       -0.246386 0.55952764 0.09929543 -0.10532023
000040 a3 e4 87 bd e5 17 06 bf f4 8f b9 bd 75 81 0e 3e
       -0.06635406 -0.5238021 -0.0906066 0.13916571
000050 ea 8e 2d 3e 16 96 94 be e6 a4 71 3e 26 97 28 bf
       0.16949049 -0.29020756 0.2359806 -0.65855634
000060 fd be b7 3e 80 de e9 be 98 a8 06 bd d3 d3 5e bd
       0.358879 -0.45677567 -0.032875627 -0.05440123
000070 58 9b d4 3d 9a 63 ab 3e 7c 82 68 be 54 0b 2e 3e
       0.10381192 0.33474427 -0.22706026 0.16996509
000080 69 a7 2b 3e dc 1d 90 3e b5 65 b0 be 67 b7 f2 3e
       0.1676308 0.2814778 -0.34452596 0.4740555
000090 1a bd b4 be 55 0f 94 bd c3 c4 07 bd d3 a6 8f bc
       -0.35300523 -0.07229487 -0.03314663 -0.017535603
0000a0 95 37 f3 be fb 53 25 be bc d8 c5 3e 38 3e 93 bd
       -0.47503343 -0.16145317 0.38641918 -0.07189602
0000b0 da d2 07 3f 67 0a f4 be 8a 90 a2 3d a8 de 90 3e
       0.5305611 -0.47664186 0.07937725 0.28294873
0000c0 e8 a6 ff 3d c0 34 49 3e 60 44 73 be 0d 7d 08 bc
       0.12483007 0.19649029 -0.23756552 -0.008330596
0000d0 4c ef 7a 3e a9 5a e2 3d e0 1c 39 bb 29 ed 31 be
       0.24505347 0.11052448 -0.002824597 -0.17375626
0000e0 fb 6a 13 bf 77 0b b8 3e 30 1b be bd ef 7a 27 be
       -0.57585114 0.35946247 -0.09282529 -0.16355489
0000f0 b7 f9 db be f0 da 0f be 69 4e 14 3e 0b ce 0f 3c
       -0.42963955 -0.14048362 0.14483036 0.008777152
000100 46 91 f5 bd 53 15 3d 3e c1 8a 05 3f b9 e5 e1 3e
       -0.11990599 0.18465166 0.52164847 0.44120577
000110 61 4c 1f 3d d6 2f 86 be df 41 b6 be 13 b0 4d be
       0.0388912 -0.2620837 -0.3559713 -0.20086698
000120 5d 10 01 3f fb 04 93 3e d5 bd b3 3d 9c 41 84 be
       0.50415593 0.28714737 0.08776442 -0.25831306
000130 a7 14 d8 3e 36 4e a6 be aa 40 fc be d7 05 ac bd
       0.42203256 -0.32481545 -0.49268085 -0.08399551
000140 7c 23 02 bf 77 59 41 be a6 94 96 3d 34 ba 82 be
       -0.50835395 -0.18881784 0.07352571 -0.25532687
000150 69 d6 aa bd 87 7f cc 3e e6 48 d1 be 80 9c c2 3d
       -0.08341677 0.39941046 -0.4087593 0.09502506
000160 ee 61 36 be 4f fd 97 3e 9d 4d f5 3d 5b 62 a7 be
       -0.17810795 0.29685447 0.11977694 -0.32692227
000170 77 51 80 3e 38 71 57 3e d4 f1 84 3e 65 77 20 bd
       0.25062153 0.21039283 0.2596575 -0.039176363
000180 35 bd 30 3e 93 59 0f be ae 3d 58 3e 98 87 e1 bb
       0.17259677 -0.13999014 0.21117279 -0.006882619
000190 3b 37 89 3d 1d e4 e1 3e 32 bc ab 3c cb 0b 1c 3e
       0.066999875 0.4411935 0.020963762 0.15238874
0001a0 40 22 f7 be 25 f7 65 3e 3f 32 0b 3f 19 6c 1e be
       -0.48268318 0.2245756 0.54373544 -0.15470923
0001b0 f0 04 f9 be db 62 69 3e 46 63 f5 3d 64 02 c3 be
       -0.4863658 0.22791617 0.119818255 -0.3808776
0001c0 3d eb 32 3e f3 70 16 be dc a2 b6 3e 8a d7 b5 3e
       0.17472549 -0.14691524 0.35671127 0.35516006
0001d0 7b 79 ae be 33 b2 22 3f 57 ff 8b 3e aa cb a2 be
       -0.34077057 0.6355316 0.27343246 -0.31796008
0001e0 97 b0 9b be 8d 2f 9b 3e 16 de df 3e 52 d9 91 3e
       -0.30408165 0.30309716 0.43724126 0.28486115
0001f0 0c 48 95 be a3 a8 1d 3e 8c 13 98 3d c2 53 31 bf
       -0.2915653 0.15396361 0.07425603 -0.6926843
000200 b9 86 0c 3e b5 91 4c 3e 56 80 c5 bd 53 39 95 3e
       0.13723268 0.19977458 -0.09643619 0.29145297
000210 9d 89 52 3d 4f 1e 54 bf bb d9 ca 3d 43 07 74 3d
       0.05140077 -0.8285875 0.0990481 0.059577238
000220 22 21 7d be 8c 21 6a 3e 85 61 03 3e c5 76 e0 bd
       -0.2471967 0.2286436 0.1283017 -0.109601535
000230 00 93 bf be b6 24 c0 be f8 cb 11 3e 13 4c 0d 3e
       -0.3741684 -0.37528008 0.14237964 0.13798551
000240 dd fd 80 3e 80 88 bf 3e 20 46 94 be d7 4f e0 bd
       0.25193682 0.3740883 -0.2895975 -0.10952728
000250 20 e7 c3 3e 91 65 f9 3b ac ca ec 3c 85 0f 1f 3e
       0.38262272 0.0076109846 0.028905235 0.15533264
000260 3d 2a 8c 3e 08 30 a3 3d bf 7e 56 3e 3b 5f 9f be
       0.27375975 0.079681456 0.20946787 -0.31127343
000270 8d 94 bd be d2 e3 74 3e a5 13 97 be c1 ee 77 3d
       -0.37027398 0.23915032 -0.29507175 0.060530428
000280 e4 e5 e4 bd a8 70 47 be 7f bc 58 be 08 46 f4 3e
       -0.11176661 -0.19476569 -0.21165656 0.4770968
000290 c2 ea 74 be 98 d6 c7 be 45 0e 02 3f 96 b3 53 3e
       -0.23917678 -0.3903091 0.50803024 0.20673975
0002a0 5c 1e f4 be 74 60 ee be a0 e4 ff be 64 e5 54 3d
       -0.47679412 -0.46557963 -0.49979115 0.051976576
0002b0 94 6c 45 3d 85 79 e4 3e 44 e2 bc bd 00 a1 17 bd
       0.04819925 0.44623962 -0.09222844 -0.037018776
0002c0 c1 b1 98 3e 95 21 12 3e 47 b0 45 be d6 1d 8b bd
       0.29823115 0.14270623 -0.19305526 -0.067928
0002d0 dc 48 ad 3e b6 c9 77 3b 36 46 8c 3e 23 43 3c bd
       0.3384465 0.0037809438 0.27397317 -0.045962464
0002e0 f1 58 ac 3e 24 28 38 3e 02 60 51 3e 4e 66 3c be
       0.33661607 0.17984062 0.2044678 -0.18398401
0002f0 15 9f 90 be 7d 00 17 3e 49 da 9b bd eb 37 9b 3e
       -0.2824637 0.1474628 -0.07609994 0.303161
000300 09 d2 86 3e 91 fe 5d be 48 17 10 3f 7e 98 14 bf
       0.2633212 -0.2167914 0.56285524 -0.58045185
000310 ae 25 cb be 48 a7 6d be 46 db 48 3e be d6 c1 be
       -0.39677185 -0.23208344 0.19614896 -0.37859148
000320 dd 02 d3 bd f4 dd ac 3e d8 aa 03 3f 94 b0 6b bd
       -0.103032805 0.33763087 0.5143256 -0.057541445
000330 f2 07 c3 be b5 2e d8 3e 12 b2 82 bd a2 95 b3 be
       -0.38092 0.42223135 -0.063816205 -0.35075098
000340 d3 3a c6 bc 67 1e 0b bf 5a 15 94 3e 75 a8 0f 3f
       -0.024197971 -0.54343265 0.2892254 0.5611642
000350 da a9 2a be 91 1c 4b 3d d9 4c 3a be b9 dd f3 3d
       -0.16666356 0.04958779 -0.18193378 0.119075246
000360 aa 87 c6 3d 7b eb f9 bd 86 fd 1b bd ca 7b ca 3e
       0.096938446 -0.122031175 -0.038083576 0.3954757
000370 83 4e fd 3e 13 1d 14 3e e4 80 2c bd e3 9f 0d bd
       0.49473962 0.14464216 -0.042115107 -0.034576308
000380 14 2b 5f 3e 30 12 ac bd 04 fa 0b 3f 54 c2 18 bd
       0.21793777 -0.084019065 0.5467837 -0.0372947
000390 8e 1d d0 3e 68 cd 7e 3f cd 23 00 3d c4 f9 d8 3e
       0.40647548 0.99532175 0.031284142 0.42378056
0003a0 e5 0b d8 3d 3e 5f 30 3f 78 7d 5d be 8f f5 66 3e
       0.10549144 0.6889533 -0.21629894 0.2255461
0003b0 70 f6 98 3d 97 87 03 3f 1e ce 27 bf 72 f9 b7 3d
       0.07468879 0.5137877 -0.65548885 0.08983125
0003c0 e7 a3 d8 bd 69 8f ff 3e 5d a8 e6 3e a9 34 f2 be
       -0.10578137 0.499141 0.45050326 -0.47305802
0003d0 60 eb 67 3e b1 1f 00 bf 92 04 ff bd e2 52 92 3e
       0.22648382 -0.5004836 -0.124520436 0.2857886
0003e0 f5 53 22 bf 27 78 a1 3e 25 ce e2 be 57 a3 9f be
       -0.6340936 0.3153698 -0.442979 -0.31179306
0003f0 33 2a 3f 3e d2 36 1b 39 bc 82 07 3e e0 1b d8 be
       0.18668441 0.00014802374 0.13233465 -0.42208767

621 f4 [16]
000000 e6 fd 5b bf 13 b4 b8 be 08 df 93 3f 08 1a b6 3f
       -0.85934293 -0.36074886 1.1552439 1.4226694
000010 8a 3d 3e bf ce f5 98 bf 54 1e 31 bf bd 0c cc bf
       -0.7431265 -1.1950014 -0.691869 -1.5941387
000020 43 bf 07 40 f2 91 0c 3f 70 b6 94 3f 88 e7 0d 3f
       2.1210487 0.54910195 1.1618176 0.55431414
000030 9e 16 a9 bf 27 f8 ae bf de 98 38 c0 d0 de 41 3e
       -1.3210027 -1.366948 -2.8843303 0.18932652

623 f4 [16, 16, 1]
000000 d3 64 d8 bd 5c d3 cf bb 25 9c 24 be 11 e6 a0 3e
       -0.10566106 -0.0063423347 -0.1607519 0.31425527
000010 b8 85 9f be 9a 72 9b 3d 46 40 15 3e 75 6b e7 3d
       -0.31156707 0.07590218 0.145753 0.11299793
000020 33 5f 37 bd a9 18 20 3f 70 80 ae be 63 3e 2f 3f
       -0.044768523 0.6253763 -0.34082365 0.6845457
000030 e8 e5 17 3e d2 95 9e be 8b 36 97 be 76 ae 01 bf
       0.14833796 -0.3097368 -0.295338 -0.5065683
000040 43 98 98 bc 82 40 b1 3e b3 a7 ad 3e 51 d8 5d 3f
       -0.018627292 0.34619528 0.33917007 0.866582
000050 a9 a0 09 bf 5a 4a 94 bd 21 a9 29 be cf b4 b8 be
       -0.5376077 -0.07240744 -0.16568424 -0.36075446
000060 6b 81 b1 be a5 f1 51 3e 4d 48 47 3e 66 ac 66 3e
       -0.3466905 0.20502336 0.19461174 0.22526702
000070 35 da 89 be 0a e3 c0 be aa 0c fb be d5 9f f9 be
       -0.2692429 -0.37673217 -0.490331 -0.48754755
000080 e1 72 70 bd ab f9 82 3d 29 43 3c be ab c0 91 be
       -0.058703307 0.06395277 -0.18384995 -0.28467306
000090 43 02 83 3e 7e 03 b6 be 36 64 27 bf 83 da 47 3f
       0.25587663 -0.3554954 -0.65387285 0.780678
0000a0 da f0 39 3e 67 9c 26 3f 14 fd 04 3f dc 28 99 be
       0.18158284 0.650824 0.51948667 -0.29913986
0000b0 e8 72 1d 3f 32 bf 0e 3f 75 5c 07 3e 1a 0a 35 3d
       0.6150346 0.5576049 0.13218863 0.044199087
0000c0 b3 7a fe 3e 49 65 18 3e 5f 14 cf 3b 11 e8 45 3e
       0.49702987 0.14882387 0.006319567 0.19326808
0000d0 80 88 99 3d 4e ce b9 bd 13 9b b9 3e c2 60 f3 be
       0.074967384 -0.090725526 0.36251125 -0.47534758
0000e0 f3 76 82 3d a1 23 c1 3e 14 f5 69 be a8 63 28 3f
       0.06370344 0.37722495 -0.22847396 0.65777063
0000f0 27 37 b1 bc f2 55 35 be b2 26 a0 be 0d 82 b5 be
       -0.021632744 -0.17708567 -0.31279522 -0.35450783
000100 eb 11 6a be 7b b8 57 bf 13 3d 51 3d 0b aa 1e bf
       -0.22858398 -0.8426587 0.051083636 -0.61978215
000110 01 ce c8 be 54 86 31 bf 20 2e 3d be a7 4d b1 be
       -0.39219669 -0.69345593 -0.18474627 -0.34629557
000120 db 05 06 3f 6f 98 08 be 61 4b 4b 3f b9 8e ae be
       0.52352685 -0.13339399 0.79411894 -0.34093264
000130 23 c5 9f be 15 9b cf 3d 87 de f5 be de 32 0a be
       -0.3120509 0.101370014 -0.48021337 -0.13495967
000140 16 fd 0f 3d 7d d5 8c be dd 45 16 3f cd d3 ec 3b
       0.03515347 -0.2750663 0.5870035 0.007227397
000150 12 bc 33 3c 71 ef e9 3d 67 ea 59 3e 27 62 57 3e
       0.010970132 0.11422623 0.21280824 0.21033536
000160 78 b1 84 be 5f 58 9d bf e7 28 06 3e 1e 93 12 bf
       -0.25916648 -1.2292594 0.1310154 -0.57255733
000170 02 12 23 be 3f a3 aa be 44 0d 13 3f c7 30 b2 3e
       -0.15924838 -0.33327672 0.57442117 0.3480284
000180 1a 00 8b be d9 94 4c be ff d9 f7 be 45 bf 50 bf
       -0.27148515 -0.19978656 -0.48408505 -0.81541854
000190 02 41 7b 3d ac 05 e6 be 7f aa 1e 3d 6d fa c4 be
       0.061341293 -0.44926202 0.038736816 -0.3847231
0001a0 f8 cd 15 be 56 75 c6 be d8 a6 11 3f 6f 2b af bf
       -0.14629352 -0.38761395 0.5689521 -1.368513
0001b0 f4 36 02 3f 11 5c 0d bf c1 8b 18 3f e2 7a e9 be
       0.508651 -0.5521861 0.5958825 -0.45601565
0001c0 f4 38 54 bd ee 63 2a 3f 22 c3 96 bf 82 41 a9 3e
       -0.051812127 0.6655873 -1.17783 0.3305779
0001d0 f5 0e 0c bf 97 f9 66 3e 9c ae 65 be 87 43 e5 3e
       -0.5471032 0.22556148 -0.2242989 0.44778082
0001e0 cd c2 27 3d 69 a0 32 bd e7 67 3c 3f 46 fe 9b 3e
       0.04095726 -0.04361001 0.7359604 0.30467433
0001f0 39 2d 08 be 06 a4 8d 3e ed 85 2e be 36 b3 96 3e
       -0.13298501 0.27664202 -0.17043276 0.29433602
000200 fd fc 19 bf f1 2e 25 3f 26 da ee bc 28 11 e2 3e
       -0.60151654 0.6452475 -0.029156756 0.44153714
000210 57 62 2c 3e 48 db e1 3e fb f4 d1 3e b6 74 4d bf
       0.16834389 0.4411261 0.41007218 -0.8025621
000220 56 a0 b3 be 9e 85 ce 3e 48 06 11 bf ae b1 8a 3d
       -0.35083264 0.40336317 -0.5665021 0.06772171
000230 7d 3b a8 be 36 1a 6c be 3f 31 9f 3e ad 8c 84 3c
       -0.32857886 -0.23056874 0.3109226 0.01618036
000240 e7 b7 00 be e0 fb 77 bd 3a c6 9f be 72 70 08 bf
       -0.12570153 -0.06054294 -0.31205922 -0.5329658
000250 94 8c 83 be b7 56 b4 3e c5 35 3c bf eb 65 88 3e
       -0.2569319 0.35222408 -0.73519546 0.26640257
000260 35 ef 0d bf 5b a1 2a bf 40 cf 8d 3d 21 c2 4b be
       -0.55443126 -0.6665246 0.069242954 -0.19898273
000270 ff d2 0a 3f 43 00 da be 97 f1 62 3f 25 06 f4 be
       0.54228204 -0.42578325 0.88649887 -0.47660938
000280 ed e5 dc 3e c8 8b d6 3d be a9 90 3d 70 9c 0f bf
       0.4314417 0.1047588 0.07063626 -0.5609808
000290 d0 dd a6 3e 6e c9 14 3f f0 10 7f bf c8 f2 3d 3e
       0.32591105 0.5811986 -0.9963522 0.18549645
0002a0 fe 33 36 be d2 b0 ad 3e c4 71 db 3e d7 bf c2 3e
       -0.17793271 0.33923966 0.42860234 0.38036987
0002b0 dd 13 17 3e 99 ca 01 3f 2a 94 1c be 6e 0b 8d 3e
       0.14753671 0.50699764 -0.15290895 0.27547783
0002c0 49 21 3a bd 75 5f df bd 6a 68 f8 3d 9b 69 21 bf
       -0.0454419 -0.10906879 0.121292904 -0.63051766
0002d0 4a 40 22 be 95 eb 0e 3f f9 8c b7 be 6b a4 75 3f
       -0.15844837 0.5582822 -0.3584974 0.95954007
0002e0 ef 32 96 3e 9b 66 c2 be e2 a0 af 3d 36 b2 5d be
       0.29335734 -0.37968907 0.08575608 -0.21650013
0002f0 80 7e c2 3d 3d b9 f5 bd da 5b 6f 3c fd 2d 1e 3f
       0.09496784 -0.11998222 0.014609301 0.6178892
000300 02 85 c2 bd a6 85 d3 3e c5 6d e2 be db 2d 98 3e
       -0.094980255 0.41312903 -0.44224373 0.29722485
000310 f2 94 89 3d 40 71 4a bf bd d6 58 be 30 1a d6 be
       0.06717862 -0.79079056 -0.21175666 -0.41816854
000320 91 33 dd be fa 8e 22 3f 58 95 05 3f 33 24 60 bd
       -0.43203405 0.63499415 0.52181005 -0.054722022
000330 12 f1 a8 3e 66 c9 b0 bb 0d af 01 bf be 50 5f be
       0.32996422 -0.0053951023 -0.5065773 -0.21808144
000340 c0 4f a8 3e 6c e2 e6 bc 46 64 6f bd 3c 1c f1 3e
       0.32873344 -0.028184138 -0.058445238 0.47091854
000350 30 fc cb 3e dc e4 1c bf 0d c1 93 3e e1 68 48 3d
       0.3984084 -0.6128671 0.28858224 0.048928145
000360 30 42 a7 be d8 f0 90 3e 38 c3 a7 be b8 3a f8 3e
       -0.32667685 0.2830875 -0.32766128 0.484823
000370 15 8b d6 3e 21 e6 44 bf 81 59 e5 3e e5 20 bc 3e
       0.41902986 -0.7691365 0.4479485 0.36743847
000380 13 4d cf be 85 bf 7c 3d ff 4d d0 be f0 18 51 3f
       -0.4048849 0.061706085 -0.40684506 0.81678677
000390 8b ff d0 3c 52 42 29 bf aa c4 d3 bb 0d d2 a3 be
       0.025512477 -0.6611682 -0.006462653 -0.31996194
0003a0 4c da a1 3d 9f ac 7a 3e 52 12 c3 3e 5b 4d 6e 3e
       0.07902965 0.24479912 0.38099915 0.23271696
0003b0 e1 fd de bc a9 65 c1 be f4 79 bc bd 17 91 19 be
       -0.027220668 -0.37772873 -0.09202948 -0.14996754
0003c0 34 47 a5 3f 60 c0 02 3f 17 36 ed 3e 11 fb 3a bd
       1.2912354 0.5107479 0.4633033 -0.04564959
0003d0 ec 47 9b be e8 df 85 bd 98 fd 1c bf 91 e1 f7 3e
       -0.3032831 -0.06536847 -0.61324453 0.4841428
0003e0 95 6d 08 bf 21 1c 6d 3f c9 82 fd be ba fe 12 bf
       -0.5329221 0.92621046 -0.49513844 -0.5741993
0003f0 f0 41 4e bf ba c5 05 be 83 ff 6c 3e 9c bc 47 bf
       -0.8056936 -0.13063708 0.23144345 -0.7802217

624 f4 [16]
000000 66 86 0e 40 ee e2 14 40 df ab 02 3f 2d 6b f3 3f
       2.226953 2.3263507 0.51043504 1.9017082
000010 a3 b6 ae 3f 3f 6a 6e c0 ee f5 8b c0 b9 88 cf 3f
       1.3649486 -3.7252347 -4.3737707 1.62136
000020 ac 90 78 bf 62 98 81 c0 4d 6b cd 3f 28 59 14 3d
       -0.9709575 -4.0498514 1.6048371 0.03621784
000030 4e cb ce 3f a3 ec c3 bf 6e b7 eb 3e 57 21 54 3e
       1.6155794 -1.5306591 0.46038383 0.20715843

638 f4 [8, 24]
000000 8f c8 14 3e 80 54 a7 bc 64 d8 f8 3d 50 e5 a9 be
       0.14529632 -0.020426035 0.12150648 -0.33182764
000010 ea 0d 62 be 6f 11 9b be 75 36 c2 be 73 db 92 bc
       -0.2207562 -0.30286738 -0.37932172 -0.017926907
000020 87 44 b5 be fe be 6f 3d d5 50 87 3e b1 a9 29 3d
       -0.35403845 0.058531754 0.26428857 0.041421596
000030 f6 94 c5 be a7 b3 3f 3d a6 af ba bd 72 18 49 bd
       -0.3859021 0.04680219 -0.091155335 -0.04909558
000040 a8 e4 a0 3c a1 b0 89 3c b2 74 27 be 2b 06 15 bf
       0.019640282 0.016807856 -0.1635311 -0.58212537
000050 91 69 9b 3e 1c 38 fe bd f9 32 84 3e c9 70 44 bc
       0.30353978 -0.12413046 0.2582014 -0.011989781
000060 5f a7 17 3e ca 1a c6 bd 92 2f a2 be 15 9e 2c be
       0.14809941 -0.09673078 -0.31676918 -0.16857179
000070 e3 85 69 3e 28 8d aa be 8d 49 0f 3d e4 d7 47 be
       0.2280498 -0.3331082 0.034982253 -0.1951595
000080 67 b0 f0 3e 1a 1c e3 bd cf 79 94 3e 45 58 23 3c
       0.47009584 -0.11089344 0.28999183 0.009969776
000090 18 88 3a be 7a 5b e9 3d 37 a9 cd 3d 21 3b 0c 3d
       -0.18215978 0.11394401 0.10042041 0.034236077
0000a0 d1 32 0c 3d 14 2d 94 3e b0 9d 69 3e b3 b6 10 be
       0.03422815 0.28940642 0.2281406 -0.14132194
0000b0 95 df c3 3d 66 95 7c 3e 4a 86 36 bc 3c 4c 38 be
       0.09564129 0.24666366 -0.011140415 -0.17997831
0000c0 87 57 e5 bc 94 19 f4 3d eb 31 6d 3d 6a 37 16 be
       -0.027995838 0.11918941 0.057908934 -0.14669576
0000d0 74 82 18 be 15 30 52 3e 4c 5c 2d be f6 31 0d 3e
       -0.14893514 0.20526154 -0.1692974 0.1378859
0000e0 c2 2e 7e be 4f 76 1d be 09 68 c5 be 20 cb b8 3e
       -0.24822524 -0.15377162 -0.38555935 0.36092472
0000f0 cc 3c dc 3e 17 bf 93 3c 4a 22 78 3e 49 18 bd be
       0.43015134 0.018035455 0.2423183 -0.3693259
000100 db 3b 4a be a5 72 51 bb 97 2b 70 be 5f 03 47 3d
       -0.19749396 -0.0031959203 -0.23454128 0.0485872
000110 dd 1c 80 3e c0 71 98 bd 44 7c 53 be dd c9 7d 3d
       0.2502202 -0.07443571 -0.20652872 0.06196009
000120 51 32 8c be 96 89 a5 3d 3d 91 a1 3e 55 8e 0a bc
       -0.27382138 0.08082883 0.3155612 -0.008456786
000130 ac 81 6e bb 19 7d 9c bc ab d3 81 3d dd 29 8f 3d
       -0.0036393208 -0.01910262 0.063392006 0.06990407
000140 d2 09 fb bc fb 52 bf 3d 43 c2 e2 3e fb 62 f9 3c
       -0.030644331 0.09341999 0.44288835 0.030442705
000150 98 ca 35 bd 02 14 86 3e 70 7a a8 be 2c ca 84 3e
       -0.04438266 0.2618714 -0.32905912 0.25935495
000160 66 18 4c be 13 4a 0b bf 9c 5a 80 3e 71 c3 7a 3d
       -0.19931182 -0.54409903 0.2506913 0.061221544
000170 2a e5 8b bd 9f 55 98 be bb ad 01 be 54 c5 b1 3e
       -0.06830819 -0.29752824 -0.12663929 0.34720862
000180 14 57 f2 bd ad fc 8e 3e d7 b3 37 3d fd 64 10 3e
       -0.11833015 0.2792715 0.044849243 0.14101024
000190 ca eb 8c be 5d 11 b4 3d e1 0c 12 bf 8b 98 dd 3d
       -0.27523643 0.08792374 -0.570509 0.10820111
0001a0 cc d6 04 3f 9d 53 2b bd 2a f4 09 3e a0 15 27 3e
       0.51890254 -0.041827787 0.13472047 0.16316843
0001b0 b8 80 37 3e f0 ce 69 be 7e cd 22 be d0 ae 90 3e
       0.17920196 -0.22832847 -0.15898702 0.2825837
0001c0 34 9b 29 3e f0 57 aa bb d2 66 0d 3f 39 aa 50 bf
       0.16563112 -0.0051984712 0.55235016 -0.8150974
0001d0 ee d6 33 bd aa 98 4d 3e d8 65 34 bf c8 17 0d 3e
       -0.043906145 0.20077768 -0.704679 0.13778603
0001e0 d9 6f b3 be 12 92 87 be f6 e9 91 be 2f c6 09 bd
       -0.3504627 -0.2647863 -0.2849881 -0.03363627
0001f0 f5 05 5e 3e 9e 71 14 3d e8 b8 5a 3e 4e 83 eb 3d
       0.2168196 0.036241166 0.21359599 0.11499654
000200 4c e8 bb bd 67 f7 9d be e9 16 6d 3d 5e aa 92 be
       -0.091751665 -0.30852816 0.057883177 -0.28645605
000210 eb 54 6f 3e e9 7c d2 3d d3 e4 8a 3d c3 ea 8b be
       0.23372237 0.10277731 0.06781926 -0.27327546
000220 71 0b 51 be 28 6f 67 3e 6f a1 30 3d fa df 51 3e
       -0.20414521 0.22600996 0.043122705 0.20495597
000230 11 8a 2a 3e 70 ce d8 bd d2 92 7c 3e d1 1b 04 bf
       0.1665423 -0.1058625 0.24665383 -0.51604944
000240 b0 0e 87 3e 70 a9 88 3d 36 f2 34 bd 7b 6c be bd
       0.26378393 0.06672943 -0.044176303 -0.09298035
000250 fb 2a 91 bd 70 2c 78 3c e5 60 59 3e f0 5a 94 be
       -0.07088276 0.0151473135 0.21228369 -0.2897563
000260 bd 17 33 be 50 b2 64 3e 10 a8 57 3e 03 92 5b bc
       -0.17489524 0.22333646 0.21060205 -0.013401511
000270 b0 aa 0c 3e 1b 30 af bb 0f 4b 9b bd b2 45 97 3d
       0.13736987 -0.005346311 -0.07582676 0.0738634
000280 07 3c da 3e 67 cf d6 3e 9b 77 2a 3e 06 1a 4d be
       0.42623922 0.4195511 0.16647188 -0.20029458
000290 76 5c 6b be 25 2e 2b be 55 ee 28 3e 7f 5a a9 bd
       -0.2298449 -0.16716821 0.16497166 -0.08269214
0002a0 7c a1 4e 3d 39 1a eb be 1b 18 e2 bd ce 3c 4e ba
       0.050446972 -0.45918444 -0.11039754 -0.0007867337
0002b0 30 f2 1c be d5 78 0e bf 3f 8b 44 bd dd b1 30 bf
       -0.15326762 -0.55653125 -0.047984358 -0.690214
0002c0 ce 2d ce bd b1 ed c9 bd 82 a0 b8 be 17 43 09 3e
       -0.1006733 -0.09859789 -0.36059958 0.13404499
0002d0 61 6c a2 be 84 e8 27 be 48 19 8b 3e 39 1c 9c 3e
       -0.31723312 -0.16397291 0.27167726 0.30490282
0002e0 c3 09 ca be 6b 61 88 bd fc 5b 39 be 6a e4 54 bd
       -0.39460573 -0.06659206 -0.18101496 -0.051975645
0002f0 dc 36 3f be 0b 10 45 3e a4 57 62 be 4c 6b c3 3e
       -0.18673271 0.19244401 -0.22103745 0.381678

639 f4 [8, 8]
000000 df 29 02 be 4b 46 a5 3d 52 d7 fe bd 9a 37 b8 3e
       -0.12711285 0.08070048 -0.12443413 0.3597992
000010 05 90 c6 3e 8b 3d 77 3e a8 04 cb be 16 07 22 be
       0.38781753 0.2414457 -0.3965199 -0.15823016
000020 0e be cc be 96 4a 2a bf 35 e3 66 3d d0 0f 3a 3e
       -0.3998875 -0.6652006 0.056369025 0.18170094
000030 71 22 5f 3e 82 fc c5 bc f6 e6 8c be 49 ac 06 3e
       0.21790482 -0.024168257 -0.2751996 0.13151659
000040 12 d8 8c 3e a3 e3 f5 bc ab 03 cc bd 99 db 10 3f
       0.275086 -0.030015772 -0.09961637 0.5658508
000050 cc da 6e 3e 37 d2 81 be 04 39 8d be 2f 97 8c be
       0.23325652 -0.25355694 -0.27582562 -0.27459094
000060 cf ec 83 3e 72 ba 80 be 9b 74 4f 3e 44 23 bf bc
       0.25766608 -0.25142246 0.20259325 -0.023332246
000070 a0 5c 1a 3e 9f cc 0e bf e2 9e 01 3e d7 6b 10 bd
       0.15074396 -0.55780977 0.12658265 -0.035259094
000080 9e 86 47 3e 4b 1d 96 bd ce 50 c6 3e d3 d2 8f be
       0.19484946 -0.07329806 0.38733524 -0.28090534
000090 1c c6 3a bd ea 0f 3a 3e fe 26 bb be a9 6a ca 3e
       -0.045599088 0.18170133 -0.36553186 0.395345
0000a0 c4 bc 8d 3e 87 35 d7 3d 39 00 11 3e 7c 4d 1f 3e
       0.2768308 0.105082564 0.14160241 0.15556902
0000b0 54 bc 1c 3d 3f 5a d0 3d c7 83 85 bd 0b 94 dd be
       0.03826554 0.10173463 -0.06519275 -0.4327701
0000c0 40 4f a1 3e 49 7e 8f 3e ee ca ca 3e 9a f6 d2 be
       0.31505775 0.28026035 0.39607948 -0.41203767
0000d0 f8 4e 47 bf 73 96 c1 3d 06 a6 05 3f c2 8d 4e 3e
       -0.7785487 0.09452524 0.52206457 0.20171264
0000e0 70 9d df be b1 d2 e2 be 4e 8e a5 bb a6 aa 0e 3f
       -0.43674803 -0.4430137 -0.0050523644 0.5572914
0000f0 07 55 d9 3e f6 9b 09 3e ce 4e 9a be 37 a6 35 be
       0.42447683 0.134384 -0.30138248 -0.17739187

641 f4 [8, 8]
000000 f5 10 7b bd 40 b5 7e 3d 55 ff 7b be ea 7f ae bd
       -0.06129547 0.062184572 -0.2460912 -0.085204914
000010 51 c3 a7 bc 4e bb 53 be 86 b7 97 bd 0e 28 e9 be
       -0.020478876 -0.2067692 -0.07408051 -0.45538372
000020 2a 6b 46 bd 2f 69 dc bd 6c 72 dd 3e 19 88 97 be
       -0.048442043 -0.1076225 0.4325136 -0.29596022
000030 cf e7 f2 bd a8 e4 e8 3c 7f b2 bd 3d e0 a3 af bd
       -0.1186062 0.028429344 0.09262561 -0.085761786
000040 4c 3a 36 3c 62 b6 b7 bd c2 b0 85 be 43 5d e1 3d
       0.0111222975 -0.08970334 -0.26111418 0.110041164
000050 0c b7 c1 be f9 62 58 be 8e 7c 07 3d 6a ce 49 be
       -0.37834966 -0.21131505 0.03307777 -0.19707647
000060 a5 2d 3d bd cd d5 ae 3e 1d ad 55 be 85 46 03 be
       -0.04618611 0.34147492 -0.20866819 -0.1281987
000070 06 27 a1 be d7 94 b8 bd f2 ce 05 be 2c 0a b5 3e
       -0.31475085 -0.09012764 -0.13067225 0.35359323
000080 d1 6a 68 be c0 b8 82 bd f6 5f 95 3e d5 59 a3 3e
       -0.22696997 -0.063828945 0.29174775 0.31904474
000090 ef 37 29 bc 91 5e 77 bd 35 23 53 3e 19 ec be 3e
       -0.010328277 -0.06039292 0.20618899 0.37289503
0000a0 1d 3f d5 be d6 88 d5 bd a3 a0 38 be 62 66 7c be
       -0.41649714 -0.1042649 -0.18030028 -0.24648431
0000b0 6f f8 59 3d b3 60 96 be 54 53 09 3e 6a a6 1f 3c
       0.05321544 -0.2937065 0.13410693 0.009744266
0000c0 e8 65 3e bd 26 46 49 bd 12 e0 a5 3d 76 c6 26 3e
       -0.046483904 -0.049139164 0.08099379 0.16286644
0000d0 2d ff c7 3e 2f fe d3 be 94 e4 0f 3e 95 58 3d bd
       0.3906187 -0.41404864 0.1405204 -0.046227057
0000e0 5c f4 af 3d fa d9 bb 3e ee bd 4d 3e 64 c6 d7 bc
       0.0859153 0.3668974 0.20091984 -0.026339717
0000f0 0a 7e fd 3d c9 0f 94 3e 65 77 a4 be 71 c2 9c 3b
       0.12377556 0.28918293 -0.3212234 0.0047839214

642 f4 [8, 8]
000000 bd f8 93 3e 72 a3 e5 bc 9e 3e 8f 3d c9 16 1e 3c
       0.2890071 -0.028032038 0.06994365 0.009648987
000010 bc 6e 88 bd 32 d6 00 3e 3f 22 13 bd 2f 12 b0 be
       -0.06661746 0.12581709 -0.03592133 -0.34388873
000020 d8 97 27 3e 4c c5 1a bd 1b 20 94 3d 6c 8d 35 be
       0.16366518 -0.037785813 0.07232686 -0.1772973
000030 ae 9f c5 bc 27 3d 57 3d d7 0b 9f 3e da 80 69 3c
       -0.024123993 0.052548554 0.3106372 0.014251912
000040 37 47 10 be 48 f5 ef 3d 66 68 dd 3e d2 44 36 bf
       -0.14089666 0.117167056 0.43243712 -0.7119876
000050 0e 37 30 3e ad 48 b6 3e 25 f1 a8 be 68 b6 c0 bd
       0.17208502 0.35602322 -0.3299648 -0.09409791
000060 02 ea 5e be 66 8d d4 3d 72 a9 06 bf 36 81 bc 3e
       -0.21768954 0.10378532 -0.52602303 0.3681733
000070 e7 33 23 3f f6 68 ac be 77 fb 71 bd 16 55 0c bf
       0.6375107 -0.3367383 -0.059077706 -0.5481733
000080 37 9b 2f 3e 66 c1 13 3b 36 05 9d be 1d 62 a5 3e
       0.17149054 0.0022545694 -0.30668038 0.32301417
000090 45 8e a2 3e ee 18 ed 3d 31 0d a2 bd 8e 8e 51 be
       0.31749168 0.115770206 -0.07912672 -0.20464537
0000a0 ac 51 76 bd f1 1e 88 3e a7 b6 a6 bd b3 c8 4f 3e
       -0.060136482 0.26586106 -0.08140307 0.20291404
0000b0 04 c2 2c 3e a0 f4 9a be 6e 49 a3 3d 79 11 d9 bc
       0.16870886 -0.3026476 0.0797299 -0.02649759
0000c0 f5 7f 75 3d 6b c5 f3 bc b2 06 d7 3e ff aa de be
       0.059936482 -0.029757222 0.41997296 -0.43489835
0000d0 cf 4a 3a be d9 2e a4 bd ed 69 74 3e 7d 87 7c 3c
       -0.181926 -0.08016748 0.23868532 0.015413162
0000e0 63 74 4f be 3a 09 4c 3f dc 34 1e 3e 48 6a 08 bf
       -0.20259242 0.7970158 0.15449852 -0.5328717
0000f0 a1 fc a9 bd bc 5a 29 3d ce e5 b8 be d3 ab d4 bc
       -0.08300138 0.041346297 -0.36112827 -0.025960838

644 f4 [16, 48]
000000 e1 48 ab 3a 16 d6 80 be 0e d7 ac 3c 38 fe ba bd
       0.0013067984 -0.25163335 0.02109864 -0.0913052
000010 3d 55 bb bc 44 56 1c 3e 52 d6 65 be 6d f2 85 3e
       -0.022867793 0.15267283 -0.22445038 0.2616152
000020 53 32 8c be d8 95 5c be 34 ce 78 be 0c 97 ae be
       -0.27382144 -0.21541536 -0.2429741 -0.34099615
000030 23 49 7c 3e cd e0 bc bd 48 48 18 bf d2 63 10 3f
       0.24637274 -0.09222565 -0.5948529 0.56402314
000040 47 6a 5d bd 0f 73 31 3d c4 6d f4 3d cc 9a 08 bf
       -0.054056432 0.04332262 0.11934999 -0.533612
000050 74 fa 06 3f 6b 65 9c 3e ec a0 86 3d 21 3a b1 3e
       0.5272591 0.30546126 0.06573662 0.3461466
000060 9e e6 61 bb 78 e4 4d be 54 a3 00 bf 5a 1e f9 bd
       -0.0034469734 -0.20106685 -0.5024922 -0.12163992
000070 00 a4 5e bb 87 65 12 bf 91 cc 5a be dd 19 66 bd
       -0.0033972263 -0.5718617 -0.21367098 -0.05617701
000080 3f d3 b1 be 84 b2 86 3e 70 2f 20 3e 7d 56 92 3e
       -0.3473148 0.26308072 0.15643096 0.2858161
000090 96 e6 f4 3e e9 e7 47 bd 3b 02 c0 3d d9 24 19 3e
       0.47832173 -0.04880515 0.093754254 0.14955463
0000a0 2c 48 53 be 48 a2 2b 3c 6d e6 b5 bd 9d 1c 78 3e
       -0.20633 0.010475703 -0.08881841 0.24229665
0000b0 0f 46 93 3d d0 49 9f be 24 78 c6 bd d4 8f 3b 3d
       0.07191097 -0.31111002 -0.09690884 0.045791462
0000c0 22 88 91 3e 7c 79 7d be 8d 26 a0 3e a7 10 04 bf
       0.28424174 -0.24753374 0.31279412 -0.5158791
0000d0 fe 5c 39 3f c0 05 3c 3e 0e 4c 82 be 8e 7c e7 3e
       0.7240752 0.18361568 -0.2544865 0.45212215
0000e0 52 3f 38 bf 0c 1c 2c 3f 19 55 da 3e f1 e2 34 3f
       -0.7197162 0.67230296 0.4264305 0.70658785
0000f0 c5 b0 1a bf dc a8 f6 3e b7 04 3b 3f 13 c0 a5 be
       -0.6042598 0.48175704 0.7305407 -0.32373103
000100 6b 06 14 3f c2 37 33 3f ab 72 2e 3d 7f e7 27 be
       0.57822293 0.70006955 0.042589825 -0.16396903
000110 af 9b d9 be 37 12 c5 bd b5 45 71 3f 99 69 6b bd
       -0.4250159 -0.09622615 0.9424699 -0.057473753
000120 96 fc a8 3e 99 95 b5 3e dc 7f 92 3d 2c cb 03 3e
       0.33005208 0.35465696 0.071532935 0.12870473
000130 2e 70 4c be 2f 67 b0 3d 63 d1 d0 be 92 6f 16 be
       -0.19964668 0.08613431 -0.4078475 -0.14690998
000140 7c d3 3e be 21 60 d8 3e cd a9 bb bd 1d 96 bc 3d
       -0.18635362 0.4226084 -0.09163246 0.09208319
000150 67 56 58 3e bf fd c2 be c8 bc dc bd f0 16 76 3d
       0.2112671 -0.38084218 -0.10778195 0.06008047
000160 42 a6 a6 3e dd d7 71 3f fd 47 db be f2 ae 50 be
       0.3254872 0.94470006 -0.4282836 -0.20379236
000170 a1 52 24 bd 01 ea fa 3c 85 71 01 bd 6b 49 2f 3e
       -0.040117864 0.03062916 -0.0316024 0.1711785
000180 f6 93 c1 3e 0b 54 11 3d 79 3e da 3e 0f 96 c4 be
       0.37808198 0.03548054 0.42625788 -0.38395736
000190 de 53 c0 3e e9 2d e7 3e b4 7c c1 bc 5c ad c5 3e
       0.37563986 0.45152214 -0.023619033 0.38608825
0001a0 bc 9e 2e 3f 9a 6c 22 3e 05 fc c3 3d 8e ab c5 be
       0.6821096 0.1586174 0.09569553 -0.38607448
0001b0 e5 d3 81 3d 23 fc 19 bf 56 fb da be 3b cf a7 3e
       0.06339244 -0.60150355 -0.4276988 0.32775292
0001c0 35 96 32 be b1 88 3f be 9d 44 13 3f c3 06 6b 3e
       -0.17440112 -0.18704487 0.5752657 0.22951798
0001d0 4b 7e 91 3f 05 41 da 3e 46 fb 43 be 3c 53 2a 3f
       1.1366667 0.4262773 -0.19138822 0.66533256
0001e0 4a 1b 72 3e 5c 71 d2 be ea fe bb bd 97 43 15 bf
       0.23643222 -0.4110211 -0.091794804 -0.5830626
0001f0 83 5e 57 3e 62 8d 81 3e b0 91 d7 bd d9 23 f5 3e
       0.21032147 0.2530318 -0.105258346 0.47878912
000200 cd f9 03 be 16 bc 76 be 7b 78 90 be a6 01 15 3e
       -0.1288826 -0.24095187 -0.2821692 0.1455141
000210 cd 54 49 3e a4 4c c3 3d ef e4 87 be bd 3d 71 3d
       0.19661255 0.095361024 -0.2654185 0.05889677
000220 7e 92 29 3e 11 87 f2 3d 91 5f 3c 3e a4 3b cd bd
       0.16559789 0.11842168 0.1839583 -0.10021141
000230 56 be cf bc be 3c 87 bd cd ce 42 bd 82 3f ba bd
       -0.025359314 -0.066033825 -0.0475605 -0.090941444
000240 1d 74 12 be 1c d3 5a be 44 c5 3c 3d 30 f7 38 be
       -0.14302106 -0.21369594 0.046086565 -0.18063045
000250 c8 86 82 3e 47 0b 4a 3e f5 6c 5f 3e 58 2c 8d 3d
       0.25493455 0.19730864 0.21818908 0.068932235
000260 27 49 24 be 69 71 60 3e 44 41 1c 3f 56 cd 94 3e
       -0.1604353 0.21918263 0.6103709 0.2906291
000270 0a c4 f7 3b 74 57 81 3e b6 cc 04 3f 68 21 99 be
       0.0075612115 0.25262034 0.51874864 -0.299083
000280 40 56 2b 3f 62 d1 7f 3b 9a 10 f6 be 15 f3 99 be
       0.6692848 0.0039034714 -0.4805954 -0.3006827
000290 fc 13 b4 bf f7 28 e3 be 8a 3d 24 3e d0 6f 13 be
       -1.4068599 -0.4436719 0.160391 -0.14398122
0002a0 3a af f7 bd 56 50 42 3e 2a b0 88 3e 34 1f ab 3e
       -0.12093969 0.18975958 0.26696903 0.33422244
0002b0 3b f4 5b bd d4 58 d8 be 35 6d 48 bd c7 9d 8d be
       -0.053699713 -0.4225527 -0.048932273 -0.27659437
0002c0 49 2b df be d1 47 08 3e c6 a4 b3 be dc d7 ab 3e
       -0.4358771 0.13308646 -0.3508665 0.33563125
0002d0 8a ec ad 3d da 60 b4 bd 3d f5 19 3e f3 87 9c 3d
       0.08492382 -0.088075355 0.15034957 0.07643118
0002e0 e4 9d 8e 3e 9a c0 4f 3e d7 74 76 be 58 99 99 3e
       0.27854836 0.20288315 -0.24068008 0.29999804
0002f0 c4 b8 1d 3e b6 f2 37 3e 71 ff 8f be 32 5f a2 3e
       0.15402514 0.1796368 -0.28124574 0.31713253
000300 57 d6 9b bd 30 57 9b be 34 c6 1e be 6e ec b7 be
       -0.076092415 -0.30339956 -0.15505296 -0.3592257
000310 33 ca 81 be 2f fd 58 be 78 89 9e 3d 51 1e 01 3e
       -0.25349578 -0.21190332 0.07741064 0.12609221
000320 fd 71 c1 3e d3 0b 4c 3e 62 da 71 3c 3c 86 fc be
       0.3778228 0.19926386 0.014761539 -0.49321163
000330 a6 f9 ef 3e f4 ab 44 3f 3b a4 d1 bd ac a1 0d 3f
       0.46870154 0.7682488 -0.102364026 0.55324817
000340 41 82 21 3f 7c f4 a1 3e fe 67 83 bd df cb 2a 3e
       0.63089377 0.3163184 -0.06416319 0.16679333
000350 cc 75 81 3d a8 5e 54 3e be 25 a8 bd 05 7f 19 3e
       0.06321296 0.20739233 -0.08210324 0.1498986
000360 bf e4 e3 be aa 1a 12 3d 11 45 d5 bc 44 1c e9 bd
       -0.44510457 0.03566996 -0.02603391 -0.11382344
000370 9b 4f 4a 3e 6e 0e 44 3e 1f 61 6c be 78 c6 92 3e
       0.1975693 0.1914613 -0.23083924 0.28667045
000380 39 ef 8b 3d c8 ea 2b 3d 60 d8 44 be 4a 72 43 bd
       0.068327375 0.04197195 -0.19223166 -0.047716416
000390 6d 3c a5 3d d8 5a 0b 3e 63 66 f2 3d e0 81 84 3e
       0.08068166 0.13608873 0.11835935 0.25880337
0003a0 e8 b8 90 be 56 7c 68 bd 98 48 82 be 32 31 0b be
       -0.28266072 -0.0567592 -0.2544601 -0.13592985
0003b0 bb 84 2a be 5a 34 f0 bd 8a 6e 86 3d 8f 42 4e 3e
       -0.16652195 -0.11728735 0.065640524 0.20142578
0003c0 4d d4 98 3e a7 49 8a be ca 7b 6c be b2 a0 19 be
       0.29849473 -0.27009317 -0.23094097 -0.15002707
0003d0 57 42 5b 3d 2a dd c6 3d bf 8e 02 be a0 80 50 be
       0.053530063 0.097101524 -0.12749766 -0.20361567
0003e0 94 bd c7 3d 9c bd 94 be d7 4c 41 3e 61 55 50 bd
       0.09752956 -0.2905091 0.18876968 -0.050862674
0003f0 71 cb 57 3d 3c c8 21 bd 64 38 a1 3e f4 8f bc bd
       0.05268425 -0.0394976 0.31488335 -0.092071444

645 f4 [16, 16]
000000 c3 0c 84 be 5a c6 c2 3d 5f a7 e9 3d 2c 9e ec 3d
       -0.25790986 0.09510489 0.11408877 0.115536064
000010 f6 1c 4f 3d 61 11 45 3e 22 34 b4 be 5f d0 c8 3e
       0.05056473 0.19244911 -0.35196024 0.39221475
000020 e6 de 3a 3d e9 80 00 3e 19 26 39 be 0f ab 4a bd
       0.04562273 0.12549175 -0.1808094 -0.04947954
000030 48 34 85 3e 47 08 52 ba 7a 17 4b be 58 9c f8 bc
       0.2601645 -0.00080120977 -0.19833174 -0.030347988
000040 94 a6 d1 3e e7 64 35 bd 04 30 2d be 09 56 bc bd
       0.40947402 -0.04428568 -0.16912848 -0.091960974
000050 32 d3 a1 3e 05 65 7c 3d 6e 09 da 3c e0 65 a7 be
       0.31606442 0.061619777 0.026615825 -0.32694912
000060 33 46 3c 3e 2f fc a6 bd 40 20 0f 3e 66 d7 69 be
       0.18386154 -0.08153569 0.13977146 -0.22836074
000070 48 b7 8d be 50 b7 72 3c 15 fe 55 be f5 12 7c 3e
       -0.27678895 0.014814213 -0.20897706 0.24616607
000080 ba fe 08 3e 7f 15 f7 3d 7f 52 bf 3d 39 c7 d0 3c
       0.1337842 0.12064647 0.09341907 0.025485622
000090 4c 8d 8c be fe 62 6e bd 77 64 80 3e 3c 0b 8f 3e
       -0.2745155 -0.058199875 0.2507665 0.2793826
0000a0 6d 4a f6 3d 58 ec af bd b5 a5 66 bc 47 56 66 3e
       0.12025914 -0.08590001 -0.014077594 0.2249385
0000b0 44 1f 07 3c 71 3f e6 3e 79 1c 95 be 6e 42 11 be
       0.0082472 0.44970277 -0.29123285 -0.14185497
0000c0 5c aa 90 3e 2c b5 39 3d 2c 8f 87 be 5f 28 e5 3d
       0.28254974 0.045338795 -0.2647642 0.11189341
0000d0 c7 51 4a be e9 51 16 3e a8 4f 0c 3e 2e cd ea bd
       -0.19757758 0.14679684 0.13702261 -0.11464916
0000e0 54 0c 3b be 54 76 f1 3d 9d 6e 5b 3d 9f 30 b3 bd
       -0.18266422 0.117901474 0.053572286 -0.08749508
0000f0 06 df 48 be 4d df c8 be a4 f1 4c bd 0a 23 0a 3d
       -0.19616327 -0.39232865 -0.050035134 0.033724822
000100 cd ea d1 3e 74 86 55 3d aa d7 4b be 1a 89 ac bd
       0.4099945 0.052130178 -0.19906488 -0.084245875
000110 4f 18 a4 3e cd 83 e1 3d bc 98 61 3e 40 50 be be
       0.32049796 0.11011467 0.2203092 -0.371706
000120 2d 0e 57 3e a7 ed 4b 3d d3 46 71 3e 55 2e 6c be
       0.21001501 0.04978719 0.23562174 -0.2306455
000130 39 82 f6 3d fc 0c 9f 3c c9 e6 35 3d 79 00 02 be
       0.12036557 0.019415371 0.044409547 -0.12695493
000140 aa ef ba 3d 77 51 53 be c3 24 a4 bd ab 91 be 3e
       0.091277435 -0.20636545 -0.08014824 0.3722051
000150 b3 7b 87 be bc 1c 9d 3d be 68 0e 3e 1e 4c db bd
       -0.26461563 0.07671496 0.13907143 -0.107078776
000160 00 17 9c bd f2 3b 9e be 9c de 30 3e 8f 06 b7 3e
       -0.076215744 -0.3090511 0.17272419 0.3574719
000170 f8 2b d7 3d 14 2b bb 3d ec 78 b7 3e 12 00 5f be
       0.10506433 0.09139076 0.35834444 -0.2177737
000180 d1 33 a1 be 64 63 3c 3e c7 ee 01 be 7d 15 83 3d
       -0.31484845 0.1839729 -0.12688743 0.06400583
000190 fe fc 54 3c 68 0c 01 be 10 82 1a 3e 7b 02 69 be
       0.012999771 -0.12602389 0.15088677 -0.22754852
0001a0 35 ca be 3d 1e 7c 7f be f1 34 67 be a4 3e c9 3d
       0.09315912 -0.2494969 -0.2257879 0.09826401
0001b0 2e 39 87 3e 3d 7b 27 3e 24 6d a7 bc 1c 81 83 3e
       0.26410812 0.16355605 -0.020437784 0.2568444
0001c0 87 fe db bd 1a c9 8f 3e be 90 43 be 6e 6c 00 3d
       -0.107419066 0.28083116 -0.19098184 0.031353407
0001d0 ca 08 b2 3e c0 90 07 3d 3a 16 79 3e 8b 89 a2 3e
       0.3477233 0.03309703 0.24324885 0.31745562
0001e0 45 94 86 be 29 4b f5 bd 26 ea ae be f9 18 bd 3e
       -0.26284996 -0.11977226 -0.34163016 0.36933115
0001f0 f0 27 29 3e 43 20 ad 3c 36 5a cd 3d 0f 2a 7d bc
       0.16519141 0.021133548 0.10026972 -0.015451922
000200 1f 04 03 3e b9 a4 a5 be 1c f7 fc bd 28 5c 9f 3e
       0.12794541 -0.32352236 -0.1235182 0.31124997
000210 60 ed 87 be ef 77 a5 bd 0b 94 49 3e df 9e e6 bd
       -0.2654829 -0.08079516 0.1968538 -0.11260771
000220 99 cd 7d 3d 5b 71 be be ac 72 2d be e0 0f 8d 3e
       0.06196365 -0.37195858 -0.16938275 0.27551174
000230 41 f2 07 be d9 e9 81 3e a4 f5 fd bd 07 8a 4e 3d
       -0.13276006 0.25373724 -0.12400368 0.050424602
000240 65 f0 0b be f1 a0 d1 3d 08 5d ae 3e dc 1c 1a 3e
       -0.13665922 0.10235775 0.34055352 0.15050071
000250 84 7f 2b bd c7 68 75 3d 52 4e 03 3e 1e f7 55 3e
       -0.041869655 0.059914377 0.12822846 0.20895049
000260 a5 6d 98 3d e2 68 b0 3d 01 92 93 3e 61 56 88 be
       0.07442788 0.08613755 0.2882233 -0.26628402
000270 db 13 90 be 83 10 e3 3e ee 20 5b 3d 10 66 70 bd
       -0.2814015 0.44348535 0.0534982 -0.058691084
000280 2f 78 99 bd fb 4c 62 3e fd f8 64 be 8a db 5e 3d
       -0.07493626 0.22099678 -0.22360606 0.054408588
000290 8f 3c b4 3d db d8 38 3e d8 87 ae 3e 6d 1c 13 be
       0.08800613 0.18051474 0.34088016 -0.14366312
0002a0 bc ad 47 bd 2e 56 80 be 15 2c 29 3e ce 1e 1b 3e
       -0.04874967 -0.2506575 0.16520722 0.1514847
0002b0 73 8a 77 3e 77 a8 e7 3d ae 07 81 be 73 8f cf 3e
       0.24173908 0.11311429 -0.25201172 0.4053913
0002c0 a0 05 18 3e b2 21 26 3d c5 30 a0 be 0c 7a c6 3d
       0.14845896 0.040559478 -0.31287208 0.09691247
0002d0 b9 67 9b 3e 0d 93 15 be 16 e4 84 3e 4c 3d 4a 3d
       0.30352572 -0.14606877 0.25955266 0.049374864
0002e0 8f 30 1b 3d e2 5e 27 3e a0 85 84 bd 88 e5 a2 be
       0.037888106 0.16344789 -0.064707994 -0.31815743
0002f0 aa 14 ed 3d 9f b8 17 3e b4 72 57 be 8a 41 ab 3e
       0.11576207 0.14816521 -0.2103985 0.3344844
000300 03 8a 9d 3e 03 65 5d bd 22 78 cc bd e0 1f 91 bd
       0.30769357 -0.05405141 -0.09983851 -0.07086158
000310 a1 40 3b 3e c7 33 cf 3d 6e 84 01 3d e0 d5 34 3e
       0.18286373 0.101172976 0.031620435 0.17659712
000320 c6 4f 37 be e8 1a b7 3d d2 2a d4 bd c0 99 38 bd
       -0.17901525 0.08940679 -0.1035973 -0.045068502
000330 15 d2 8a bd e5 d8 71 be 10 39 64 be a4 16 6a 3d
       -0.06778351 -0.23617895 -0.22287393 0.057150498
000340 9e 00 67 be 44 04 d7 bc 24 7c 97 3c 36 09 81 bd
       -0.22558829 -0.026247151 0.018491812 -0.06300585
000350 c7 26 0c be a0 9f d1 bd 37 96 90 bd bb 4e 6f bb
       -0.13686667 -0.10235524 -0.07059901 -0.0036515433
000360 24 4e 6f 3e 65 80 90 3d f4 e8 ae bd f1 12 1e 3d
       0.23369652 0.07055739 -0.08540526 0.038592283
000370 04 83 27 3e df 94 e7 3d b0 95 b4 be 75 5b 1b bd
       0.16358572 0.11307692 -0.35270452 -0.037929017
000380 b0 f7 ab be 2b b6 d7 3d 31 25 51 be cd 6c 89 3c
       -0.33587408 0.10532793 -0.20424344 0.016775513
000390 d2 cb c0 3d c4 d4 8f be 84 0b 6d 3d a9 5c a0 3e
       0.09413876 -0.28092015 0.05787231 0.31320694
0003a0 c5 a0 4d be ed f7 1b be 0b dd be bd 1f 69 30 be
       -0.2008086 -0.15231295 -0.09319504 -0.172276
0003b0 1c 79 a0 bd d3 c5 df bc fd c6 92 3e 31 fc 5d be
       -0.078356 -0.02731601 0.2866744 -0.21678235
0003c0 27 c6 5b 3c 39 d3 b7 3c d7 9c 29 be d0 d8 15 be
       0.013413942 0.022439586 -0.16563736 -0.14633489
0003d0 cc f0 1c 3e 59 7a 9b bb 81 4e 03 be fb 64 c3 bd
       0.15326232 -0.0047448096 -0.12822916 -0.09540745
0003e0 9c fd 5c 3e 04 a5 61 bd dc 47 dd bc 63 27 ed bd
       0.2158112 -0.05508901 -0.027011804 -0.11579778
0003f0 ce 77 82 be 6a 2f c1 3d c2 f2 2d be 35 04 4c 3e
       -0.2548203 0.09432872 -0.16987136 0.1992348

647 f4 [16, 16]
000000 4b 6f 8a be 2f 80 ec bc 63 e9 12 3d bb 66 7b 3d
       -0.27038035 -0.028869716 0.035867106 0.06137727
000010 78 3f 13 3d 46 a2 42 3d 47 cb ed bc 19 fd e4 bb
       0.0359492 0.047518037 -0.029027594 -0.0069881794
000020 dd f8 1a be a7 23 bb 3d 74 c3 fd ba 98 ee b5 3d
       -0.15133996 0.091376595 -0.0019360618 0.08883399
000030 e3 69 5f be 86 0e 14 3e a9 a8 a9 bd 98 2f d7 bd
       -0.21817736 0.14458665 -0.082841225 -0.10507125
000040 0e 99 a9 3e c1 69 f1 bd 6c 55 00 3e 05 77 ab 3e
       0.33124584 -0.11787749 0.12532586 0.33489242
000050 e0 68 87 3e 40 7b 4e 3e 1f ef 8d 3d 83 c4 ae 3b
       0.264472 0.20164204 0.06930374 0.0053334846
000060 2e 1c ff 3d bb 48 82 3e 60 a0 57 bd 37 b9 94 bc
       0.12456547 0.25446114 -0.05264318 -0.018154724
000070 5c 00 f7 3d 2e 85 82 3e 0f 61 61 3e 05 d5 45 3e
       0.120606154 0.25492233 0.22009681 0.19319542
000080 21 52 86 bd 7f 9a 20 be c4 0f b7 bc ba 26 4d 3d
       -0.065586336 -0.15683936 -0.022346385 0.05008576
000090 26 a4 6b 3c e6 1b 3a be 2d f3 b9 3e 8d f6 01 be
       0.014382398 -0.18174705 0.3631834 -0.12691708
0000a0 f6 ce 27 3e 22 f2 93 be 87 fd 72 be 69 e4 19 3d
       0.16387543 -0.2889567 -0.23729526 0.037571345
0000b0 ea b6 25 3b 66 d2 80 3d a0 5d aa 3e b8 7a 12 3d
       0.0025286027 0.0629013 0.33274555 0.035761565
0000c0 43 b1 9a bd a6 22 2d be e7 42 ec be 43 5e b5 bd
       -0.07553341 -0.16907749 -0.46144792 -0.088558696
0000d0 c8 79 8e bd d0 af 3c 3e 95 d9 d7 3d 97 be 3d ba
       -0.06956822 0.18426442 0.10539547 -0.0007238178
0000e0 5e 10 42 3d 94 3c 78 be e0 f5 08 3e 26 7a 11 be
       0.04737889 -0.24241859 0.13375044 -0.14206752
0000f0 f6 e3 85 bc d7 bc 7a bd 4b 12 d2 bc 73 4b 78 be
       -0.016344052 -0.061215248 -0.025643488 -0.24247532
000100 0e 86 33 bd 06 34 44 3c f6 8f 51 3d 77 5d 40 3e
       -0.043829016 0.011975294 0.051162682 0.18785654
000110 4d 8b 4d 3e bc eb a4 3d 87 d6 28 3e 18 f7 63 bd
       0.2007267 0.08052775 0.16488086 -0.05565557
000120 1a 67 fe bd 6a 8f cc bd 72 de 3d 3e 41 2a 99 3e
       -0.12422009 -0.099882916 0.18541887 0.2991505
000130 b0 78 50 3e 0d 09 54 3e fa 84 39 be 5c 27 2b 3e
       0.20358539 0.20706578 -0.18117133 0.16714233
000140 21 3c 5f bd 2b fa 0f bd 5f 66 d6 3d 26 39 15 be
       -0.054500703 -0.03515069 0.104687445 -0.14572582
000150 72 a0 b5 3e ac a0 b8 3d cc d6 28 3e 62 e0 18 3d
       0.35473973 0.09015021 0.16488189 0.037323363
000160 b8 d5 18 be 61 98 02 3e 76 60 ac be 81 99 25 be
       -0.14925277 0.1275344 -0.33667344 -0.16171838
000170 60 99 c2 be fc 73 97 3d ae 81 11 3d a2 ba 84 bd
       -0.3800764 0.07395169 0.035524063 -0.0648091
000180 29 a3 d9 3c 36 60 5e 3d b6 d1 a9 3d 95 a4 10 3e
       0.026567059 0.054290973 0.08291952 0.14125283
000190 12 02 28 be 06 28 a6 3e f3 3d af bb c2 14 5c 3e
       -0.1640704 0.3245241 -0.005347961 0.21492293
0001a0 55 ff 9c be 14 61 b3 bd 6b 87 00 3e 79 38 9a 3e
       -0.30663553 -0.087587506 0.12551658 0.3012121
0001b0 94 89 1b 3e 4f e5 32 3e 74 dc 02 be e5 b1 0e be
       0.151892 0.17470287 -0.12779409 -0.13935049
0001c0 1d 99 5f 3d 46 51 d0 3e 37 8f 15 3e ba 1f 29 3e
       0.05458938 0.40687007 0.14605413 0.16516009
0001d0 3a 52 3b be c2 13 b9 3a f1 77 92 3e 30 6d 11 3e
       -0.18293086 0.0014120268 0.28607133 0.14201808
0001e0 ef 7e 9c 3d e1 95 31 bd 38 41 c5 bd b2 99 52 bd
       0.07641398 -0.043355826 -0.0963158 -0.051416107
0001f0 05 7f c7 3d 8d 29 3c bd 8b b4 9e 3c d1 b2 b5 3d
       0.09741024 -0.045938063 0.019373199 0.08871997
000200 47 10 73 3c 18 84 49 bd 62 1b 3c 3e 47 07 15 bc
       0.014835424 -0.04919824 0.1836982 -0.009095973
000210 8b 10 ac bd 7b 92 66 3d 44 99 9c 3d ad ee 92 be
       -0.08401593 0.05629204 0.076464206 -0.2869772
000220 74 32 43 3e 70 60 11 be 40 04 c9 bd 64 fc 96 be
       0.19062215 -0.14196944 -0.09815264 -0.29489434
000230 2b 50 81 3e 95 e7 8e bd 0b dd eb 3d 7d 74 5f 3b
       0.25256476 -0.069777645 0.1151677 0.0034096532
000240 d9 ec ab 3b 96 21 e0 bc 5f 38 94 bd f5 45 7c be
       0.0052467403 -0.027359765 -0.072373144 -0.24636061
000250 45 77 df 3d 2b 99 33 3e 14 fb 00 3d e6 a6 76 3d
       0.10911421 0.17538898 0.031489447 0.06021776
000260 7f 38 39 3e 8e 14 35 bd 7b 4f db bd 15 42 0d bd
       0.18087958 -0.044209056 -0.10708519 -0.03448685
000270 b6 1e 26 be 3a 7b 11 3e 19 be a4 3d 89 c9 90 be
       -0.16222653 0.14207163 0.08044071 -0.2827876
000280 c1 2b b8 be 39 36 35 3e 23 d1 01 be fb 3d e1 be
       -0.35970882 0.17696466 -0.12677436 -0.439926
000290 a2 f9 a4 bd 45 1c bb 3d e7 c4 f7 bd 1f c3 47 bd
       -0.08055426 0.09136251 -0.12098103 -0.048770066
0002a0 e6 14 09 3d 0e 68 8f be 8f 81 d8 3b 5a 51 d3 3d
       0.033467196 -0.28009075 0.0066072415 0.10318251
0002b0 8f 5d 8a 3e 5a 9f 3f 3d 31 2a a8 bc 06 19 8e 3c
       0.27024505 0.04678283 -0.02052793 0.017345916
0002c0 fe b4 60 bd a0 59 60 be 41 5c 5e 3d 0e 82 f0 3d
       -0.054860108 -0.21909189 0.0542872 0.11743556
0002d0 91 7c 20 3c 00 79 89 be a9 bd 4a be d6 62 ea 3d
       0.009795324 -0.26850128 -0.19798912 0.11444633
0002e0 a9 99 fe 3d fd a6 e7 3d 94 e9 9a 3d d3 2e 4b 3e
       0.12431652 0.11311147 0.07564083 0.19842081
0002f0 ba 15 00 3c 96 94 a2 be d6 0a 43 be 8c 72 00 3e
       0.00781768 -0.31753987 -0.19047102 0.12543696
000300 5c c0 3a 3e c5 62 1c bd 9f e6 b2 3d 56 d4 86 3c
       0.18237442 -0.03818013 0.08735394 0.016458672
000310 b2 2c a7 bd 45 67 bf be c7 11 5b be dc eb 47 bd
       -0.08162822 -0.37383476 -0.213935 -0.048808917
000320 9f 6b ff bd 43 72 70 3d 8f 34 5f 3e f8 64 d6 3d
       -0.12471699 0.05870272 0.21797393 0.10468477
000330 d2 b9 fe 3d f8 a7 12 be 3e a5 4d 3d 06 b3 e4 bd
       0.12437786 -0.14321887 0.050206415 -0.111669585
000340 93 05 1c 3e 9e 3b 85 3e 38 de 9c be 8b b7 56 3e
       0.15236501 0.26022047 -0.3063829 0.20968454
000350 97 f9 37 be 2d ef 31 be 01 27 7d be be 65 c5 3d
       -0.17966305 -0.17376395 -0.2472191 0.096385464
000360 12 33 93 be 5e ab b3 3e f5 66 4f 3e 9c 5a 87 3e
       -0.287499 0.3509168 0.20254119 0.26436317
000370 d3 e9 21 3e 63 6d d4 bd 87 02 7a 3e 9c a8 83 be
       0.15811853 -0.10372426 0.24415027 -0.25714576
000380 d5 02 28 be 51 67 a2 bc a2 b3 bb 3e 48 4a c7 3d
       -0.1640733 -0.019824656 0.36660486 0.09730965
000390 42 79 19 be 83 72 44 3e fc 21 be bd bd 6e 88 bd
       -0.14987662 0.19184308 -0.09283826 -0.06661747
0003a0 f3 7f d5 3d bd 8f 7c 3d d3 0b 34 be 02 b1 e4 3c
       0.10424795 0.061660517 -0.17582636 0.027916435
0003b0 b6 1f ac bc c9 c5 fd 3d 1f 2a 00 bc 3e ad 63 3e
       -0.021011215 0.1239124 -0.007822542 0.22234055
0003c0 7e 4d 57 3e 45 f6 8c bd ee 19 c2 bd d1 0d 2c 3e
       0.21025655 -0.0688291 -0.09477602 0.16802146
0003d0 45 cf a8 3e e3 60 2f 3e cf f4 c4 3e cd 76 30 bd
       0.32970634 0.17126803 0.38468024 -0.043082047
0003e0 69 2e 22 3e f0 4e 17 3e 67 e0 1b bd c5 eb e7 3d
       0.15838017 0.14776206 -0.038055804 0.11324266
0003f0 05 e7 75 3a 99 6a f4 3e fd 88 af 3e 9b 35 4f 3c
       0.0009380433 0.47737578 0.342842 0.012647058
