files/model_mini.onnx (onnx, 851638 bytes, 95 tensors)

adaptive_normalization.filter_ f4 [1, 1, 17]
00000000: 6955 8c38 c6c5 e439 b139 113b 2898 0f3c
00000010: a126 dd3c dca0 843d 4ac8 f73d b842 343e
00000020: 1543 4c3e b842 343e 4ac8 f73d dca0 843d
00000030: a126 dd3c 2898 0f3c b139 113b c6c5 e439
00000040: 6955 8c38
6.691629e-05 0.00043634902 0.002215963 0.008764304 0.026995959 0.06475994 0.12098749 0.17603576
0.19947465 0.17603576 0.12098749 0.06475994 0.026995959 0.008764304 0.002215963 0.00043634902
6.691629e-05

encoder.0.0.dw_conv.0.weight f4 [161, 1, 5]
00000000: 3cfb fbbd 759a b33e af9a 823d 346c da3e
00000010: 8cb3 333e b005 0fbf 09a7 43bf fc30 01bf
00000020: 5b46 94be 4ab4 43bf 7dd4 8c3e fb35 b2be
00000030: d1e9 0a3e 57b6 48bb 6435 7dbe 2b79 96be
00000040: a148 493e 7579 993d d118 a03e 1b33 97be
00000050: 4247 f63d 2356 b63e 0b63 2c3f d5f4 e73c
00000060: 5619 b2bc ccdf ae3d 0218 26be 83d4 9e3e
00000070: 5c49 953e 1935 473e 0aee da3e 8b4b ffbd
00000080: 75fd d9be 50cc 04bf 0c1a ff3e ea55 84bd
00000090: dd35 d63e a3cb d53c 9701 f13e bc12 003e
000000a0: cc03 423e 3d28 403e 7728 743e c6e0 0e3d
000000b0: 575b 973e f00d 2cbd f2b2 303e 640b ee3e
000000c0: b7c4 593e 5cb3 71bd ea5d 223f 671a 84be
000000d0: 2e40 aebd f411 2bbe cd18 01bf bce5 41be
000000e0: 00c8 7dbe 81a9 afbe 90f3 70be ba15 5bbe
000000f0: 2f86 88be bcad 16be 576c de3e 4721 003f
00000100: b33d 19bd 018b 7d3e 189a 45bc 72a8 123e
00000110: 014f 993c 8f92 2a3e 3fb4 263e 6d50 69bd
00000120: 5409 193f dac9 b73d d4c5 953c 2c08 16bf
00000130: 16cd 0abf 7ee2 04bf cee8 f13d f910 f7be
00000140: 58a1 61bc 8aff de3d e095 b7be 7dcc 03bf
00000150: d6c2 bcbe f04b 64be 9622 66be 0f60 bf3e
00000160: c2ff 693e 333d babc 27ea bfbd 3734 c1bc
00000170: 1b27 cebe ce7d 9f3e 8d15 883e 5378 0a3d
00000180: 166f 9bbd 3cef 333f 9927 d93d 5fc5 a5bd
00000190: 3e40 c4bd e121 e3bd bc7e d9be f4ff 5abd
000001a0: b2db a13c 92e3 2cbe c189 0e3d f0a9 1f3f
000001b0: 772a 69be 0bb2 b4be ac29 6e3d b0b2 b33e
000001c0: 9c8a bf3d 7405 f03e eb2d 033e d95f 193e
000001d0: e57b 363e aea2 4d3e 2567 423b 4285 803e
000001e0: d6b8 83be 20c2 f3be cd78 3bbf ac99 b1be
000001f0: d383 fcbe aea5 653d 248a 27bd 266c 4b3e
00000200: 80f4 a4bd 6396 863d 5dfd 07be d9e8 c33e
00000210: 04ed 883e 2592 713e 74d9 033e b07e 5b3e
00000220: f1de e83c 7491 153e 1613 7f3e eaa8 7e3e
00000230: 6ed8 a53e 7a2a 033e a179 9fbd c589 833d
00000240: dca6 113e dd68 4b3e 70eb a53d d750 a33e
00000250: ae70 6bbd 1e2f a43e 56d5 843c 5fc0 0cbe
00000260: 0c2b 273f bb6a 443c 740f 543d 395f eabd
00000270: d727 14be c1b3 ddbe 0dda 87be eda7 1cbe
00000280: 9f90 5cbe 21e9 9abd b5b0 52be e210 23bc
00000290: b4a5 213f 9be7 96bd c28e 1e3e 084c 053f
000002a0: 7cfa 683d 8edb 193e a702 6dbc de47 1c3d
000002b0: e9a6 53bf 37de c03c 3812 363d be28 c6bc
000002c0: 97b4 6b3d 3664 f33e f3c3 643d 123a e33d
000002d0: dbdf ccbb 7ec8 cf3e 3b37 013f 8d66 113e
000002e0: 21c1 e13d 9030 003f a4b1 90be 960d 903e
000002f0: 5d84 e0be b601 41bd cd50 523d e158 743d
00000300: 2290 0f3f 2c05 903e 91be 553d 16a1 8bbe
00000310: b168 afbe b624 11bf 7058 10be 7677 b8be
00000320: d98b bf3e 6d24 c23d b475 7e3d a087 c83e
00000330: 1655 053d 9035 65be 9791 30be 7300 f7be
00000340: 98bf a2be f3ab 0a3f c9f6 68bd 70f2 0d3e
00000350: 435c 1a3f 0a91 923d 77e6 fabc 12a0 f53d
00000360: ec54 6a3c e18e 193f 738e a0bb a5cc 073e
00000370: 741f 31be 956c 50bd 7e3f f2be ca87 9dbe
00000380: 879d f6be 668c ab3e d0d1 133e 1030 9b3d
00000390: bbbd be3e 87e0 693e 4447 3ebd 8418 10bf
000003a0: bcb8 1abe f1fa 8abe f9ba 3fbd 74e7 6b3c
000003b0: 578c fc3d f84c a63e e3ef 303e 037c da3d
000003c0: 561f 093e b8c5 d33e 9659 6c3d 6f58 413e
000003d0: 9c3e 163e 0eba d33c 1d0d a4bd 6183 093f
000003e0: 6f05 543d c025 a13d 9c02 a7bd 09f6 463e
000003f0: a1b7 283f 012b 8a3e 8313 9bbd cf4b dabc
-0.123037785 0.3507878 0.0637716 0.42660677 0.1754896 -0.55868053 -0.7642675 -0.5046537
-0.28959927 -0.76446974 0.27505866 -0.3480681 0.13565756 -0.003062626 -0.24727398 -0.2938932
0.19656612 0.07493869 0.31268933 -0.29531178 0.1202531 0.35612592 0.6733863 0.028314987
-0.021740597 0.085387796 -0.16220096 0.3102151 0.2915753 0.19453849 0.42759734 -0.124655806
-0.42576185 -0.51874256 0.4982456 -0.06461699 0.4183797 0.026098078 0.47071525 0.12507147
0.18946761 0.1876535 0.23843561 0.03488233 0.29561874 -0.04200548 0.17255762 0.46493065
0.21266447 -0.05900894 0.6342455 -0.25801393 -0.08508335 -0.16706067 -0.5042847 -0.18935293
-0.24783325 -0.3430901 -0.23530412 -0.21395007 -0.26664874 -0.14714712 0.43442032 0.5005078
-0.037412357 0.24760057 -0.012060665 0.1432207 0.01871443 0.1665747 0.16279696 -0.056961466
0.5977986 0.08974047 0.018282808 -0.5860622 -0.54219186 -0.519081 0.11811982 -0.48255137
-0.0137713775 0.10888584 -0.35856533 -0.514839 -0.36867398 -0.22294593 -0.22474131 0.37377974
0.2285147 -0.02273426 -0.09370833 -0.023584468 -0.4026421 0.3115067 0.26578942 0.033806156
-0.07589547 0.7028692 0.10603256 -0.08094286 -0.09582566 -0.11090446 -0.42479503 -0.053466752
0.01975808 -0.16883686 0.03479934 0.6236868 -0.22770105 -0.35292086 0.05814521 0.35097265
0.093526095 0.4687916 0.12810485 0.14977969 0.178207 0.20081589 0.002966353 0.25101668
-0.25726956 -0.47609043 -0.732312 -0.34687555 -0.49319324 0.056066208 -0.040903226 0.19865474
-0.08054447 0.06571653 -0.13280244 0.38263586 0.2674333 0.23590906 0.1287592 0.21435046
0.02842662 0.14606267 0.24909624 0.24869123 0.32391685 0.12809172 -0.07786871 0.06422762
0.14223808 0.19864221 0.08101547 0.31897613 -0.057480507 0.32067198 0.016215008 -0.13745259
0.6530006 0.011988337 0.05177255 -0.114439435 -0.14468323 -0.43301204 -0.26533547 -0.15298434
-0.21539544 -0.07563997 -0.20575221 -0.009952756 0.6314347 -0.07368394 0.15484145 0.5206914
0.056879506 0.1502516 -0.014465964 0.038154475 -0.8267656 0.02354346 0.04445097 -0.02418935
0.05754527 0.47537392 0.055850934 0.110950604 -0.0062522716 0.4058265 0.504749 0.14199276
0.110231645 0.500741 -0.2826053 0.28135365 -0.43850985 -0.047120772 0.05134659 0.059655074
0.56079304 0.28128946 0.05218369 -0.27271336 -0.3425956 -0.5669664 -0.14096236 -0.3602864
0.37411383 0.09479604 0.06212397 0.39165974 0.032551847 -0.22383714 -0.17243038 -0.4824253
-0.317868 0.54168624 -0.056875978 0.13862014 0.6029703 0.0715657 -0.030627472 0.119934216
0.0143024735 0.5998364 -0.004899794 0.1326166 -0.17297155 -0.050884802 -0.47314066 -0.3076766
-0.4816706 0.33505553 0.14435506 0.075775266 0.37254128 0.22839557 -0.046454683 -0.5628741
-0.15109533 -0.27144578 -0.04680917 0.014398444 0.12331455 0.32480597 0.1727901 0.106681846
0.1339086 0.41361785 0.057702623 0.18881391 0.14672321 0.025845554 -0.08010314 0.53716093
0.051762994 0.07868528 -0.081547946 0.19429792 0.65905195 0.26985934 -0.07572081 -0.026647476

encoder.0.0.dw_conv.0.bias f4 [161]
00000000: a481 063f 8807 01b9 3bd1 5a3f 7665 6fb9
00000010: 2e6f d8be cdc8 a8be 78aa 0639 8993 8a3d
00000020: 3f63 a3ba b44a 11bf 0b4f 0139 3d38 463f
00000030: 4fe6 683e 8ef6 b73e 33b0 2fbf 6f2f 17b8
00000040: 5f0e 943e 5165 ebbe 4832 7039 5386 473e
00000050: 0de6 4c3f c6fc 3039 5114 07bf 507a 0ebf
00000060: ea4a 4fb8 1904 1b3f 28b5 5d3e 0439 39bf
00000070: e871 d7be 5285 94be 3505 133f 402d e53e
00000080: 6b75 31be aca9 f6be 4af6 323f 92b9 273f
00000090: 5b95 f8be 4343 5739 3bb9 fdbe 0285 4239
000000a0: 31ee f53e d847 6038 4e67 923e fbbb 073f
000000b0: bc24 f537 24e4 c5be 238d f13b 1df6 923e
000000c0: 64a4 02bf a74e aa3e b4f7 803e bea8 b6b9
000000d0: fa32 e6be bc3d c13e 5b79 5bbe f36d 153e
000000e0: cd7f 8bbe d983 8fbd f2de fa3e 1755 0d3a
000000f0: 7b86 953e 6bfb 953d 152a f2bd 66cd 433e
00000100: 5a39 06bf 265d 133e d86d 02bd ab7c 833e
00000110: 3d4e 4b3e 8e63 87be eab6 8b3d 87d4 e33d
00000120: 6ed2 fabd 9c38 8f3e f6ed 72bd 5061 fdbe
00000130: 578a d23e 10a3 873e 9925 923e f459 4b3b
00000140: d703 cf3d 46c5 fd3e ee2f 263f d6cb f33c
00000150: 2932 ad3e 643f 96be 466d 1d3e c5c0 bf3e
00000160: 8101 b53e ae42 d3be 471a ec3e ca23 033f
00000170: c358 8d3a 0f3f f23d 2812 80be d87a d53e
00000180: 3f5c cf3d 5262 d2be 951e 243f 71e1 babe
00000190: ca58 333f 0869 763e dd75 95bd 1453 883e
000001a0: 0c6a 303e 4dba e9be e10e ac3d fd44 76be
000001b0: 7178 823e 13af f0bd 23a3 193f 8b94 473f
000001c0: 3884 e0be 35c7 46ba e92b 0fbf d4ab d33b
000001d0: 4494 af3d 6ffb 093f 041d d13e 6674 2cbf
000001e0: 338d 8a3e b63e cd3e a885 2ebd d12e 4fb9
000001f0: 9a26 86be 3e22 c1be 9dc3 8b3e 19a0 88be
00000200: 9b3c a83e 8b92 4b3e 0857 87be 805d 073f
00000210: c534 d1be 0efb 843e b87c c939 390c aeb9
00000220: 921c 07bf 8ba6 4a3e 15af 01bf a053 3cb9
00000230: 096f 2c3f c9a7 fc3e ed4c 48bf 272a 96b7
00000240: bc14 48b8 c9fc 1fbe e47d 18be 711e 5c3f
00000250: fa8f dbbd acec 023f c6ae 013d 73c7 693e
00000260: 5ff1 bd3d 5a58 15bf 6aec f23e 0093 9b3e
00000270: 4eb3 663e cfc4 d23d 32fc 473c c968 07bf
00000280: 6c1a 6339
0.52541566 -0.00012305204 0.8547551 -0.00022830613 -0.42272323 -0.329657 0.0001284274 0.06766421
-0.0012465491 -0.5675461 0.00012331844 0.7742956 0.22744106 0.35930294 -0.68628234 -3.604538e-05
0.28917214 -0.45975736 0.00022906915 0.19484834 0.8003853 0.00016878833 -0.52765375 -0.55655384
-4.9422415e-05 0.6055313 0.21651137 -0.72352624 -0.4207909 -0.29007965 0.5742982 0.44761086
-0.17329948 -0.48176324 0.6990706 0.6551753 -0.4855145 0.00020529055 -0.49555382 0.00018550831
0.48033288 5.347267e-05 0.2859444 0.5302121 2.9223382e-05 -0.3865062 0.007371561 0.28703395
-0.5103209 0.33263132 0.25188982 -0.00034839468 -0.44960767 0.37742412 -0.21433012 0.14592724
-0.27245942 -0.0700757 0.4899822 0.00053914025 0.29204163 0.07323345 -0.11824433 0.19121322
-0.5243126 0.14391002 -0.031843036 0.25681052 0.19854064 -0.26443142 0.068219975 0.11124521
-0.122471675 0.27972877 -0.05930897 -0.49488306 0.4112117 0.26491594 0.2854431 0.0031028958
0.10108154 0.4956457 0.64916885 0.029760282 0.33827332 -0.29345238 0.15373716 0.3745176
0.3535271 -0.4126181 0.46113798 0.51226485 0.0010783899 0.11828434 -0.25013852 0.41695285
0.101250164 -0.41090637 0.64109164 -0.36500123 0.70057356 0.24063504 -0.07297871 0.26625884
0.17227954 -0.4564995 0.084012754 -0.24049754 0.25482515 -0.11752143 0.6001455 0.77961034
-0.43850875 -0.0007582785 -0.55926377 0.0064596925 0.08573201 0.5389928 0.4084245 -0.6736511
0.2706085 0.40086907 -0.042607933 -0.00019758499 -0.26201326 -0.37721437 0.2729768 -0.26684645
0.32858738 0.1988012 -0.26433587 0.52877045 -0.40860572 0.2597279 0.0003843063 -0.00033196973
-0.5277797 0.19790094 -0.5065778 -0.0001796023 0.67356926 0.4934676 -0.7824238 -1.7901022e-05
-4.7703026e-05 -0.15623774 -0.14891773 0.8598395 -0.10720821 0.5114238 0.031660818 0.2282999
0.092745535 -0.5833794 0.47445995 0.3038559 0.22529337 0.102914445 0.012206124 -0.52894264
0.0002165825

encoder.0.0.pw_conv.0.weight f4 [161, 161, 1]
00000000: 8ceb ac3d 22dd 6b3e 2991 aa3d ef72 5dbd
00000010: 8a8f bebd 5a36 2abe 6dd3 503d 7f42 8cbd
00000020: b6ef 44bd 81b5 87bd 99fe 1c3d e553 50bd
00000030: cf4c 1abd 30fa 82bd 45f8 56bd 68cc a73d
00000040: 591d 44bc 50cf 7a3d 7a3f 883d 3958 0ebc
00000050: ca75 00bc 81bb 17bd cf5b c3bc 391a edbc
00000060: ddc8 b03c 845b dcbd ca8a b9bc 8a7b 5f3c
00000070: 88a7 95bc 04de 71bd 5bc8 5cbd 001b 8f3c
00000080: 732d 223d 8729 b6bc 47dd 7c3c b921 69bd
00000090: f2cb 54bc 6019 58bd 135d 063c dab7 2c3c
000000a0: 63aa 06bd d563 573c 23a7 e13b 49fc 12bd
000000b0: 4b43 783b c462 af3c 5626 ef3c 5cfc c23c
000000c0: 0336 55bc d0b4 b93b cbc0 6bbb 0e0b ad3c
000000d0: 6f1d 613c 3c98 203c ae84 95bd 1159 69bd
000000e0: 61d6 403c 657e d239 4da2 65bb 1f01 003d
000000f0: 82cf 373c 3ca2 67bd 5d13 9ebb 168c 003d
00000100: 0e9e 493d c0d9 b93b 0fc5 9c3b f794 143a
00000110: 1f89 02bd bd5e b13c 795d 603b dd77 9a3c
00000120: 94ed 9f3c c77c 8cbc 8363 ab3c 44bc f03b
00000130: bb1a 0bbd 8dce 92bc c5d1 30bc 9132 fd3b
00000140: b91f bcbc 624a 15bd 2b26 37be 4ab0 fbbc
00000150: 3683 6b3b 94e1 91bb 4cf6 02bb db76 00bd
00000160: c089 95bd c4f1 81ba 695b b0bd 9fe0 14bb
00000170: e704 38bd 83ec 0dbd c527 53bd 5171 65bd
00000180: 16e5 6abb f7ca 7c3c 9a19 42bd 690c 57bd
00000190: a774 0fbd 7fe9 953b 1c7e 67bd ded2 cab9
000001a0: d384 9ebd a709 053d bf39 873c 5b14 7fbb
000001b0: 60e1 cebc d4e3 bfba bf13 03bd 4ba5 cbbd
000001c0: 632d a23d 3b47 50bc 76df 663c 2cca 49bd
000001d0: 1027 a53c fa3d 2cbd febc b4bb c44b bbbb
000001e0: 4321 10bc 7e13 89bd c3d4 7e3d d844 da3c
000001f0: f8c7 153c 2bcb bcbc 6ccb 7ebd 8daf 3b3d
00000200: d242 98bc 1713 b53c 12ea 34bd bfb4 dcbd
00000210: d989 77bd 73c0 06bd ece3 45bd fb76 9d3d
00000220: 6ef2 56bc 7abe a33a 6fd1 40bd 12e1 6b3c
00000230: 4d72 cebd 6499 49bd d5ef 3dbc c636 37bd
00000240: 01e9 62bd acc8 753c ce66 f93c 52f6 b4bd
00000250: 9c44 173d a914 05bc b170 073d 29f9 acbc
00000260: 0f52 923c e93c 043b 6d6b 9abd a976 933a
00000270: d6a0 7f3c ef8c 00bc deec 293d 8aaf 55bd
00000280: bde6 153d 48b7 193e 9149 33be 6e96 c0bd
00000290: 025e 803d 7e4c 1bbe b7b8 d1bd d8e0 683d
000002a0: 8ab5 d2bc feec a03b 39bc 43bd 6364 da3d
000002b0: dc1e 00be 3dba 8dbd 3057 e1bc 0de3 f7bc
000002c0: 4d86 413e e4f2 e73b 9f46 0cbe 236a 9d3c
000002d0: f400 6ebd 759e 3d3d 81df 8ebd 6490 8a3c
000002e0: 1533 d8bc 01c8 923d 97d4 efbd 9c2d 9abd
000002f0: dbc8 8e3d 60e3 073d 06ed 12bc a91b 43bd
00000300: d446 593d 7dc6 103c 345b 0b3c 3231 f03c
00000310: fbbf aebd 59c5 7ebc e173 77bd 04e2 3c3d
00000320: cf63 a7bb 4da6 2dbd d5df 5e3b e1fc 4bbd
00000330: c625 07bd 840f a7bc e069 163d 8e26 1b3d
00000340: 70c3 d7bc ef28 953c 9f99 0dbd efad f6b7
00000350: 4d5e c83c 306f db3c dbef d3bd 9107 54bc
00000360: 28ed 11bd 164c d43c b2a1 5fbc ffe5 353b
00000370: d019 803a e4d2 21bd b255 aebc c64b d539
00000380: a4b0 973a 9030 c83c b596 31bb e19c 8abc
00000390: 991d 64bb 982b b7bc 85af 353b 502b 4ebd
000003a0: 5eca 49bc a1f4 99bb 1705 2bbc 96c9 0b3c
000003b0: 8772 8fbb 1138 95bc 370c cbba 785d c1bc
000003c0: f443 b5bc 061c 0ebc 51c4 c3bd 8a05 43be
000003d0: c34e 0a3c 9e71 87bb 8ffd 903d fea9 c03a
000003e0: 4740 8fbd debc 21bd df80 193c 3379 1cbd
000003f0: eacb f9bc b83a cfbc ac75 01be 17f5 f83c
0.084433645 0.23033574 0.08328468 -0.054064687 -0.09304722 -0.16622296 0.05098288 -0.068486206
-0.04808017 -0.06626416 0.03832874 -0.050861258 -0.037670907 -0.06395376 -0.052482862 0.08193284
-0.011969888 0.061232865 0.06652732 -0.008688026 -0.007840583 -0.037044052 -0.023847489 -0.028943168
0.021580154 -0.10759643 -0.022649188 0.013640294 -0.018268362 -0.05904962 -0.05390201 0.01746893
0.039594125 -0.022236599 0.015433616 -0.056916926 -0.0129880775 -0.052758574 0.008200902 0.0105418805
-0.032877337 0.01314636 0.0068863793 -0.03588513 0.0037881907 0.0214094 0.029193085 0.023801975
-0.013013366 0.0056673065 -0.0035973068 0.021123435 0.013739928 0.0098019205 -0.07300697 -0.056969706
0.011769862 0.00040148493 -0.0035039366 0.03125107 0.011218907 -0.056551203 -0.0048240856 0.031383596
0.049223 0.00567171 0.0047842334 0.00056679494 -0.03186905 0.02165162 0.0034235402 0.018855983
0.019522466 -0.017149342 0.020921474 0.0073466618 -0.03396104 -0.017920757 -0.0107922 0.0077269753
-0.022964345 -0.03644789 -0.17885654 -0.03072371 0.0035936362 -0.00445194 -0.001998323 -0.03136335
-0.07301664 -0.0009913971 -0.08611185 -0.0022716892 -0.04492655 -0.034649383 -0.0515516 -0.05601627
-0.0035842112 0.01542925 -0.047387697 -0.05250207 -0.035023358 0.004574954 -0.05651675 -0.0003868555
-0.07740178 0.03247991 0.016507028 -0.0038922045 -0.025253952 -0.0014640042 -0.032001253 -0.099436365
0.07918813 -0.012712295 0.014091363 -0.04926507 0.020160228 -0.042051293 -0.0055156937 -0.005715819
-0.008796993 -0.06693171 0.062214624 0.026644155 0.009141915 -0.023046097 -0.062205717 0.045821715
-0.01858655 0.02210383 -0.04416854 -0.10776662 -0.060434196 -0.032898378 -0.048313066 0.07688709
-0.013119323 0.001249268 -0.04707473 0.014396923 -0.10080395 -0.04921855 -0.011592825 -0.04472997
-0.05539799 0.015001457 0.030444529 -0.08836044 0.036930665 -0.008122602 0.033066455 -0.021114903
0.017861394 0.0020177907 -0.07540021 0.0011250573 0.015602311 -0.007846101 0.04148566 -0.05216936
0.036597002 0.15011322 -0.17508532 -0.09403692 0.062679306 -0.15165898 -0.1024031 0.056855053
-0.02572133 0.004911064 -0.047786925 0.106636785 -0.12511772 -0.06920288 -0.027507395 -0.030259633
0.18898888 0.0070785154 -0.13698815 0.019215649 -0.058106378 0.046293695 -0.06976224 0.016914554
-0.026391545 0.07167054 -0.1171047 -0.075282305 0.06971904 0.033175826 -0.008967644 -0.0476338
0.053046063 0.008836386 0.008505631 0.029320333 -0.08532711 -0.015549981 -0.060413245 0.046113983
-0.0051083337 -0.042394925 0.0034007926 -0.04980171 -0.032995008 -0.02039314 0.036722064 0.037878565
-0.026338309 0.018207995 -0.034570333 -2.940648e-05 0.024459029 0.026786417 -0.10348483 -0.012941257
-0.03562656 0.025915187 -0.013649391 0.0027755497 0.0009773318 -0.03950776 -0.021281097 0.00040682981
0.0011573029 0.024437219 -0.0027097885 -0.016920509 -0.003480768 -0.022359654 0.0027723026 -0.050334275
-0.0123163145 -0.0046983515 -0.010438225 0.008531949 -0.0043776664 -0.018215211 -0.0015491311 -0.02360414
-0.02212713 -0.0086736735 -0.09558929 -0.19045082 0.00844163 -0.0041334173 0.070796125 0.0014699099
-0.06994682 -0.03948676 0.009369104 -0.038201522 -0.030492742 -0.025296554 -0.12642545 0.030390305

encoder.0.0.pw_conv.0.bias f4 [161]
00000000: c350 7cbe cd88 a5bd d4cd a8bd 7bd7 2fbe
00000010: 4b96 f5bd 0653 84be ad13 b7bd 2ce7 0ebd
00000020: 0362 8cbe 1872 a2be 7390 6fbe 471b 29be
00000030: f532 14be b992 ecbd 413a 22be b08f ff3b
00000040: 9763 723d 7eec 74bd 77d1 22be 5fee 86bd
00000050: 6103 8abd 6f9f da3b 0a1b 113e c105 b33c
00000060: ffd0 113c 2980 8cbb ac1c 733e 0b44 8dbd
00000070: 68db 793d e92f 13be 77f5 1dbe 14e7 a43c
00000080: 4963 ba3c 98c3 60bd 6de7 583d b87d 0d3d
00000090: 2bb6 efbd 041a a73d 0a76 75bd b171 863d
000000a0: 6a57 3c3e 4b1a ecbd 9c89 c7bc e60a e1bd
000000b0: 7850 98bd 24d5 3ebd 21a5 d1bd 545a 0c3d
000000c0: d1d3 a4bd 1e87 89bd a87d 033e 6de0 e73c
000000d0: 6449 5abd 5a12 27bd d9db e4bd cbe4 75bd
000000e0: ec5a dabb b58a 03be f8c5 a3bc 5ce6 13be
000000f0: 501d bcbd b23b 093c df9a 48bd 89d4 53bd
00000100: ac0b 8bbb 6d0e c1bc 469c 99bc 0dbf 123d
00000110: 5421 25bd 7598 a43c f753 393c f337 e2bb
00000120: 9cd2 5a3d 320b 403e 9a71 9cbd 672b 06be
00000130: 14ab 7cbd e195 a1bc 60f4 0bbd 1862 423e
00000140: 17d0 71bd 44f9 843d 7e02 83bd 2b95 11bd
00000150: d001 653c e4ac 81bb cf12 303d 2a96 96bd
00000160: a836 bdbd 1cdf 843c 74a3 6d3c 35e9 af3d
00000170: ff27 2ebe 5b93 61bd 5ba7 8e3d aef1 0e3e
00000180: 0e12 15bd 7db8 dbbc 281e 57be f1ac aebd
00000190: 7970 423e efee 743e ec73 66bc 11b8 523e
000001a0: 8aa5 0b3e f8ea ebbd a62e 083d 91c1 753e
000001b0: 8d71 993d 76c2 09bd ab2a 0d3e 0214 03be
000001c0: 31e1 6f3c 10f7 c53d e96a 183d 4bda 42bc
000001d0: ea42 943c 6616 853c adfd 20bc 070c ab3d
000001e0: b033 3b3d 20be c53d be20 213e 7027 873d
000001f0: 859e 9b3d 4813 573d ee0d afbb d87a fe3c
00000200: 3b07 a63d 962d 9e3d ba74 9b3d 02f7 a33d
00000210: d612 413c b544 133d fece ebbb 55d6 d63d
00000220: 985b 3e3c 6281 2bbe 2738 e93c 312c 7fbc
00000230: aa31 f53c c364 4b3e 61ac 6a3d 7477 5fbc
00000240: cbef cfbd 258e 413d bd61 0e3d a8d0 48bd
00000250: 44d9 dd3d 5a82 443e 27fd b63d 0457 383e
00000260: 2692 1c3e 7419 9cbc b720 153e 187d 103d
00000270: 1316 fc3c 1dc3 5f3e b481 203e a17f 723e
00000280: 6a5e 2ebd
-0.24640183 -0.08082733 -0.082423836 -0.17172043 -0.11991557 -0.25844592 -0.089393 -0.03488843
-0.27418527 -0.31727672 -0.23394947 -0.16514312 -0.14472564 -0.115514226 -0.15842535 0.0077991113
0.059177008 -0.05979585 -0.15900217 -0.065884344 -0.06738926 0.006671838 0.14170471 0.02185333
0.008899926 -0.004287739 0.23741406 -0.06897744 0.061000258 -0.14373745 -0.15425669 0.020129718
0.022752421 -0.054874033 0.05295508 0.034543723 -0.11704668 0.08159259 -0.059927024 0.06564654
0.18392721 -0.115284525 -0.02435761 -0.10988407 -0.07437223 -0.046589985 -0.10236574 0.03426583
-0.08048213 -0.06715225 0.12840903 0.028305257 -0.053292647 -0.040788986 -0.11174745 -0.060032647
-0.0066636708 -0.12845881 -0.01999186 -0.14443344 -0.091852784 0.008376049 -0.04897582 -0.05171636
-0.0042433348 -0.023566449 -0.018751275 0.03582673 -0.040314987 0.020092228 0.011311523 -0.0069036423
0.05342351 0.1875427 -0.07638855 -0.13102494 -0.06168659 -0.019724788 -0.0341686 0.18982732
-0.05903634 0.06492856 -0.0639696 -0.03554265 0.013977483 -0.0039573777 0.042986687 -0.0735286
-0.092389405 0.016219668 0.014504302 0.085894026 -0.17007445 -0.05507217 0.06965514 0.13959381
-0.03639417 -0.02682137 -0.21007597 -0.0852908 0.18988217 0.23919271 -0.014065724 0.20578028
0.13637367 -0.11519426 0.033247612 0.23999621 0.07492361 -0.033632718 0.13785808 -0.12800601
0.014641092 0.09666264 0.037211332 -0.011892865 0.018098313 0.016246032 -0.009826106 0.083519034
0.04570359 0.09655404 0.15735146 0.06599319 0.075985946 0.052508622 -0.0053422367 0.031064436
0.08106848 0.077235386 0.07590623 0.080060974 0.011784276 0.035954196 -0.0071963063 0.10490099
0.011618517 -0.16748574 0.028469158 -0.015574501 0.029930908 0.19862656 0.0572933 -0.01363932
-0.10153159 0.0472547 0.03476118 -0.049027115 0.10832456 0.1919035 0.08935004 0.18001944
0.15290126 -0.019055106 0.14563261 0.03527555 0.030772245 0.21851774 0.15674478 0.23681499
-0.04257051

encoder.0.1.dw_conv.0.weight f4 [161, 1, 5]
00000000: 129e 34bd a8d9 243f 8735 753e 63f5 bbbd
00000010: e757 083e b645 0cbe e838 b5be a174 a2be
00000020: 9d4b f43e 7366 a63d 6cdd e2be 34c5 9bbe
00000030: 5a75 85be c32d 9dbd b50e f8bd e8d6 6d3e
00000040: 79a6 18bf ba72 7a3e 060d f93d a98f 12bd
00000050: 4095 283d 2764 2abc de99 d4be a6d8 023f
00000060: 42dd 04be 2fa7 1c3e 5a07 263f 7f9c f63e
00000070: 9f9f ae3e 0453 f9bd 9db9 0f3e 1b12 083f
00000080: 3a21 e03e ecd6 8c3e fa5c 1dbd 6250 dc3e
00000090: d971 45be ee95 e1be 6d3c 75bd f950 d93e
000000a0: e027 eabe ae18 09bf f20b ea3d 7d6a 163f
000000b0: d078 b83e 1362 6d3e 14db b63e 8b97 d03e
000000c0: 431b 163f 839c 25bd aa61 af3e 3447 443e
000000d0: a71f bcbd 9aa0 1ebe bbf4 5cbe 4c77 c0be
000000e0: 5229 8bbe 0a84 83be af38 fb3e 8ef5 013f
000000f0: c509 72bd dc1c 05be 9b54 f63e 2062 b3be
00000100: 1dcb 3e3d 8f96 d2bd 5db8 033f a7da 76bd
00000110: 2979 03bf b9ce 2a3e bb56 dd3d 29bf ff3e
00000120: f5a2 3f3e 6cb3 2e3f 13e5 f53d 39d4 26bf
00000130: cd17 04bf 0b50 67be a7ca 51bf 9f4e 41bf
00000140: 97d8 00be a1b3 31be 8faf b6bd 925d 453d
00000150: 4cda f43e f9b4 1d3e fcb8 f03c 0043 1a3f
00000160: 2096 bf3e dab7 d53e d1be 4cbe e62c c6be
00000170: 8cd2 9abe 3c8f c23e c40e 143f 2b3c 373e
00000180: d574 ea3e fa51 0e3e fe1c e43e 7768 213e
00000190: 524b 2bbe e7b2 49be d297 e2be 6ddb a53e
000001a0: 5cd1 f63e 33d1 d1bd 5f50 073f 4a0b 35be
000001b0: 82b9 1abe b9f7 c5bd fb79 47be 1c9e 8b3c
000001c0: 1d81 d2be aa56 113e f2c2 eb3e 10a7 5c3e
000001d0: 4c42 4dbe 41be 193f bbd3 3bbe bc65 543e
000001e0: 7bb6 24be fe66 35be a81b 92be 69dc bb3d
000001f0: 3b99 0c3f 9f0f 3bbe 1ac5 013f a06d df3e
00000200: c835 bd3e 2339 21be 39d1 a33e c279 1b3d
00000210: 99e3 ae3d b7bc ebbe bf47 64bd 378e e7be
00000220: 6b2c a43e 5971 0e3f cdda 8fbe 3395 d3bd
00000230: 3e71 8f3d e4fe be3e aaa4 a23e b4a5 a23e
00000240: 7fb3 be3d 571c a03d fe78 643e 3328 293e
00000250: 0c34 87bc 4326 c5be fd39 b13e 3f47 153f
00000260: ed1c 7abd b71f 74be ef4f 08bf 17e2 3fbd
00000270: b9b0 0b3f 85d4 e83e 8718 163d 35c8 18bf
00000280: 7e83 a73e 45e7 e23d 239e da3e 9345 a2be
00000290: 8ca1 07bf 4d15 403e 8de1 ed3e 8689 b33e
000002a0: aa4f e03d 6002 a53d 31fd bb3e 742b 843e
000002b0: 341c 84bd a05c 8cbe c002 8bbe 8fea e8bc
000002c0: 8457 ee3e 1ab0 82be 294c 48be a486 99bd
000002d0: 0277 9b3e e72c 37bd 90f0 9b3e 1420 75bd
000002e0: bf13 4a3e 3924 b4be aba5 edbe 8922 8ebd
000002f0: b9d6 b93e 6b4b 053f 6194 b23e 008d ea3e
00000300: 025b d03d 79e1 993e f620 7c3e 0280 2dbe
00000310: efbd a2be 6e4a b83e 2a21 be3d d078 8c3e
00000320: e080 12bf 3671 e8be e0e8 db3e 35fc d6bd
00000330: 59af 4f3e ec22 213f ede8 5f3d b20f dfbe
00000340: f801 a33d 0a9b 96be 5452 0c3e 6523 253e
00000350: 204f 123f 4efd bdbe 594f debe 675e debd
00000360: 2b08 a03d a5b9 0dbf 1783 f53e ae94 bbbd
00000370: 58d5 99bd e1c8 2cbd 4e71 53bf 3c98 48bf
00000380: 9899 9abd f779 da3d b4d5 a13e 44d5 1f3f
00000390: b3e6 4b3e 750d 4a3e 1dd1 953e 9273 09be
000003a0: 4c29 c3be 6949 b33a 0752 8d3e f329 82be
000003b0: ff80 adbe 9cd2 06be aeb0 ea3e ff05 2a3e
000003c0: d464 e1be 6510 c9bd 12de 1a3e 666a f63e
000003d0: c33f ef3c f808 e73c ac82 90be 3f70 b0be
000003e0: 29e9 653d 995c f83e eb58 56be b2ea 3f3d
000003f0: f29c 04bf 753d a33e 7d14 5f3e f75e 833d
-0.04409606 0.6439462 0.239462 -0.09177663 0.13314782 -0.13698468 -0.3539498 -0.31729606
0.47713938 0.081250094 -0.44309556 -0.30423892 -0.26066095 -0.07674744 -0.1211218 0.23226511
-0.5962902 0.24457827 0.12160687 -0.035781536 0.04115796 -0.010399855 -0.4152364 0.5111183
-0.12975028 0.1529815 0.6485497 0.48166272 0.34106156 -0.12174037 0.1403565 0.53152627
0.4377535 0.27507722 -0.038418747 0.43030077 -0.1928171 -0.440597 -0.05987208 0.4244459
-0.45733547 -0.53553283 0.1142806 0.5875624 0.36029673 0.23181944 0.35714018 0.40740618
0.5863535 -0.040432464 0.342542 0.19167787 -0.09185725 -0.15490952 -0.21577732 -0.37591016
-0.27179962 -0.25686675 0.49066684 0.5076531 -0.05909135 -0.1299929 0.48111424 -0.350358
0.046580423 -0.10282623 0.5145319 -0.060267117 -0.5135675 0.16680421 0.10807558 0.4995053
0.18714507 0.68242526 0.12006583 -0.65167576 -0.5159882 -0.22589128 -0.8194985 -0.7551059
-0.12582622 -0.17353679 -0.08920204 0.04818494 0.47822797 0.15401067 0.029385082 0.60258484
0.37419224 0.4174183 -0.19994666 -0.3870613 -0.3023876 0.37999904 0.5783503 0.17894046
0.4579226 0.13898459 0.4455337 0.15762506 -0.16727951 -0.19697152 -0.44256455 0.3239397
0.48206604 -0.1024498 0.5285701 -0.17680088 -0.15109828 -0.0966639 -0.19480126 0.017043166
-0.4111413 0.14193216 0.4604717 0.21548104 -0.20044822 0.6005593 -0.18342488 0.20741934
-0.16085236 -0.1771507 -0.28536725 0.09172899 0.5492131 -0.18267678 0.5069138 0.43638325
0.36955094 -0.15744452 0.31995562 0.037957914 0.085395046 -0.46042415 -0.055732485 -0.4522569
0.32065138 0.55641705 -0.2809662 -0.10331192 0.07004021 0.3730384 0.31766254 0.31767046
0.0931158 0.078179054 0.2231178 0.16519241 -0.01650431 -0.38505754 0.34614554 0.5831184
-0.061062742 -0.23840223 -0.5324697 -0.046846475 0.5456653 0.4547464 0.036644485 -0.5968049
0.32717508 0.110792674 0.42698774 -0.31693706 -0.52980876 0.18758126 0.46461144 0.3506586
0.10952695 0.080570936 0.36716607 0.25814402 -0.06450692 -0.27414417 -0.27150536 -0.028432159
0.46551144 -0.2552498 -0.19560303 -0.07496384 0.30364233 -0.044720557 0.30456972 -0.059845045
0.19734095 -0.35183886 -0.46415457 -0.06940181 0.36296633 0.52068204 0.3487883 0.458107
0.10173608 0.30054834 0.24621949 -0.16943362 -0.31785533 0.35994285 0.09283669 0.27435923
-0.572279 -0.45398873 0.42951107 -0.104973234 0.20281734 0.6294391 0.054665495 -0.43566662
0.0795936 -0.2941516 0.1370328 0.16126783 0.57151985 -0.3710732 -0.43419912 -0.108578496
0.07814058 -0.55361396 0.47951576 -0.09159218 -0.07511395 -0.04218376 -0.82594764 -0.7835729
-0.07548827 0.10667794 0.31608355 0.6243479 0.19912224 0.19731696 0.29261103 -0.13422993
-0.38117445 0.0013678494 0.27601644 -0.2542263 -0.3388748 -0.13166279 0.4583792 0.1660385
-0.44022238 -0.0981758 0.15123776 0.4812805 0.029205209 0.028202519 -0.28224695 -0.34460637
0.056130562 0.48508146 -0.20932357 0.046854682 -0.5180198 0.31882825 0.2178516 0.064145975

encoder.0.1.dw_conv.0.bias f4 [161]
00000000: 8cc4 7abf f548 003f 443b 92be fb26 223d
00000010: b2b6 51bc 4753 18be df1c 60bf 3d03 73bd
00000020: 8a54 2abe 4157 b23d 830e 87be bf1a 45be
00000030: 04e6 733c b995 0a39 0d51 163e ea31 193f
00000040: 0704 ebbe 27a9 b33d eb91 81be f28c 98be
00000050: 41f3 f6bd 57a3 81bd a23f b03d 3837 073e
00000060: d1d6 78be 18e4 babe 4d97 613e 02a1 8cbd
00000070: d776 abbd 4654 7dbe fe0e f4be 1eb4 24bd
00000080: e831 3abe 9162 2a3e d032 0ebe 2f41 d4bd
00000090: e4df 8fbc e969 64be e542 a63d d6e1 1b3e
000000a0: d04c 9c3e e768 1cbe ae20 c5bd 7e2d e8bd
000000b0: 299f 793e d7f0 a5bd fa44 f13e 7d00 6abd
000000c0: b484 b2bd 0892 85be 6200 4c3d 67c6 b6be
000000d0: 5f7e 31be f9d9 043f 815e c83e abf0 8f3d
000000e0: b316 6fbc f049 2cbe 6dcb 083f b21b 4dbe
000000f0: 94fd 7c3e dc2b 4639 b451 623e c6f6 18bf
00000100: 19b0 f2bd c0d0 abba 6613 0b39 cadf 8f3d
00000110: f54f af3e 44f5 02be a821 c23e 1c5b 5dbe
00000120: 28f3 a2be 50f1 493d 1b4e 0939 89db 623e
00000130: 0a24 72be 3bf0 0e3f 3748 7e3e dee9 703e
00000140: 3dbe df3e e5bb 4b3e 5941 5fba 0a2d c0bd
00000150: cff2 abbb a8e2 2fba 72f0 b13e 151d 8e3e
00000160: c52b 3bba a3ff df38 02ef 65bd 030c fd3d
00000170: 8e19 8739 d2f8 b93e 032e e4be 79bd be3e
00000180: 701a 95ba 7bbd 383e 7c85 5dbd d157 93be
00000190: 7a8e 8c3e acda 44be c115 e4bd bccd 9abe
000001a0: 332b 1f3e dd21 bf3e d449 99be 46f3 0dbd
000001b0: 69fe a53e 8eb2 cf3e 8cec d5bd 26c8 f6b6
000001c0: 82d7 f03e 1082 9a3d 6a8c 8539 1a92 3abe
000001d0: 9e5d bbbe 3a97 83bb 3d4c 0f3f 79e6 103e
000001e0: 2055 cf3d f384 403c f304 8fbb 2b4d 053b
000001f0: 861e 523e 4606 3dbc f92d a13e 6baf 5d3e
00000200: c705 fcbd 8e3d 37be 5a2f b0be 976c 9f3c
00000210: 8fa6 bbbe f2df dc3e 9d7a be3e 81ef f0bd
00000220: bda1 ce3e 20f7 93be 94d7 96be 4ade 173e
00000230: e78e 7c3d dca5 e33d 895b cc38 fc77 683e
00000240: e740 6bb9 d783 c0be 178b b639 d517 173f
00000250: d880 a8be 8fd8 40be 0da3 86bc 2172 da3d
00000260: 6f00 ccb9 dc6a 993e 8f2b a7bd 0cf1 dab8
00000270: 6ef9 85bd 8fd3 ea3e d301 063a 6516 123a
00000280: b873 4dba
-0.97956157 0.50111324 -0.2856084 0.039587956 -0.012799906 -0.14875518 -0.87544054 -0.05932926
-0.16633812 0.087080486 -0.2637826 -0.19248484 0.014886383 0.00013216482 0.14679356 0.5984179
-0.4590151 0.087724976 -0.2530664 -0.29795033 -0.12058116 -0.06329983 0.08605887 0.13204658
-0.24300696 -0.36502147 0.22030373 -0.06866647 -0.08372276 -0.24739179 -0.47667688 -0.040210836
-0.181831 0.16639163 -0.13886571 -0.10363995 -0.017562814 -0.22306027 0.08118228 0.15222868
0.30527353 -0.15274392 -0.09625374 -0.11336802 0.24377121 -0.08102577 0.47122937 -0.057129372
-0.08716717 -0.26087976 0.049805053 -0.35698244 -0.17333363 0.518951 0.391346 0.07028326
-0.014592814 -0.1682508 0.53435403 -0.20030096 0.24706107 0.0001889909 0.2210148 -0.59751546
-0.11849994 -0.0013108477 0.000132633 0.07025106 0.3424069 -0.12788874 0.37916303 -0.21616787
-0.31826138 0.0493024 0.00013094435 0.22154059 -0.2364656 0.5583531 0.24832235 0.23526713
0.43699828 0.19895895 -0.00085165125 -0.093835905 -0.005247451 -0.00067094946 0.34753758 0.27756563
-0.0007140006 0.00010681085 -0.05613614 0.12355807 0.00025768246 0.36322647 -0.44566354 0.3725393
-0.0011375677 0.18041031 -0.05408238 -0.28777936 0.2745245 -0.19224042 -0.11136962 -0.30235088
0.15543823 0.37330523 -0.2993914 -0.03465583 0.32420662 0.40565914 -0.10445508 -7.3546717e-06
0.4703942 0.07544339 0.00025472353 -0.18219796 -0.36594862 -0.0040158303 0.55975705 0.14150418
0.10123658 0.011750448 -0.0043646037 0.0020340185 0.20519456 -0.01153714 0.31480387 0.21648948
-0.123057894 -0.17894575 -0.34411126 0.01946096 -0.36650512 0.43139607 0.37202922 -0.11764432
0.40357772 -0.2889948 -0.29461348 0.1483089 0.06165972 0.111156195 9.744528e-05 0.2270202
-0.00022435524 -0.37600586 0.00034817375 0.5902074 -0.329108 -0.1883261 -0.01643517 0.106662996
-0.00038910235 0.2996434 -0.08162605 -0.000104399485 -0.065417156 0.4586453 0.0005111966 0.0005572795
-0.0007837373

encoder.0.1.pw_conv.0.weight f4 [161, 161, 1]
00000000: 7b49 863d 7ca6 e13d 426f 843d 4c48 0bbe
00000010: 7509 913d 088d 663d c9c2 273d c216 273d
00000020: d274 c03c e677 c13d 0da7 fa3c f3d3 df3d
00000030: ab13 69bd 8b36 f8bc dc97 fc3c 0f1d e8bd
00000040: 41c0 93bd 19d5 8abd 20f2 5cbb d35b 58bd
00000050: 2faf 843c 117f eabb 885a f2bc 3ecb 6fbc
00000060: 7524 523d 514a 353d 3ee8 9dbd f227 1dbc
00000070: adde d53c 0739 67bd 4de4 8bbd f2a0 84bc
00000080: ae16 a8bd 7adf 18bd 5abb a3bd bb05 b43c
00000090: 01d3 c83c c844 3dbd 0ab4 17be d267 3e3c
000000a0: d40b 1dbe 6092 543c 3992 1d3c aa73 24be
000000b0: 1076 bebd b487 00be 3b32 8a3d e4ad 6dbd
000000c0: d4ef d9bd ff8c 5f3d 94e4 693d f587 3b3d
000000d0: 7d03 e7bd 06da 023d 5da0 a6bd b263 82bd
000000e0: 3bae 20bd 14f5 8fbd 07bc d13d 39c3 113d
000000f0: 5adf 65bd 5b1e 28bd 8ef0 9ebd 4e56 da3b
00000100: 74af aebb 743b 01be 3703 56bd 9112 d93a
00000110: 5668 91bd 7bda c83c 8056 d63d 2d35 a73d
00000120: 83e7 87bd ca93 303d 6aed 1a3d a1e0 fbbc
00000130: e749 78be 9eef 09bd e698 02bd 6381 0fbb
00000140: 9f91 22bd ba03 99bd 1061 4cbe f2c2 5e3c
00000150: 3ba8 9bbd b95f 1d3d 8df5 f43d 2985 dc3c
00000160: bb0f e23c fd4a 4d3d d7db 193d 53aa 86bb
00000170: 1946 a93d c1d9 573d 2aa7 a53d 3194 28bc
00000180: 0855 9cbd 4fc4 d33c e041 c33c 92a3 06bd
00000190: 7451 713d 4c06 143d 9d2e eabd 7178 993c
000001a0: 4025 f8bb 5e79 563d 0cbe adbd 1d32 7a3d
000001b0: 7c77 ceba f5f0 be3c a75f cebd aba0 3c3d
000001c0: 2bad 983d fbf8 843b 0922 913d 94ee b13d
000001d0: 8026 39bd 31fc 653d 1b86 24bb 4fac 883c
000001e0: 28f5 35bd ffd2 4b3d 018b 6a3d 2e9d 40bb
000001f0: 6279 b3bd 576c df3d 5601 aebd a2d1 0a3e
00000200: 12d7 dcbd 70fa b93d a859 dc3d bcc5 babd
00000210: 3b10 69bc b489 513d 4e6c 363a 6152 b8bc
00000220: f3b7 66bd 2d9c 6c3d 2874 9a3c 6d80 97be
00000230: e121 9e3d 68cb 9c3d 8de7 04bb 61a7 8a3d
00000240: 0102 fb3c a3d4 863b 8cf4 8b3a 32ff bcbd
00000250: 1e07 68be 1b0e 1c3d 9eb0 66bd d3f5 db3c
00000260: 2465 c33d f670 cbbd cdf6 fcbd 0d66 603d
00000270: 924b 87bd 6db5 94bd 6788 633d ad5a 663d
00000280: b964 683d c1d0 303d d43c 483f 5d60 0e3d
00000290: 72f4 863e 00e3 103b 0fa1 0bbd 192b 0cbd
000002a0: 4e08 6e3d 36f5 01be 48da bebc 0cf0 d6bd
000002b0: 9a60 3b3c d7b9 bfbd 4e52 3d3d 4f7a 0c3c
000002c0: 1f2c 46bc 3c52 0e3e 3215 533c d7a1 b53d
000002d0: efde 9c3c 2331 843d e6b3 56bd cd5f 073d
000002e0: d45e e4bc 687f 2e3d 769c d3bc 3c1d 22bd
000002f0: 4db2 52bd 1512 6ebd 054e 773b 6b8f 803d
00000300: 5a5c 243d 796f 233c c639 9bbc 3f1b 92bd
00000310: 4e21 afbd 61c8 f03d 790e 8e3b fd56 51bc
00000320: 67e6 8cba 027d abbd 8bb1 1a3e 6b6f 913a
00000330: 3c43 1bbd 7f67 123d 69a5 71bd 67e9 923d
00000340: 56f1 663d 2070 5ebd b7d8 753d ab2d 5b3b
00000350: 5d6b e13c 0851 f8bc 5485 efbc d632 1abd
00000360: c8c6 e5bc d707 0d3c 0591 8ebc 46b5 02be
00000370: 0582 7abc 984c 81bd 7e77 783d 32b8 a73c
00000380: 0e75 2b3d 71c8 c93d ed15 f9ba c3aa 67bb
00000390: ba11 77bd ebc3 183c 7b0f fb3c cbda 86bd
000003a0: e21d d3bd c816 b83c 98c0 9fbd 1c36 b0bd
000003b0: b372 073d 69f3 4ebd 20e1 3fbd 0ee2 b8bc
000003c0: 6218 82bb 2311 49bd f3d2 88bd beb3 623d
000003d0: e1f8 803c c777 ca3d a673 62bd 4f8d 35bd
000003e0: a631 c7bd 8dba 8b3c de44 9dbc 807e 9c3c
000003f0: 0a53 e7bb 4c41 11bd 7b09 fa3c 67e6 3cbc
0.06556984 0.110180825 0.06466533 -0.13601798 0.07081882 0.05628684 0.040957246 0.040793188
0.023493204 0.09446697 0.030597234 0.10929098 -0.056903522 -0.030299446 0.030834131 -0.113336675
-0.07214404 -0.067789264 -0.0033713654 -0.052821945 0.016196815 -0.007156261 -0.029584184 -0.014635859
0.0513043 0.044260327 -0.07710312 -0.009592043 0.026107157 -0.05645087 -0.06830654 -0.016190026
-0.08207451 -0.0373225 -0.07994719 0.021975389 0.024514677 -0.046208173 -0.14814773 0.011621432
-0.15336543 0.012974352 0.009617382 -0.16059747 -0.092998624 -0.12551767 0.06747862 -0.058027163
-0.10641447 0.054577824 0.057102755 0.045783956 -0.11279962 0.031946205 -0.081360556 -0.063666716
-0.03922866 -0.07029167 0.102409415 0.03558657 -0.056121208 -0.041044574 -0.07760726 0.0066631204
-0.0053309742 -0.12620336 -0.05224916 0.0016561319 -0.070999786 0.024518242 0.10465717 0.08164439
-0.06635954 0.043109693 0.037824072 -0.03074676 -0.24246942 -0.033675782 -0.031884097 -0.002189719
-0.039689656 -0.07471414 -0.19958901 0.013596283 -0.07600447 0.038421366 0.119608976 0.026918964
0.027595391 0.050120343 0.03756317 -0.0041096597 0.08265323 0.0526979 0.08088525 -0.010289238
-0.07633406 0.025850443 0.023835123 -0.032870837 0.05891557 0.036138818 -0.11434672 0.018734189
-0.0075728 0.05236184 -0.08483514 0.061082948 -0.0015752162 0.023308257 -0.10076838 0.046051662
0.07454904 0.004058001 0.0708657 0.08688083 -0.045202732 0.05614871 -0.0025104347 0.016683726
-0.044423252 0.04976177 0.05726147 -0.0029390561 -0.08763386 0.10909336 -0.084963486 0.13556531
-0.10783209 0.0908097 0.10759288 -0.09119746 -0.014225061 0.051156715 0.00069588877 -0.022500219
-0.05632777 0.05776613 0.018854216 -0.2959017 0.07721306 0.07655984 -0.0020279617 0.06770206
0.030640604 0.0041147037 0.0010677739 -0.09228362 -0.22658965 0.03809939 -0.05632078 0.026850617
0.095407754 -0.09933655 -0.12351761 0.054784823 -0.06606211 -0.07261167 0.055550005 0.05623882
0.05673668 0.043167833 0.78217816 0.034759868 0.26358372 0.0022107959 -0.034089144 -0.03422079
0.05811339 -0.12691197 -0.023297444 -0.10495004 0.011436606 -0.09361618 0.04622107 0.0085740825
-0.01209548 0.13898557 0.012883471 0.08868759 0.019149272 0.064546846 -0.05241766 0.033050347
-0.027877249 0.042601973 -0.025831442 -0.03957866 -0.051439572 -0.058122713 0.0037735712 0.06277355
0.040127136 0.009975308 -0.018948447 -0.07134103 -0.08551274 0.11756969 0.0043352214 -0.012777087
-0.0010749818 -0.08373453 0.1510679 0.0011095827 -0.037905917 0.035743233 -0.058995638 0.07173424
0.0563825 -0.05430615 0.06002113 0.0033443968 0.027517015 -0.030312076 -0.02923838 -0.037646137
-0.028048888 0.008607826 -0.017403135 -0.12764463 -0.015289788 -0.06313437 0.06066083 0.020473573
0.04185968 0.09852684 -0.0019003727 -0.0035349585 -0.06031964 0.009324054 0.03064703 -0.065847
-0.10308434 0.0224718 -0.07800406 -0.086040705 0.03306837 -0.050525103 -0.046845555 -0.022568729
-0.003970192 -0.04908861 -0.0668086 0.055347197 0.015743675 0.09886127 -0.055286072 -0.044324216
-0.097262666 0.017056728 -0.019197877 0.019103289 -0.0070594596 -0.035462663 0.030522099 -0.011529542

encoder.0.1.pw_conv.0.bias f4 [161]
00000000: 7cf2 a5bd b497 fcbd 6d40 f0bd 9842 aa3c
00000010: e340 3ebe b8ca 0dbe 79a8 0cbd 5879 09be
00000020: 46ee a4bd d2fb 8fbd cec8 adbc 3936 a13c
00000030: ea0f 06be a31c c8bc 10d6 23bd d9ea 133c
00000040: 31d6 843d 8448 4cbd 85fe 5dbc 7971 3e3d
00000050: 7406 433d 99f2 ab3c 88be b9bb c3b3 c6bc
00000060: 3b58 cbbb d971 e3bb 32cc a93a f5e6 c33c
00000070: f0a7 33bd 5470 22be b8e8 6fbc 2442 723d
00000080: f9b0 f4bc bf2a c8bd 97d2 2d3d a9ce 53bd
00000090: 103b f23c ac4c 913d c9c9 9ebb 8384 95bd
000000a0: 1c97 3abd 25dc 24bd 8bb8 7d3c a56f 0fbe
000000b0: 98b2 343d 9d8a 4bba c90b 663d 9021 0cbd
000000c0: 1b54 e33b 8705 f3bd 051b 973d 9990 593d
000000d0: 3334 48bd f19d 31bd 50fa 2f3d 5769 25bd
000000e0: 391d 133d 00fa 14be 824e b0bd 3bcb 153d
000000f0: 5429 91bd df8c 0b3d d173 02bd 9ac1 133e
00000100: 9bc0 313d bb3e 313e d049 03bd 88ab eb3c
00000110: 1653 4f3b 3feb 16bd 6058 163c 751f 793d
00000120: 4291 993c 40ce 413c 13ce 09bb effe 7dbd
00000130: 7968 be3d cc64 9abc a3d6 5bbd 0ffa 07be
00000140: af67 393c 135a 983c 3961 57bd 336c e7bc
00000150: a4db 833d e965 003e 6cbe 9bbd 2dcc 653b
00000160: fd1b 823d a7df 40bd 33ca 80bd d80c 94bd
00000170: ab8d 9e3d 8bbc 573c 8c3d 81bd 6de9 053e
00000180: b4aa 6c3e 9c0d 6cbd 1ccf 3dbd 850a d2bd
00000190: 247b 303e 327d 96bd 1715 8a3d 55e5 94bc
000001a0: 89e6 0d3d 6292 85bb 45d8 393d 059b 1ebd
000001b0: 7bb2 59bd 194f e13d 32ae 083e faff 39be
000001c0: 5d12 263d 4b18 d43d 6e69 2cbe db9f 103e
000001d0: e144 e1bd 713d 7b3d ed12 83bd 8036 673d
000001e0: 7f76 513d 2aa7 c5bc 80a3 f63d fbbd 473d
000001f0: b7c8 aa3d a934 573e f205 c93b c392 2fbd
00000200: 7caa 16bd c5a3 9d3d e56d 973d c9c9 ae3d
00000210: 17ac ac3d 4113 0d3e 11af d23a b9d8 b8bc
00000220: fcf0 933c 5a8f 5f3d 023f ff3c b20e c5bc
00000230: c1d7 adbd 53b3 f43d 3316 38bd dd2d 14bd
00000240: 4a8d 0dbc 41cc 073e a07a 2cbb b097 45be
00000250: 92c4 e5bc bd59 adbd 196c 1f3d c4ca 08be
00000260: 0886 c43d a424 543b 14ca 123e 99ae aabd
00000270: e692 d4bc 5755 fe3d adfc ea3c bda8 16bd
00000280: 881f c63a
-0.08102891 -0.123336226 -0.11731038 0.020783707 -0.1857944 -0.13846862 -0.034340356 -0.13425195
-0.080532596 -0.07030453 -0.021213915 0.019679176 -0.13092008 -0.024427718 -0.039999068 0.00902816
0.06486166 -0.049873844 -0.013549452 0.046494935 0.047613576 0.020989703 -0.005668465 -0.024255639
-0.0062055863 -0.006941062 0.0012954532 0.02391384 -0.04386133 -0.15863162 -0.014642887 0.059145108
-0.029869543 -0.09773778 0.042437162 -0.05171076 0.029569179 0.07094702 -0.004845832 -0.07300665
-0.045554265 -0.04024901 0.015485893 -0.14007433 0.044115633 -0.00077644904 0.056163583 -0.034211695
0.0069375164 -0.11866289 0.073782004 0.053116415 -0.048877906 -0.043363515 0.042963326 -0.040383663
0.03591654 -0.14548492 -0.08608724 0.03657077 -0.07087961 0.034069892 -0.031848732 0.14429322
0.043396574 0.17309086 -0.032052815 0.028768316 0.0031635216 -0.036845442 0.009176344 0.060821015
0.018746022 0.011828959 -0.002102737 -0.0620107 0.0929727 -0.018846892 -0.05367149 -0.13278984
0.011316224 0.018597638 -0.052582953 -0.028249836 0.064383775 0.12538876 -0.076046795 0.0035064325
0.063529946 -0.04708829 -0.062885664 -0.07229012 0.07741865 0.013167511 -0.06310567 0.13077326
0.23111993 -0.057630166 -0.046340093 -0.10255913 0.17234474 -0.07348098 0.06742304 -0.01817576
0.034643684 -0.004076288 0.045372266 -0.038722057 -0.053148728 0.11001415 0.133477 -0.18164054
0.040544856 0.10356196 -0.16837093 0.1412348 -0.10999466 0.061337892 -0.06400094 0.05644846
0.051138397 -0.024127562 0.12042904 0.048765164 0.083390646 0.21016182 0.006134742 -0.042864572
-0.03678368 0.07697252 0.073940076 0.08534581 0.08431261 0.13776876 0.0016073902 -0.022564279
0.018059246 0.05458007 0.031157974 -0.024054859 -0.084884174 0.11948266 -0.044943046 -0.03617655
-0.008639643 0.1326151 -0.0026318207 -0.19296145 -0.028047834 -0.08464382 0.03892145 -0.13358599
0.09595877 0.0032370472 0.14334899 -0.08334083 -0.025948953 0.12418621 0.028684938 -0.036782015
0.0015115598

encoder.0.2.dw_conv.0.weight f4 [161, 1, 5]
00000000: 3e61 17be e221 a13e e992 ae3e de5f acbd
00000010: 9c47 adbe 53eb 08be 98c7 9cbe d675 083f
00000020: 8a96 50be 3fdf f8bd 9322 0dbf b75a 3dbf
00000030: 81ca 0bbe 00d1 5ebe ff95 91be b517 f23e
00000040: 619c 103e 79bf 85be 9f66 80be 4221 0cbe
00000050: 877c cfbd 0fef d23e 19fa cd3d be25 213e
00000060: fca8 9a3e 2665 733d 9715 3a3e 7350 09bf
00000070: 02b4 c63e f46e 84bd f70a babe b712 bfbe
00000080: 7754 0cbf 421d 25bf 3618 26bf 9dad fbbe
00000090: 53cb 25bf 06b9 86be 1b1c 37be 929b c93e
000000a0: 979f c7be 263a 21bf 4a08 07be a605 1ebf
000000b0: 0414 61be 5d44 d3be 7f76 95be 4098 3e3e
000000c0: 53bb d93e 358b a93d 9655 c1be 394f e23e
000000d0: 7aa3 68be 6895 293f 8c54 353e c446 eabc
000000e0: 03e7 e13e d7f4 fa3e 4305 113e 87ef a5bd
000000f0: 8bf8 49be 4aab 81be b48c 18be 9a50 acbe
00000100: 7256 85be ac75 9d3d 2fe9 403e 7461 313e
00000110: 3cf9 213f 9b1f 113d 6d6a 9ebe a379 53bd
00000120: a1b6 653e 7d88 dfbc 4e5d e2be fcad 8dbe
00000130: 52ed 07bf 4bba 35bf caf8 bebe 51c4 d1be
00000140: 2738 a5be 4d7b afbe fc2b c0be 21a3 ddbe
00000150: 029d 20bf 2d00 ae3d 48fc 7e3e e8de 883e
00000160: 2d26 0d3f 7684 2d3e d0e1 b43e 90f0 b63e
00000170: 2006 61bc aaf8 fcbe e33a 42be 032e ab3d
00000180: 7245 e43e 28d0 b6bc be3a 9c3e c40a 903e
00000190: c9bf 2b3e d459 cf3e dbce 163e c3a5 913e
000001a0: b2c6 3c3e d6c2 d9be 8174 9cbe 31f6 82be
000001b0: 8341 43bd c751 94bc e758 27be acdf dd3c
000001c0: e7a1 763d 19c6 b83e d311 5bbe f451 da3d
000001d0: c90d 753e ed1f a13e 0c16 83bd 9c49 ab3d
000001e0: 2f4b 893c 6b44 d33e 9fca 893e c2b3 a73e
000001f0: 02b7 8a3e bd7a abbd daa8 8ebe 8cc9 95bc
00000200: 964e 9ebe c00e 82be 2d61 363e 9de5 373e
00000210: 2333 2cbe 81ed 3bbe 5fb0 8dbd 87c0 733e
00000220: 6d4c d33e 3944 ba3e cd9f 003f 3004 a8bd
00000230: 86ba 0fbe 0914 96be 17dd 0abe 8442 abbe
00000240: ed50 babe e564 d43d d941 573e 297e d3be
00000250: 77d5 d23e cf3b 053e dca0 c2bc 086b 9d3d
00000260: 6271 293e 1ce9 e73e 66ae a03e 1fbd 2dbe
00000270: d102 353e 983c 1fbf 5986 34be 2798 f23e
00000280: 3a54 3bbe 8e60 823e 8c8d 8c3e d145 203e
00000290: 5c87 ee3d 906d 56bc bcda 563e c2a3 443e
000002a0: e701 a23e b51a 80bb 6b16 b8bd 2798 52be
000002b0: 1ad8 823e a826 0cbe 353d 483e 720a 66be
000002c0: 7275 72be c9cb bebe c4f7 0dbf 7c84 8abe
000002d0: 0647 6c3e 3d5b 9e3d e940 afbe b055 cc3e
000002e0: a9ee 823e 080a 05be b6e8 c2bd 27d1 6bbe
000002f0: a702 69be 2206 b5be 2bbf 36bf 605f 5b3d
00000300: e4e7 bf3e 1fa9 c7be 68a6 a3be 058c bfbd
00000310: ee85 c9bd 176f 43be 3f22 433e cd9b 633e
00000320: 6bce f3bd 2b74 06bf 99cf 63be 99a3 f03d
00000330: 6b27 033f c3d6 743e f050 2d3d f9ae 8c3e
00000340: b596 ed3e f91a af3d 2d80 afbe 3058 01bf
00000350: 0477 3e3d 1dea c93e ac25 a13e de8d 0dbe
00000360: 7d24 cdbe 019e 6b3e 9af0 d5bc 1f7b a03e
00000370: 7e65 c5bd 958f 273f e169 26bd ca8b b8be
00000380: 5807 74be a80d 5b3d 9182 d73e 8802 e1be
00000390: f55b bebe adb3 943e 57cb 543e eb2b da3e
000003a0: 7a2e 60bc 5708 ccbe 36bf e6be 013a 883e
000003b0: 29cc 193e e59a 403e 319e e33e 459a 373e
000003c0: 1d7a a63e 8bc9 a03d a4bf 523d edd2 70be
000003d0: 44a2 00bf 5734 863e e0e4 e43e acbf fa3d
000003e0: 73fe 0f3f 5dc6 0f3e 9277 963e 2421 09be
000003f0: 96c1 dcbe 6c88 8fbe e279 d73e b470 e43e
-0.14783189 0.31471163 0.3409646 -0.08416723 -0.33843696 -0.13371019 -0.30621028 0.53304803
-0.20369926 -0.12151956 -0.5513088 -0.73966545 -0.13651468 -0.21759415 -0.2843475 0.47283712
0.14122154 -0.26122645 -0.25078294 -0.13684562 -0.101311736 0.41198012 0.10057468 0.15737054
0.3020705 0.059422635 0.18172298 -0.5363838 0.3880921 -0.06466475 -0.3633649 -0.37318966
-0.54816383 -0.6449777 -0.6488069 -0.49155894 -0.64763373 -0.26313037 -0.17881815 0.39376503
-0.38988945 -0.6297935 -0.13186756 -0.6172737 -0.21980292 -0.41263095 -0.29191968 0.18612766
0.4252573 0.08278505 -0.3776061 0.44201067 -0.22718611 0.662436 0.17708033 -0.028598197
0.4412156 0.49014923 0.14162163 -0.08102327 -0.19723718 -0.25325996 -0.14897424 -0.33655244
-0.26042515 0.0768846 0.18838952 0.17322332 0.63270926 0.035430532 -0.3094057 -0.051629674
0.22432949 -0.027286762 -0.4421181 -0.27671802 -0.530965 -0.70987386 -0.37299186 -0.4097009
-0.32269403 -0.3427376 -0.37533557 -0.4328852 -0.62739575 0.08496127 0.24900925 0.26732564
0.55136377 0.16945061 0.3532853 0.3573041 -0.0137343705 -0.49408466 -0.18967776 0.083583854
0.44584233 -0.022316054 0.30513567 0.28133214 0.16772379 0.4049822 0.14727347 0.2844678
0.18435171 -0.4253146 -0.30557635 -0.25578454 -0.0476699 -0.0181054 -0.16342507 0.027084194
0.060212996 0.36088637 -0.21393518 0.106601626 0.2393104 0.3146967 -0.064006895 0.08363649
0.016759483 0.41263136 0.269124 0.32754332 0.2709275 -0.0837302 -0.278632 -0.018284582
-0.3091933 -0.25401878 0.17810507 0.17958684 -0.16816382 -0.1835232 -0.06918406 0.23803912
0.41269246 0.36380175 0.50243837 -0.08203924 -0.14035997 -0.2931216 -0.13560902 -0.33449185
-0.36389866 0.103708066 0.21021213 -0.4130719 0.41178486 0.13011096 -0.023758344 0.0768643
0.16547158 0.45295036 0.31383055 -0.16966675 0.17676856 -0.62201834 -0.17629375 0.47381708
-0.18293849 0.2546429 0.27451742 0.15651633 0.116469115 -0.013087645 0.20981878 0.19203094
0.31642076 -0.0039094337 -0.08988651 -0.20565854 0.25555497 -0.13686621 0.19554599 -0.22464922
-0.23677614 -0.3726485 -0.55456185 -0.27054203 0.23073968 0.07732246 -0.3422921 0.39909124
0.25572708 -0.12992108 -0.09517042 -0.23029004 -0.22754918 -0.3535624 -0.7138545 0.053557754
0.37481606 -0.38996217 -0.31962895 -0.093528785 -0.09839998 -0.19085346 0.19056033 0.22227402
-0.119046055 -0.5252101 -0.22247161 0.11749954 0.5123202 0.2391005 0.042313516 0.27477244
0.46404043 0.085500665 -0.34277478 -0.5052519 0.04650022 0.39436427 0.31474054 -0.1382365
-0.400669 0.23009492 -0.026115704 0.31343934 -0.09638499 0.65453464 -0.040628318 -0.3604415
-0.23830926 0.05347982 0.42091802 -0.43947244 -0.37179533 0.29043332 0.20780693 0.42611632
-0.013682956 -0.39850113 -0.45067757 0.26606753 0.15019287 0.18809088 0.44456628 0.17929943
0.3251504 0.07850941 0.051452294 -0.23517962 -0.502476 0.26211807 0.44705868 0.1224359
0.56247634 0.14040513 0.293881 -0.13391548 -0.43116444 -0.2803377 0.42085177 0.44617236
