files/model_mini_8k.onnx (onnx, 851638 bytes, 95 tensors)

adaptive_normalization.filter_ f4 [1, 1, 17]
6.691629e-05 0.00043634902 0.002215963 0.008764304 0.026995959 0.06475994 0.12098749 0.17603576
0.19947465 0.17603576 0.12098749 0.06475994 0.026995959 0.008764304 0.002215963 0.00043634902
6.691629e-05
00000000: 6955 8c38 c6c5 e439 b139 113b 2898 0f3c
00000010: a126 dd3c dca0 843d 4ac8 f73d b842 343e
00000020: 1543 4c3e b842 343e 4ac8 f73d dca0 843d
00000030: a126 dd3c 2898 0f3c b139 113b c6c5 e439
00000040: 6955 8c38

encoder.0.0.dw_conv.0.weight f4 [161, 1, 5]
-0.30709162 -0.2845233 -0.45720708 -0.28745106 -0.24207222 0.29606616 0.12526016 0.52098846
0.10566114 0.38639742 -0.20036842 0.30277386 0.44586533 0.23476472 0.4074209 0.07510151
-0.298653 0.29755044 0.25036913 0.2538649 0.14468162 0.3507521 0.19230884 0.47403178
0.14106156 0.015000477 0.55540746 0.22890434 -0.049673583 0.041432362 0.042294562 0.50372034
0.36801124 0.13236175 0.19920139 -0.37815964 0.4140353 -0.47819892 -0.0653241 -0.529219
0.11160046 0.47280937 -0.14803097 -0.45182112 0.10843943 0.06660749 0.03778381 -0.12793984
0.57472634 0.24835512 0.33124402 -0.74532026 -0.5482649 -0.6825735 -0.30719775 0.20705825
0.4067842 0.43725365 -0.31397274 -0.29787982 -0.13735247 0.017552853 0.61631083 -0.15614535
-0.36572498 -0.14652917 -0.121125914 -0.05429284 -0.32430592 -0.18742703 0.10751338 0.035951696
0.519957 0.2654832 0.0028627114 0.21335603 -0.199838 0.06344513 -0.6953804 -0.34786245
-0.45263195 0.5548632 -0.34814575 -0.019153852 -0.37984797 0.08844675 0.019625267 0.5375667
0.25529036 0.21839264 -0.4141325 0.23199815 -0.6212255 -0.5651884 0.33563873 -0.002791261
0.32520893 0.51752716 0.105335206 -0.038159475 0.117309965 -0.06695155 0.02490686 -0.31482518
0.07005745 -0.16807574 0.11182875 0.57514656 -0.025913583 0.004165167 0.5076257 -0.09809979
-0.0129485605 0.2539059 -0.33630386 -0.19849652 -0.43689933 0.06969037 -0.4491986 -0.21698456
0.23033352 0.07774655 0.16777514 0.13342148 0.22753909 -0.0921525 0.3930136 0.520609
-0.3695731 -0.2439874 0.5272232 0.22036907 -0.39311752 -0.08725601 0.065634854 0.031295564
0.047560852 0.47919685 0.1532083 0.036296476 -0.046015356 0.13092275 0.39972845 0.32947677
0.07721762 -0.33169338 -0.58536035 -0.25511682 -0.42535076 0.08917393 0.30576468 0.13608286
0.038798988 0.046260703 0.2733087 0.0166436 0.061105616 -0.20577618 0.5217248 -0.35570908
-0.16469412 -0.15071781 0.20583108 0.4107295 0.27015224 0.12156105 0.17055134 0.28879598
0.19641532 0.12241731 -0.1918555 -0.40071887 -0.376537 -0.4535482 -0.3114627 0.39002544
0.2784109 -0.6407366 -0.43215176 -0.10416377 0.45169994 0.4296369 -0.38411728 -0.25114313
-0.23338974 -0.02726518 0.33661556 0.42314032 -0.42187092 -0.17688613 0.14672005 -0.3140287
-0.4604677 -0.09678741 -0.18520407 0.13991812 -0.09343593 0.5609727 -0.100691535 0.13536982
-0.37068343 -0.109739915 -0.5844208 0.26902145 -0.23587784 0.299125 -0.37766808 -0.5691031
-0.3278286 -0.14340065 -0.15027188 0.2999232 0.14998733 0.11983578 -0.16175519 0.26337355
0.020857375 0.4016908 0.35413042 0.12837425 0.2390664 -0.41217238 -0.12918341 -0.15442804
0.51516134 0.23838995 0.04249004 -0.63875544 -0.23095235 -0.3716699 -0.0003066249 0.06281741
0.65357184 0.14263642 0.010802494 0.16442254 0.08773819 0.25621483 0.08507629 -0.0062100687
-0.31251982 -0.32480484 0.74992234 0.026680265 0.16221705 -0.31373534 -0.11501545 0.37122855
-0.36097664 -0.42861575 0.1709206 0.019852793 0.24715553 0.14987147 0.13302062 -0.020510266
00000000: 1d3b 9dbe 0aad 91be 0c17 eabe c92c 93be
00000010: c8e1 77be fc95 973e 3344 003e 805f 053f
00000020: de64 d83d e2d5 c53e 612d 4dbe 2d05 9b3e
00000030: 7648 e43e 2a66 703e 7999 d03e d2ce 993d
00000040: 0ce9 98be 8858 983e 6230 803e 95fa 813e
00000050: 6b27 143e c795 b33e 9cec 443e 4bb4 f23e
00000060: 7172 103e 90c4 753c 2f2f 0e3f e665 6a3e
00000070: 8776 4bbd fbb4 293d 103d 2d3d d1f3 003f
00000080: f86b bc3e d789 073e 73fb 4b3e 249e c1be
00000090: 6ffc d33e 7dd6 f4be a4c8 85bd e57a 07bf
000000a0: c88e e43d 1214 f23e 6e95 17be 1955 e7be
000000b0: 7e15 de3d 8269 883d 32c3 1a3d a902 03be
000000c0: 4421 133f ce50 7e3e d198 a93e 4fcd 3ebf
000000d0: 175b 0cbf 23bd 2ebf 0649 9dbe 1407 543e
000000e0: 0546 d03e b6df df3e 09c1 a0be b483 98be
000000f0: 20a6 0cbe 00cb 8f3c 8cc6 1d3f 91e4 1fbe
00000100: 4e40 bbbe be0b 16be dd10 f8bd 2b62 5ebd
00000110: 6d0b a6be dfec 3fbe fa2f dc3d 1642 133d
00000120: e71b 053f 6aed 873e 549c 3b3b 017a 5a3e
00000130: 55a2 4cbe 85ef 813d 7304 32bf 071b b2be
00000140: 60bf e7be 840b 0e3f 2940 b2be 8ae8 9cbc
00000150: 6f7b c2be 9223 b53d 2bc5 a03c f99d 093f
00000160: 6bb5 823e 52a2 5f3e 2d09 d4be ec90 6d3e
00000170: a208 1fbf 30b0 10bf d7d8 ab3e 97ed 36bb
00000180: c981 a63e a97c 043f fcb9 d73d 1c4d 1cbd
00000190: 3540 f03d e51d 89bd 7909 cc3c c430 a1be
000001a0: 487a 8f3d 0c1c 2cbe 7906 e53d ce3c 133f
000001b0: b948 d4bc f47b 883b c2f3 013f 8be8 c8bd
000001c0: 3326 54bc f4ff 813e 0530 acbe ac42 4bbe
000001d0: 45b1 dfbe d3b9 8e3d 5cfd e5be 3331 5ebe
000001e0: 8ddc 6b3e 9539 9f3d 3fcd 2b3e a49f 083e
000001f0: 0200 693e 73ba bcbd 1439 c93e a246 053f
00000200: af38 bdbe d5d7 79be 1af8 063f 6ea8 613e
00000210: b346 c9be 47b3 b2bd 916b 863d c72f 003d
00000220: 2bcf 423d 4a59 f53e a3e2 1c3e 9dab 143d
00000230: 997a 3cbd 9d10 063e 35a9 cc3e 2eb1 a83e
00000240: 4624 9e3d b7d3 a9be 2dda 15bf ac9e 82be
00000250: 93c7 d9be d2a0 b63d 308d 9c3e 4e59 0b3e
00000260: b0eb 1e3d dd7b 3d3d 1eef 8b3e 2958 883c
00000270: e249 7a3d feb6 52be c28f 053f 801f b6be
00000280: 93a5 28be c555 1abe 62c5 523e 234b d23e
00000290: 6551 8a3e 00f5 f83d 03a5 2e3e 11dd 933e
000002a0: 1921 493e edb5 fa3d c575 44be 062b cdbe
000002b0: 75c9 c0be 7837 e8be 0a78 9fbe 6ab1 c73e
000002c0: e08b 8e3e 5007 24bf ff42 ddbe d153 d5bd
000002d0: 3745 e73e 5ef9 db3e 05ab c4be d595 80be
000002e0: b8fd 6ebe 3a5b dfbc e058 ac3e d9a5 d83e
000002f0: 77ff d7be a321 35be c83d 163e 5fc8 a0be
00000300: 6cc2 ebbe 7a38 c6bd 23a6 3dbe b246 0f3e
00000310: 565b bfbd e89b 0f3f 5d37 cebd 639e 0a3e
00000320: 38ca bdbe 52bf e0bd 9a9c 15bf 2ebd 893e
00000330: f689 71be e926 993e b65d c1be beb0 11bf
00000340: 26d9 a7be 9fd7 12be dfe0 19be 898f 993e
00000350: 4796 193e 766c f53d 27a3 25be e6d8 863e
00000360: 16dd aa3c 6baa cd3e 9550 b53e 8a74 033e
00000370: d3cd 743e 4208 d3be a848 04be 6222 1ebe
00000380: 9de1 033f 7f1c 743e 090a 2e3d 7a85 23bf
00000390: c67e 6cbe 844b bebe 7fc2 a0b9 6aa6 803d
000003a0: 7c50 273f 480f 123e f2fc 303c 625e 283e
000003b0: 15b0 b33d 972e 833e 7a3c ae3d d57d cbbb
000003c0: 9902 a0be d24c a6be e9fa 3f3f 9290 da3c
000003d0: 3a1c 263e eba1 a0be 388d ebbd ab11 be3e
000003e0: eed1 b8be 8673 dbbe cf05 2f3e 53a2 a23c
000003f0: 5716 7d3e e877 193e 8f36 083e 2505 a8bc

encoder.0.0.dw_conv.0.bias f4 [161]
-3.498441e-05 0.4199523 -0.27119666 0.40211022 0.06069474 -0.388009 -0.3389485 4.790988e-06
0.15442863 -0.10542517 -1.6573598e-05 -0.7817147 0.23680684 0.70903975 0.38569105 -0.000358498
-0.00010716879 -0.6927213 -7.960197e-05 -0.92364544 0.5199344 -0.0029711162 -0.4990044 -0.0003642308
-0.055623595 -0.72901785 -0.007644552 -0.44900647 -0.3551704 5.562585e-05 -0.17672904 0.00015573432
0.00010750211 -0.31666002 -8.513641e-05 -7.729224e-05 -0.29107678 -0.44337317 0.4313442 0.01710267
3.5726876e-05 -1.3279004e-05 0.23460716 -0.3740429 -0.00013856583 7.996598e-06 0.5924153 0.29450354
-0.2757293 -0.01717254 0.072890796 0.40040165 0.4407302 0.45633128 0.57855284 0.5707486
-0.36845416 0.37433848 0.00010173483 0.6027814 0.4257371 0.19141047 0.4171104 0.33561707
0.08779511 -0.023391396 -0.19886725 -0.32132825 0.19186486 0.00025891786 -0.26972753 -0.0002741152
0.5105964 0.23324178 0.32708925 0.11046465 -0.25709516 0.27617693 8.940385e-05 0.44227535
0.22431476 0.56212515 0.439502 -0.07816784 0.020731127 0.033378642 0.45820007 0.6245616
0.5254669 -0.31074157 0.41605148 0.1937004 0.023213057 0.001894528 0.5265902 9.33151e-05
-0.08993158 -0.136238 0.010200611 0.08082544 0.52658355 0.5352447 0.14714886 0.083831236
-0.09684682 -0.20370524 0.25035992 0.5386537 0.48650032 0.5163378 0.0053554806 -0.52527165
-0.22092335 -0.25754082 0.31912595 0.23423505 0.43395832 -0.4275421 -0.3935248 0.29603055
0.3856299 0.31660044 0.50538486 0.63710594 0.5776618 0.38989258 0.720881 -0.26411897
-0.019964563 0.30939016 0.40350598 0.36103702 0.4432756 -0.57564604 -0.00013556067 0.3866763
-0.047000587 0.52593404 -0.0005304594 -0.49813128 0.38785058 0.53906333 -0.035368208 0.0007737494
0.8503099 0.607828 -0.1519944 -0.71318614 0.66452265 -0.53100526 0.47402206 0.21666498
-0.45360327 -0.39220625 -0.26355848 -9.224037e-05 0.32569802 -0.00011516453 0.6520548 0.00085830287
-0.23829804
00000000: 39bc 12b8 fd03 d73e 4ada 8abe 64e1 cd3e
00000010: 0c9b 783d 1ea9 c6be a88a adbe 46c2 a036
00000020: 8a22 1e3e 27e9 d7bd 8807 8bb7 741e 48bf
00000030: 7e7d 723e a183 353f 4c79 c53e c9f4 bbb9
00000040: cebf e0b8 2f56 31bf fbef a6b8 0774 6cbf
00000050: 6c1a 053f 0fb7 42bb 817d ffbe 3bf6 beb9
00000060: 91d5 63bd eaa0 3abf 267f fabb 2de4 e5be
00000070: e5d8 b5be cd4f 6938 75f8 34be 9d4c 2339
00000080: c172 e138 4321 a2be 438b b2b8 f517 a2b8
00000090: 0408 95be cf01 e3be 26d9 dc3e e61a 8c3c
000000a0: 71d9 1538 e3c8 5eb7 dc3c 703e 8d82 bfbe
000000b0: fb4b 11b9 2029 0637 87a8 173f 2bc9 963e
000000c0: 642c 8dbe 6dad 8cbc c547 953d 7201 cd3e
000000d0: 64a7 e13e 41a4 e93e 0a1c 143f 951c 123f
000000e0: 06a6 bcbe 4ba9 bf3e 795a d538 e24f 1a3f
000000f0: 37fa d93e 1b01 443e 7f8f d53e 00d6 ab3e
00000100: eccd b33d 509f bfbc dba3 4bbe 2385 a4be
00000110: 3978 443e 5ebf 8739 ba19 8abe 1fb7 8fb9
00000120: 72b6 023f efd6 6e3e 3e78 a73e 4a3b e23d
00000130: faa1 83be 1067 8d3e 547e bb38 ea71 e23e
00000140: c5b2 653e 6fe7 0f3f 6806 e13e 7616 a0bd
00000150: 53d4 a93c 0bb8 083d 3399 ea3e 45e3 1f3f
00000160: 0085 063f 8519 9fbe b304 d53e 6659 463e
00000170: 4f29 be3c d051 f83a 9ece 063f 2ab2 c338
00000180: 0c2e b8bd f981 0bbe 7720 273c cf87 a53d
00000190: 2ece 063f cc05 093f 31ae 163e b6af ab3d
000001a0: a057 c6bd 1b98 50be 2d2f 803e 35e5 093f
000001b0: 9216 f93e b72e 043f 077d af3b 3478 06bf
000001c0: bb39 62be 64dc 83be 7a64 a33e 50db 6f3e
000001d0: c92f de3e cce6 dabe 157c c9be 5191 973e
000001e0: 4871 c53e 7419 a23e e760 013f 6019 233f
000001f0: a5e1 133f 00a0 c73e a88b 383f 9a3a 87be
00000200: b98c a3bc 6368 9e3e 5698 ce3e d8d9 b83e
00000210: 05f5 e23e 8a5d 13bf 4a25 0eb9 70fa c53e
00000220: b083 40bd 9da3 063f 870e 0bba 100b ffbe
00000230: 5a94 c63e 0e00 0a3f 41de 10bd 71d5 4a3a
00000240: e9ad 593f 9e9a 1b3f 6ca4 1bbe 5e93 36bf
00000250: 281e 2a3f f6ef 07bf 05b3 f23e 6ddd 5d3e
00000260: b03e e8be 42cf c8be 23f1 86be 2c71 c1b8
00000270: e4c1 a63e 7c84 f1b8 10ed 263f bbff 603a
00000280: 6704 74be

encoder.0.0.pw_conv.0.weight f4 [161, 161, 1]
0.018848179 -0.2045191 -0.111537404 -0.16878054 -0.12268929 -0.11332252 -0.085626185 0.06520051
-0.003691629 -0.068062045 0.05934539 -0.031536486 -0.024298856 0.023283256 0.0021309669 0.061474595
-0.007856091 -0.011744141 0.0071743247 -0.01813874 0.04866086 -0.06462339 -0.004826801 0.020956263
-0.0066454257 -0.038341977 0.00716966 -0.025148645 -0.014779416 0.045141518 -0.010016474 0.09505496
0.023691501 -0.03535167 0.023210093 0.01644519 -0.013460995 0.012791329 0.021192903 0.0007623779
0.008676546 0.019158699 0.061584618 -0.023734095 0.044519953 0.0011109469 -0.0064681666 0.030943142
-0.020165483 0.0075192484 0.006601519 0.025276091 0.027572356 -0.00029958467 0.014769242 -0.012663602
-0.009110547 0.008972432 0.008642522 0.03527177 0.020558234 0.010451334 0.009327985 -0.0010393788
-0.012771254 -0.031943846 0.03295542 0.04177196 -7.924886e-05 -0.02388429 -0.0070331325 -0.018264968
0.0019369278 0.015514828 -0.00046156766 -0.0011326969 -0.011247169 0.0053381356 0.00239846 -0.0107492125
-0.0572691 0.029895483 -0.004202038 0.016235294 0.01091291 -0.006995516 0.028989086 0.014592161
0.06825359 0.0729754 0.008484183 -0.009283312 0.036599293 -0.02363039 0.021617645 0.020015435
-0.020955095 -0.0022978934 -0.011295652 0.026530754 0.014660739 0.007978523 0.046527866 0.03618671
0.006697801 0.016827641 0.010991131 -0.014635098 -0.0007207344 0.0058477707 0.013475836 0.047373287
0.010220195 0.015951896 0.035331056 -0.045407917 -0.019770112 0.011242248 0.02074501 0.05271619
-0.004159382 0.02714252 0.050872233 0.034131892 -0.00094162754 0.008842762 0.0027408074 -0.026586216
0.0071341423 0.008131105 0.030616362 0.033733863 0.004100016 0.003825159 -0.0055617965 -0.014419917
-0.011977001 0.065834686 -0.09106193 0.020744637 0.061177436 -0.08918134 0.007050133 0.013918029
-0.0033701344 0.054187812 0.029168619 0.03682953 0.058313247 -0.004843627 0.08804859 0.09700803
0.013383911 -0.05446779 0.0055412804 0.07903865 -0.070338264 0.11385318 -0.087642685 0.016711634
-0.035520077 -0.09124704 0.07984367 0.08266557 -0.13789067 -0.038828813 -0.050762862 0.12081829
-0.17614108 0.2164285 -0.06435396 -0.10239066 0.34238482 0.35670492 0.11317644 0.14317273
0.08456411 -0.124372125 0.15669471 0.036847793 0.19957167 0.16001147 0.10043588 0.011613012
0.0061179628 0.0013249933 0.1700413 0.03162184 0.053961538 -0.04627471 0.061979134 0.031185117
0.037089013 0.043104958 0.10872153 0.0005405047 0.10353762 0.09524867 0.14672494 0.07911727
0.13990535 0.05642233 0.047405746 -0.054149635 -0.022009047 0.07876904 0.061104763 0.0932277
0.09965927 0.12583025 1.1882727e-05 -0.027819965 -0.050271742 0.031255387 0.022563495 0.023635538
0.014663567 0.08594798 0.0048391535 0.044311464 0.12573817 0.12062291 0.0032583298 0.018321186
0.035925493 0.03007496 -0.03277734 0.014439085 0.21309674 0.04494942 0.03097496 0.057769854
-0.022849677 0.053877562 -0.021365933 0.11715943 -0.022560697 -0.062675394 -0.026060032 0.010378817
0.03926953 -0.03908341 -0.07391549 0.08343115 -0.03972407 0.08736749 -0.033882704 0.078503445
0.017830295 0.0587577 -0.05784382 -0.09037972 -0.04515227 -0.010614535 -0.033253644 0.00486808
00000000: 7f67 9a3c 746d 51be b96d e4bd ced4 2cbe
00000010: 8644 fbbd a315 e8bd c85c afbd d887 853d
00000020: 42ef 71bb 1d64 8bbd 2714 733d 672c 01bd
00000030: 650e c7bc 87bc be3c b1a7 0b3b c9cc 7b3d
00000040: d5b6 00bc 7f6a 40bc 9916 eb3b b297 94bc
00000050: 9c50 473d 4559 84bd 242a 9ebb 78ac ab3c
00000060: dfc1 d9bb 7a0c 1dbd 78ef ea3b 8804 cebc
00000070: 5d25 72bc 50e6 383d 231c 24bc 2dac c23d
00000080: ae14 c23c eacc 10bd 1823 be3c 10b8 863c
00000090: 818b 5cbc b992 513c bd9c ad3c 51da 473a
000000a0: 1228 0e3c b4f2 9c3c 2740 7c3d 016e c2bc
000000b0: 8e5a 363d 319d 913a eaf2 d3bb 797c fd3c
000000c0: 1532 a5bc 0764 f63b 8e51 d83b ce0f cf3c
000000d0: 6cdf e13c 9311 9db9 b1fa 713c ff7a 4fbc
000000e0: 6744 15bc 1c01 133c 5d99 0d3c 2279 103d
000000f0: be69 a83c 123c 2b3c 68d4 183c c43b 88ba
00000100: 863e 51bc 8dd7 02bd 43fc 063d 1319 2b3d
00000110: 6832 a6b8 fda8 c3bc 3176 e6bb 6aa0 95bc
00000120: 83e0 fd3a e831 7e3c 90fe f1b9 0077 94ba
00000130: 0c46 38bc 87eb ae3b 7b2f 1d3b 771d 30bc
00000140: 0193 6abd 5fe7 f43c 40b1 89bb e1ff 843c
00000150: 10cc 323c a43a e5bb 857a ed3c f613 6f3c
00000160: 8ac8 8b3d 2074 953d 3e01 0b3c 0819 18bc
00000170: 24e9 153d 8594 c1bc 7d17 b13c 69f7 a33c
00000180: 05aa abbc 4198 16bb 6611 39bc 0657 d93c
00000190: 9933 703c 5ab8 023c 0194 3e3d 8438 143d
000001a0: 3a79 db3b 1fda 893c 2514 343c 0dc8 6fbc
000001b0: abef 3cba a89e bf3b c1c9 5c3c 7e0a 423d
000001c0: 9b72 273c 8dad 823c 4cb7 103d a7fd 39bd
000001d0: eef4 a1bc 6831 383c 70f1 a93c efec 573d
000001e0: 6d4b 88bb fd59 de3c 675f 503d e2cd 0b3d
000001f0: 8ed7 76ba 3be1 103c 1e9f 333b 56cb d9bc
00000200: 86c5 e93b 5438 053c 2acf fa3c 852c 0a3d
00000210: 6d59 863b 85af 7a3b bb3f b6bb 8441 6cbc
00000220: 2f3b 44bc 56d4 863d ad7e babd a8f0 a93c
00000230: 3195 7a3d b5a4 b6bd cd04 e73b 7208 643c
00000240: 79dd 5cbb 0af4 5d3d 07f3 ee3c 90da 163d
00000250: dfd9 6e3d 4ab7 9ebb d252 b43d 25ac c63d
00000260: 3148 5b3c 9e19 5fbd a193 b53b 04df a13d
00000270: 820d 90bd db2b e93d 027e b3bd d6e6 883c
00000280: 807d 11bd badf babd 1485 a33d 914c a93d
00000290: 3633 0dbe f60a 1fbd b8ec 4fbd 946f f73d
000002a0: 545e 34be 6f9f 5d3e 02cc 83bd 32b2 d1bd
000002b0: 104d af3e 07a2 b63e 0dc9 e73d df9b 123e
000002c0: f32f ad3d d0b6 febd 9474 203e b6ed 163d
000002d0: 845c 4c3e 0cda 233e 54b1 cd3d 8144 3e3c
000002e0: 3179 c83b 66ab ad3a 4e1f 2e3e e785 013d
000002f0: c606 5d3d 8d8a 3dbd d5dd 7d3d ee77 ff3c
00000300: a6ea 173d d38e 303d 65a9 de3d a8b0 0d3a
00000310: 880b d43d bc11 c33d 103f 163e 3c08 a23d
00000320: 5943 0f3e 1a1b 673d 872c 423d 02cc 5dbd
00000330: 514c b4bc aa51 a13d fd48 7a3d 2aee be3d
00000340: 291a cc3d a5d9 003e ed5b 4737 b2e6 e3bc
00000350: bee9 4dbd a605 003d 14d7 b83c 519f c13c
00000360: 753f 703c 7f05 b03d c391 9e3b f07f 353d
00000370: 82c1 003e 2509 f73d b489 553b 5016 963c
00000380: 9c26 133d c35f f63c 8841 06bd e991 6c3c
00000390: 0836 5a3e e21c 383d 33bf fd3c 15a0 6c3d
000003a0: 3f2f bbbc b8ae 5c3d 9c07 afbc 49f1 ef3d
000003b0: 36d1 b8bc f55b 80bd d97b d5bc ea0b 2a3c
000003c0: 16d9 203d ed15 20bd 0161 97bd f3dd aa3d
000003d0: b5b5 22bd baed b23d 97c8 0abd 6ac6 a03d
000003e0: d710 923c eaab 703d a4ed 6cbd 0119 b9bd
000003f0: 96f1 38bd 96e8 2dbc f934 08bd 6a84 9f3b

encoder.0.0.pw_conv.0.bias f4 [161]
0.13134779 0.05301195 -0.18850912 -0.04289718 -0.16482921 -0.04418324 0.0056433384 -0.09789667
-0.065091826 -0.07386495 -0.10425172 0.015915008 0.0071082315 -0.107669614 0.022705097 -0.027067937
-0.24208678 -0.023056373 -0.030292261 -0.19879998 -0.11068519 -0.20658745 -0.038613304 -0.14061156
-0.13531289 -0.13926458 -0.061293393 -0.019182138 -0.08485496 0.014141382 0.0038387403 -0.06356881
-0.016679091 -0.045812175 -0.13755137 0.022230916 -0.089340426 0.058317527 -0.07605598 0.09402438
0.015157713 -0.058553986 -0.01543895 0.05230311 0.07282231 0.0040631294 0.103204995 0.07072891
-0.049503677 -0.07748488 0.07478784 -0.08284797 0.068082094 -0.04317038 -0.065681 -0.076170795
-0.053105064 -0.03476956 -0.14074151 0.07084876 -0.008739115 0.016731493 -0.08248817 -0.021469554
-0.101897 -0.00026043467 -0.038549468 -0.055157606 0.18519938 -0.036236048 0.10231385 0.04053333
0.01675031 0.09137734 0.07214345 0.13498643 0.06689674 -1.993243e-05 0.00055123825 -0.020939592
0.127071 0.026774125 -0.04452048 0.063342 0.04924526 -0.110061266 -0.018464668 0.21915254
-0.015990151 -0.045909368 -0.06620205 -0.019938594 -0.07773736 0.038723208 -0.068236776 -0.06660274
0.07925408 0.025178308 -0.101480745 -0.02067145 0.008761398 0.040523514 -0.05725806 -0.05209997
-0.042114854 0.16189435 -0.14772667 0.005179471 -0.073196486 0.14122781 0.062090468 -0.025158202
0.060128964 -0.007951621 0.07606947 -0.11798979 -0.12833229 0.03055651 -0.088027686 0.008123939
0.013508178 0.10409037 -0.015302465 0.075820245 -0.0021096948 -0.11266145 0.09971745 0.0687884
0.14378509 -0.0856542 0.055708196 0.075556375 0.06518924 -0.07669213 0.09212573 0.088144116
0.18454619 -0.0878034 0.082596004 0.09598976 0.062546365 0.15177347 -0.092184715 -0.024682134
0.058857236 -0.004711479 0.1980137 -0.0128005035 0.23867378 0.083102286 -0.053825572 0.147842
-0.011303873 -0.11825092 -0.025006132 -0.22229698 -0.081468955 -0.26638174 -0.07276155 0.23604101
0.060837507
00000000: 0980 063e 0f23 593d 8908 41be f4b4 2fbd
00000010: fdc8 28be 7cf9 34bd c1eb b83b 0d7e c8bd
00000020: dd4e 85bd 8246 97bd ed81 d5bd 3160 823c
00000030: 2bec e83b e381 dcbd 0a00 ba3c 94bd ddbc
00000040: 99e5 77be b8e0 bcbc 7a27 f8bc 3992 4bbe
00000050: ebae e2bd a98b 53be fc28 1ebd 7afc 0fbe
00000060: 768f 0abe 609b 0ebe c80e 7bbd dc23 9dbc
00000070: 70c8 adbd 41b1 673c 6093 7b3b 5d30 82bd
00000080: 97a2 88bc 8ca5 3bbd 44da 0cbe 9c1d b63c
00000090: 1df8 b6bd 5cde 6e3d 3dc3 9bbd db8f c03d
000000a0: 0e58 783c 4ed6 6fbd a6f3 7cbc c93b 563d
000000b0: dd23 953d 0024 853b 245d d33d 52da 903d
000000c0: 5ec4 4abd 65b0 9ebd 5e2a 993d 32ac a9bd
000000d0: a06e 8b3d 6dd3 30bd c383 86bd 6fff 9bbd
000000e0: b284 59bd 876a 0ebd 8b1e 10be 2819 913d
000000f0: 812e 0fbc 7c10 893c 8fef a8bd ebe0 afbc
00000100: 60af d0bd f38a 88b9 0ce6 1dbd f1ec 61bd
00000110: e8a4 3d3e 406c 14bd ec89 d13d 4706 263d
00000120: f237 893c 0b24 bb3d f2bf 933d e239 0a3e
00000130: 2801 893d 9134 a7b7 f980 103a 8289 abbc
00000140: e61e 023e 6955 db3c 1b5b 36bd 73b9 813d
00000150: 66b5 493d cd67 e1bd 3743 97bc 8669 603e
00000160: c7fd 82bc 760b 3cbd f194 87bd 4356 a3bc
00000170: c434 9fbd 3a9c 1e3d b9bf 8bbd 0467 88bd
00000180: f74f a23d bd42 ce3c 23d5 cfbd 2c57 a9bc
00000190: f78b 0f3c fcfb 253d 6d87 6abd c766 55bd
000001a0: a080 2cbd a2c7 253e a945 17be 8db8 a93b
000001b0: 0ae8 95bd 069e 103e 9352 7e3d 9318 cebc
000001c0: ca49 763d 8447 02bc 4fca 9b3d a2a4 f1bd
000001d0: 8a69 03be a551 fa3c dc47 b4bd 451a 053c
000001e0: 6851 5d3c 552d d53d 31b7 7abc a547 9b3d
000001f0: ce42 0abb 0cbb e6bd aa38 cc3d efe0 8c3d
00000200: 663c 133e 786b afbd 472e 643d 4dbd 9a3d
00000210: f081 853d c310 9dbd 6aac bc3d e784 b43d
00000220: adf9 3c3e 45d2 b3bd 1828 a93d 4796 c43d
00000230: 4f18 803d 816a 1b3e 57cb bcbd 3032 cabc
00000240: 4914 713d c062 9abb 1ac4 4a3e 34b9 51bc
00000250: e666 743e 8831 aa3d 3478 5cbd e563 173e
00000260: e133 39bc 8a2d f2bd a9d9 ccbc d2a1 63be
00000270: 32d9 a6bd 3063 88be 0204 95bd bcb4 713e
00000280: c030 793d

encoder.0.1.dw_conv.0.weight f4 [161, 1, 5]
-0.32997862 0.043454263 -0.30595398 -0.10587915 -0.31282476 -0.02748801 -0.027465273 0.6700642
-0.6776196 -0.3248345 -0.05307388 0.5287603 -0.34535983 -0.14096497 -0.026971951 0.33820403
0.3785368 -0.15413103 -0.3134302 -0.054478094 0.26667044 -0.29944807 -0.4625799 0.05874954
0.61330724 -0.23600248 -0.19819365 -0.16667804 -0.06277356 -0.34321913 0.06997667 -0.08362174
0.3497098 0.38639086 0.39966303 -0.54098046 0.32992435 0.19046709 0.060211755 0.082362816
0.1448973 0.022205034 0.6261851 0.66550547 0.15279862 -1.0417612 -0.96129096 -0.5584155
-0.8854958 -0.96650016 -0.25232536 -0.13029169 0.47874615 -0.08513738 -0.41291213 -0.51261324
-0.53400916 -0.9059007 -0.8290961 -0.8653916 -0.40884355 -0.014793605 -0.39454997 -0.35563812
-0.014748129 0.20774233 0.35848117 0.8424771 0.21121235 0.28896597 -0.7665829 -0.7615573
-1.0330114 -0.6827132 -0.88840324 0.26434776 0.33383098 0.63400656 0.5292401 0.36802697
0.098784395 0.5368183 -0.20957524 -0.27805635 -0.030752048 -0.41423124 -0.6205421 -0.7556843
-0.9361841 -0.7658541 -0.17131908 -0.22587626 -0.07027693 0.56794196 -0.15976527 -0.4810169
0.049610328 0.31091768 0.35020423 -0.07908044 0.33422998 0.14293012 -0.3468985 -0.010668832
-0.09785717 0.0038024283 0.15790915 0.47608584 -0.47804907 -0.20199928 0.018976042 0.111991376
0.5721691 0.5463663 -0.004342927 -0.49664485 0.25783685 -0.2805942 0.32469186 0.26140678
0.061834607 -0.4425657 0.07213137 -0.075205535 0.36659473 -0.2230728 0.47684267 0.7672149
0.10130502 -0.20303933 -0.10167038 -0.44063577 0.49030793 -0.0057011964 0.19323678 0.13329895
0.09515268 -0.23580535 0.5647122 0.2753462 -0.0347643 -0.034556698 -0.24513538 0.37847045
-0.03135111 -0.061480805 0.2017463 0.514111 -0.3663859 0.19054666 0.437244 -0.07926152
0.45702553 0.13545302 0.2586098 -0.19334596 -0.07024773 0.534842 0.47956163 -0.4263567
0.00485699 0.106822215 0.30248946 0.1465876 -0.0070171547 0.46496424 -0.048840508 -0.17929643
-0.1042464 -0.20144027 0.057978418 0.28909698 0.887343 0.45427883 -0.10943325 -0.04351473
0.46695745 -0.08879131 0.010950052 -0.3412539 -0.15722631 -0.49806204 0.09571187 0.52384204
0.15778366 0.041951336 0.086022526 0.68206424 0.46139193 0.021814752 0.27726415 0.535964
-0.022570468 -0.47047836 -0.28797644 -0.059447844 0.18297884 0.5711618 0.17913306 -0.117844656
0.08788641 0.5391683 -0.04850664 -0.40563285 -0.13215262 -0.2661912 -0.06620519 0.5078644
0.5696846 0.25555044 -0.16072609 -0.31155226 0.36406264 0.1963257 0.009693614 0.26250413
-0.026554344 0.47107998 0.20163488 0.14329004 -0.22066283 -0.08935937 -0.6092849 0.113620736
-0.0540247 0.14383793 -0.23493905 -0.52739537 0.16394302 0.42927805 -0.06640792 -0.31308383
0.02836168 0.081280224 0.37607515 0.0061955713 -0.008284849 -0.2620078 -0.22465721 -0.16497116
0.28934273 0.2238344 0.69216275 0.38693938 0.118906796 0.25485757 -0.3809801 0.17884982
-0.40101346 -0.06097186 -0.097891465 0.11610545 0.5988325 0.3695811 0.16423771 -0.11329261
00000000: f5f2 a8be 19fd 313d 00a6 9cbe 2bd7 d8bd
00000010: 912a a0be 892e e1bc dafe e0bc 5489 2b3f
00000020: 7a78 2dbf b550 a6be ff63 59bd d65c 073f
00000030: 01d3 b0be 1f59 10be 48f4 dcbc 1429 ad3e
00000040: 93cf c13e 86d4 1dbe ec79 a0be 6c24 5fbd
00000050: 0789 883e 4251 99be 46d7 ecbe 5ca3 703d
00000060: b401 1d3f a2aa 71be 47f3 4abe a6ad 2abe
00000070: 6d8f 80bd 6bba afbe ee4f 8f3d e041 abbd
00000080: 2a0d b33e 06d5 c53e a2a0 cc3e b27d 0abf
00000090: d8eb a83e ce09 433e 9aa0 763d d6ad a83d
000000a0: f55f 143e 55e7 b53c ab4d 203f 915e 2a3f
000000b0: 3e77 1c3e 6e58 85bf 2a17 76bf 51f4 0ebf
000000c0: daaf 62bf 8e6c 77bf ca30 81be 2f6b 05be
000000d0: 371e f53e 825c aebd 3869 d3be 9f3a 03bf
000000e0: d3b4 08bf 1ce9 67bf a43f 54bf 4e8a 5dbf
000000f0: f153 d1be e060 72bc 7402 cabe 3316 b6be
00000100: 23a2 71bc 68ba 543e d88a b73e 94ac 573f
00000110: 0d48 583e 59f3 933e c73e 44bf 6bf5 42bf
00000120: b839 84bf 4bc6 2ebf 656e 63bf 9758 873e
00000130: e5eb aa3e 414e 223f 477c 073f 086e bc3e
00000140: 794f ca3d ed6c 093f e49a 56be 675d 8ebe
00000150: b8eb fbbc 1e16 d4be d9db 1ebf 8774 41bf
00000160: c3a9 6fbf 040f 44bf 456e 2fbe 1b4c 67be
00000170: 5aed 8fbd a564 113f 8299 23be d947 f6be
00000180: 3334 4b3d 9a30 9f3e f84d b33e edf4 a1bd
00000190: 3120 ab3e 465c 123e ae9c b1be 53cc 2ebc
000001a0: 5769 c8bd 2932 793b f0b2 213e 86c1 f33e
000001b0: d9c2 f4be e6d8 4ebe a573 9b3c bc5b e53d
000001c0: ad79 123f a9de 0b3f 1d4f 8ebb 3c48 febe
000001d0: 3103 843e 0baa 8fbe 033e a63e 1cd7 853e
000001e0: 4946 7d3d f997 e2be 9db9 933d 5c05 9abd
000001f0: 4eb2 bb3e 326d 64be b924 f43e 3268 443f
00000200: 0279 cf3d 8be9 4fbe 8f38 d0bd 039b e1be
00000210: a409 fb3e 1ad1 babb dddf 453e 857f 083e
00000220: 69df c23d f576 71be fb90 103f 2dfa 8c3e
00000230: 0365 0ebd 538b 0dbd c504 7bbe e1c6 c13e
00000240: 066a 00bd 4cd3 7bbd 9596 4e3e c79c 033f
00000250: ef96 bbbe aa1e 433e 72de df3e dd53 a2bd
00000260: 40ff e93e 32b4 0a3e 8168 843e 7cfc 45be
00000270: 0bde 8fbd 68eb 083f 1a89 f53e 6d4b dabe
00000280: 6327 9f3b 9bc5 da3d e6df 9a3e 0f1b 163e
00000290: 29f0 e5bb cb0f ee3e fc0c 48bd 7c99 37be
000002a0: 237f d5bd 5c46 4ebe c77a 6d3d 8504 943e
000002b0: e928 633f 3c97 e83e 8a1e e0bd 803c 32bd
000002c0: 0c15 ef3e 38d8 b5bd d967 333c d5b8 aebe
000002d0: efff 20be fd01 ffbe 9604 c43d 831a 063f
000002e0: 0a92 213e 2ad5 2b3d 942c b03d c39b 2e3f
000002f0: 903b ec3e dab4 b23c 91f5 8d3e f034 093f
00000300: b4e5 b8bc 8ae2 f0be a671 93be 957f 73bd
00000310: ce5e 3b3e a937 123f a86e 373e 8a58 f1bd
00000320: cafd b33d ef06 0a3f e6ae 46bd 1caf cfbe
00000330: 0453 07be 374a 88be 9696 87bd 6703 023f
00000340: dad6 113f 82d7 823e 6195 24be c783 9fbe
00000350: 6b66 ba3e 9b09 493e f7d1 1e3c f166 863e
00000360: 7f88 d9bc 6531 f13e 6079 4e3e a0ba 123e
00000370: 70f5 61be 0c02 b7bd 18fa 1bbf fdb1 e83d
00000380: 0149 5dbd 404a 133e dd93 70be 6203 07bf
00000390: aee0 273e 55ca db3e e000 88bd 864c a0be
000003a0: c156 e83c 3f76 a63d ec8c c03e 3804 cb3b
000003b0: 2dbd 07bc e325 86be 8a0c 66be 33ee 28be
000003c0: bb24 943e d834 653e 9431 313f eb1c c63e
000003d0: 6885 f33d b17c 823e d30f c3be 6824 373e
000003e0: a351 cdbe a1bd 79bd 527b c8bd b2c8 ed3d
000003f0: 164d 193f bc39 bd3e ee2d 283e f505 e8bd

encoder.0.1.dw_conv.0.bias f4 [161]
0.50147444 0.18026137 0.08642747 -0.1760698 5.351877e-06 -0.4158223 -0.00063104305 -0.26331016
-0.22024468 0.66112906 -0.042292677 0.58779037 -0.30314758 -0.06406408 0.6616229 -0.10986193
-0.26851362 0.37662902 0.14315581 -0.094661415 -0.26386404 -0.025951287 0.074307464 -0.09551173
0.06939345 0.015211201 -9.9174234e-05 -0.01625772 -0.14429232 -0.019634865 -0.053976443 0.027855575
-0.12092006 -0.21711622 -0.1500187 -0.20735213 -0.00015130415 0.31509113 -0.43276787 0.08948096
-0.32019615 -0.31288752 -0.0883778 0.12119341 0.50067 -0.00013504986 -0.15498707 0.4386647
-0.36263293 0.21786797 0.298797 -0.031051613 -0.039761685 0.0005090904 -0.20840085 0.3659192
0.004876938 0.38887307 -0.31407797 0.1775452 0.3992464 0.2453835 0.6372759 -0.1318942
0.2015147 0.41438368 -0.24329753 0.42599633 0.032627 -0.2586472 -0.00014418521 -0.08939515
0.45753977 -0.0010909026 0.09400743 0.51577276 -0.19007447 -0.08160704 -0.00018058017 0.04983576
-0.06366277 0.00096586224 0.15508729 0.001482652 -0.0005035877 -0.27758303 -0.23323497 0.11322307
0.45496446 -0.25137243 0.43464914 0.07806598 -0.11144406 0.25126332 -0.53068495 -0.097011514
-0.05450851 -9.80942e-05 0.34205827 -0.00011868084 0.0096204225 0.028980229 -0.33667997 0.00999043
0.26761463 0.40830907 0.21119478 -0.48715475 -0.000106820204 0.021399034 -0.26611748 0.174768
-0.13413791 -0.26110706 0.00062399847 -0.00024481636 -0.104119465 -3.9171853e-05 0.00043308633 0.22329845
-0.071158424 -0.009593364 -0.19859298 -0.05411996 -0.00087918394 0.0003082839 0.0021991383 0.18822452
0.09979364 -0.0067460407 0.38255388 0.49720958 -0.0025542667 0.2151496 0.40415353 0.21852578
0.09202685 -0.51490575 -0.20167221 0.19039276 -0.088972226 0.053921044 0.10356447 0.13885161
-0.0025277804 0.1229638 0.18966262 -0.005279081 0.097452946 0.056129254 -0.09817109 -0.00018433313
-0.41642618 0.053273126 -0.0015988443 0.57144505 -0.043803975 -0.4407968 0.3158123 -0.06833897
0.152727
00000000: a160 003f 7096 383e e300 b13d a44b 34be
00000010: 4694 b336 a9e6 d4be 956c 25ba 97d0 86be
00000020: d287 61be c13f 293f 163b 2dbd 6e79 163f
00000030: 2936 9bbe 0734 83bd 1e60 293f 4bff e0bd
00000040: 9e7a 89be 85d5 c03e 7097 123e d8dd c1bd
00000050: 3019 87be cb97 d4bc 832e 983d a79b c3bd
00000060: 271e 8e3d 6738 793c c3fb cfb8 e92e 85bc
00000070: 5ec1 13be 4cd9 a0bc 6716 5dbd 6031 e43c
00000080: f0a4 f7bd b753 5ebe 819e 19be 1e54 54be
00000090: 66a7 1eb9 a053 a13e c093 ddbe cb41 b73d
000000a0: c0f0 a3be cb32 a0be 6cff b4bd 4034 f83d
000000b0: e92b 003f 2c9c 0db9 eeb4 1ebe a998 e03e
000000c0: 06ab b9be c818 5f3e ecfb 983e f45f febc
000000d0: 26dd 22bd 7a74 053a 0867 55be c359 bb3e
000000e0: b9ce 9f3b 5f1a c73e d4ce a0be 69ce 353e
000000f0: 066a cc3e d045 7b3e 8324 233f 460f 07be
00000100: df59 4e3e 192a d43e fd22 79be 311c da3e
00000110: e4a3 053d 686d 84be 6c30 17b9 ce14 b7bd
00000120: a742 ea3e 9efc 8eba f886 c03d af09 043f
00000130: e2a2 42be 9721 a7bd 1f5a 3db9 9520 4c3d
00000140: a061 82bd eb31 7d3a 34cf 1e3e 8c55 c23a
00000150: 3303 04ba 5d1f 8ebe 26d5 6ebe 7fe1 e73d
00000160: 1af1 e83e e3b3 80be 558a de3e 0ee1 9f3d
00000170: c93c e4bd 96a5 803e f8da 07bf f9ad c6bd
00000180: 5144 5fbd ecb7 cdb8 4322 af3e 4ae4 f8b8
00000190: fa9e 1d3c f267 ed3c 5161 acbe e7ae 233c
000001a0: c904 893e e30d d13e 7243 583e 596c f9be
000001b0: a904 e0b8 074d af3c 8d40 88be 62f6 323e
000001c0: 735b 09be d3af 85be d493 233a b25a 80b9
000001d0: 963c d5bd 754c 24b8 dd0f e339 59a8 643e
000001e0: 82bb 91bd 7c2d 1dbc f55b 4bbe e4ac 5dbd
000001f0: 0979 66ba 2aa1 a139 6b1f 103b eebd 403e
00000200: 9c60 cc3d e40d ddbb 1ade c33e 4192 fe3e
00000210: 7c65 27bb 2d50 5c3e 36ed ce3e 39c5 5f3e
00000220: 9378 bc3d ddd0 03bf 2983 4ebe 52f6 423e
00000230: 1237 b6bd 50dc 5c3d 9c19 d43d 1e2f 0e3e
00000240: 1ea9 25bb 72d4 fb3d eb36 423e 24fc acbb
00000250: 6995 c73d cae7 653d ed0d c9bd 8c49 41b9
00000260: d035 d5be ec34 5a3d 5090 d1ba 394a 123f
00000270: cc6b 33bd 1eb0 e1be 26b2 a13e 4df5 8bbd
00000280: 7764 1c3e

encoder.0.1.pw_conv.0.weight f4 [161, 161, 1]
0.32235888 -0.14849311 0.044127773 -0.050142895 0.0974503 0.04370219 -0.017390192 -0.2204438
-0.045043856 -0.086941056 -0.18502787 -0.02192572 0.027606424 -0.05276652 -0.14676261 0.030956216
-0.12560047 0.016767351 -0.1613301 -0.025956227 -0.1195337 0.015819918 0.027548686 -0.11802789
-0.038952734 -0.01350337 -0.190509 -0.0058145993 0.11259609 -0.03474535 0.020443734 -0.17691238
0.12845707 -0.10977927 -0.019619033 0.115948305 -0.070537865 0.019475263 -0.0630918 -0.0054259663
-0.034609005 0.061759394 -0.17073806 0.0038982623 0.040215984 0.015542962 -0.022814019 0.09131865
0.02384943 0.08891938 -0.0328543 -0.09085438 -0.031071752 0.010898093 -0.112172104 0.04114028
-0.047111783 -0.019258477 0.0758651 0.030885225 0.022289526 -0.057146203 -0.048855543 -0.015596814
-0.15450776 0.04013591 0.010179266 -0.062732 -0.026891867 0.054267984 -0.0049859863 -0.06737083
-0.21759781 -0.08608413 -0.04039569 -0.029366707 -0.007924777 0.070794486 -0.04885615 -0.05605057
-0.0055990284 -0.02830098 0.027599301 0.014877863 0.027513405 -0.045089174 0.0043756664 0.049434297
0.034365647 0.026652275 0.06501503 -0.055738106 -0.048100613 0.006698377 -0.22789037 0.0040492234
-0.013766096 0.009836406 -0.08136113 -0.06258604 -0.106128596 -0.071017906 0.12634657 0.07268781
-0.12348613 -0.02025445 -0.10733673 0.01252944 -0.009988518 -0.038010042 -0.0013640225 -0.1992544
0.015558047 -0.07098951 0.10476352 0.07173753 -0.120454766 0.1405488 -0.064209744 0.13131912
0.055921674 0.007398936 -0.011461887 -0.034243792 -0.09123775 -0.019613164 0.05242664 -0.08856577
0.0043942616 -0.09698237 -0.059031576 -0.1712484 -0.07093852 -0.1426909 -0.030885493 0.023082882
0.014160822 -0.035875782 -0.05967881 0.033587232 -0.037855335 0.1793481 0.034582082 0.004247254
-0.10435028 0.017954808 0.05965777 0.00095589133 0.085525006 -0.022343691 -0.19396931 -0.043999802
0.08624802 -0.124239735 0.057160713 0.07560955 0.06316865 -0.026704578 -0.07358055 -0.043476857
-0.06353549 -0.34128225 -0.025601003 0.5011981 0.18169008 0.16304846 0.04472616 0.024629671
0.07729464 -0.062423896 0.19227812 0.04698334 0.29074007 0.0772961 0.022752598 0.36365053
0.0970477 0.0010299153 0.26589867 0.053067826 0.21865052 0.014444628 -0.05246449 -0.05521823
0.087535724 0.0878808 -0.070798084 -0.019488566 -0.04044271 -0.07082366 -0.016923312 0.06943062
-0.07959712 0.008967542 0.053053018 -0.17305753 -0.2771661 -0.00026981902 -0.037303727 -0.27930766
-0.028001053 -0.22756845 -0.028785972 -0.025942812 -0.041718815 -0.00050553953 -0.20005265 0.038975082
0.026617028 0.09997892 0.053544443 -0.04187068 0.01567854 -0.10923888 -0.15299101 0.06833755
-0.040968686 0.09208211 0.1255744 -0.029740237 -0.032616425 -0.03419165 -0.07347538 -0.04475265
-0.106813125 -0.03040077 -0.1483308 0.063178755 0.0050235116 -0.06347152 -0.071152255 -0.0734949
-0.02338856 0.050654728 -0.02725251 -0.037659932 0.11817135 -0.023268849 -0.16536304 0.075085394
0.07313245 0.15587682 -0.0592557 0.10531166 -0.11181002 0.0007778053 0.05340524 -0.055220548
-0.08504146 -0.09972421 0.083962135 0.054660186 -0.04250539 -0.027374638 -0.10711805 -0.0034097242
00000000: 390c a53e 940e 18be 53bf 343d a362 4dbd
00000010: 0694 c73d 1101 333d e075 8ebc 05bc 61be
00000020: e87f 38bd 270e b2bd f277 3dbe 919d b3bc
00000030: de26 e23c b521 58bd f048 16be e497 fd3c
00000040: 699d 00be af5b 893c b833 25be 27a2 d4bc
00000050: 16ce f4bd c698 813c c8ad e13c 9bb8 f1bd
00000060: e78c 1fbd 3d3d 5dbc cb14 43be 6588 bebb
00000070: c798 e63d 2451 0ebd 9e79 a73c 8528 35be
00000080: 408a 033e f4d3 e0bd 18b8 a0bc 4e76 ed3d
00000090: 2876 90bd 968a 9f3c 4636 81bd 4ecc b1bb
000000a0: 2cc2 0dbd 6bf7 7c3d f5d5 2ebe fd79 7f3b
000000b0: 84b9 243d e8a7 7e3c 77e4 babc 4605 bb3d
000000c0: e15f c33c 5d1b b63d 3b92 06bd dc11 babd
000000d0: 308a febc ea8d 323c 7dba e5bd b682 283d
000000e0: 49f8 40bd f4c3 9dbc 295f 9b3d 0303 fd3c
000000f0: 8698 b63c 2312 6abd c01c 48bd c889 7fbc
00000100: 4837 1ebe 8d65 243d f0c6 263c a379 80bd
00000110: 554c dcbc 1b48 5e3d 7c61 a3bb b8f9 89bd
00000120: f6d1 5ebe e04c b0bd f375 25bd 7392 f0bc
00000130: edd6 01bc b3fc 903d 631d 48bd 4895 65bd
00000140: 0e78 b7bb 75d7 e7bc ee17 e23c 48c2 733c
00000150: cb63 e13c 6daf 38bd c061 8f3b 9e7b 4a3d
00000160: fec2 0c3d df55 da3c 9a26 853d a44d 64bd
00000170: 2605 45bd 0f7e db3b 185c 69be 59af 843b
00000180: 318b 61bc e128 213c aaa0 a6bd 1c2d 80bd
00000190: f359 d9bd d671 91bd ff60 013e 59dd 943d
000001a0: 4ce6 fcbd a9ec a5bc 5cd3 dbbd 4848 4d3c
000001b0: e2a6 23bc 6bb0 1bbd 00c9 b2ba 5809 4cbe
000001c0: 2ee7 7e3c f362 91bd 428e d63d 20eb 923d
000001d0: fdb0 f6bd 06ec 0f3e 6680 83bd 8578 063e
000001e0: 200e 653d c672 f23b a3ca 3bbc 3843 0cbd
000001f0: dcda babd c9ab a0bc 51bd 563d f861 b5bd
00000200: bdfd 8f3b b19e c6bd 18cb 71bd be5b 2fbe
00000210: 3748 91bd 901d 12be 9303 fdbc 5018 bd3c
00000220: cb02 683c 7cf2 12bd c571 74bd c492 093d
00000230: 320e 1bbd 07a7 373e f1a5 0d3d 8d2c 8b3b
00000240: 99b5 d5bd f615 933c b55b 743d c894 7a3a
00000250: bc27 af3d 1e0a b7bc e49f 46be 2339 34bd
00000260: cda2 b03d 6771 febd 5a21 6a3d 2ed9 9a3d
00000270: 915e 813d 8fc3 dabc 66b1 96bd ca14 32bd
00000280: e51e 82bd 8cbc aebe 32b9 d1bc 854e 003f
00000290: f70c 3a3e 2df6 263e c732 373d 2ac4 c93c
000002a0: a74c 9e3d 33b0 7fbd 8ee4 443e 9a71 403d
000002b0: e2db 943e 6b4d 9e3d a863 ba3c 6730 ba3e
000002c0: f2c0 c63d 39fe 863a df23 883e a65d 593d
000002d0: ece5 5f3e 29a9 6c3c 01e5 56bd 832c 62bd
000002e0: ee45 b33d d9fa b33d 96fe 90bd 7ca6 9fbc
000002f0: 41a7 25bd ff0b 91bd c2a2 8abc a431 8e3d
00000300: d103 a3bd 99ec 123c 1f4e 593d fe35 31be
00000310: b7e8 8dbe 7f76 8db9 cbcb 18bd 6a01 8fbe
00000320: 7762 e5bc b407 69be 8fd0 ebbc 0586 d4bc
00000330: 59e1 2abd 2f86 04ba 9ada 4cbe 56a4 1f3d
00000340: f40b da3c bfc1 cc3d 6b51 5b3d 9780 2bbd
00000350: 4870 803c a2b8 dfbd ada9 1cbe 8ff4 8b3d
00000360: c8ce 27bd 8c95 bc3d 9396 003e cca1 f3bc
00000370: cd98 05bd 8b0c 0cbd 437a 96bd 8e4e 37bd
00000380: d7c0 dabd 090b f9bc 07e4 17be dd63 813d
00000390: 459c a43b 5bfd 81bd 46b8 91bd 7e84 96bd
000003a0: 5e99 bfbc 557b 4f3d a840 dfbc 4d41 1abd
000003b0: d203 f23d 509e bebc ee54 29be 5fc6 993d
000003c0: 77c6 953d 2c9e 1f3e 1bb6 72bd a4ad d73d
000003d0: a7fc e4bd a1e5 4b3a 74bf 5a3d f12e 62bd
000003e0: 382a aebd 353c ccbd 57f4 ab3d 5ce3 5f3d
000003f0: 221a 2ebd c740 e0bc b560 dbbd ae75 5fbb

encoder.0.1.pw_conv.0.bias f4 [161]
-0.023734255 -0.053209472 -0.056406617 -0.11656847 -0.025299082 -0.038727224 -0.074959636 0.015262619
-0.08452677 -0.06355816 -0.076623805 -0.11908121 -0.094396085 -0.04881609 -0.048478805 -0.0020770072
-0.075520314 -0.107458614 0.041631076 0.0025443516 -0.04738435 -0.08973675 -0.09070369 0.014832513
0.0050974214 -0.05414553 0.06579778 -0.10011018 -0.09912205 -0.09441391 -0.1040134 -0.11481465
0.05365995 0.017696343 -0.027335687 -0.020100689 -0.05202499 -0.0924348 0.022324758 0.032108273
-0.085086726 -0.047516506 0.044499252 0.03769719 0.09984019 0.0446689 0.042367026 0.06546003
0.013713711 0.076872975 -0.0061075343 -0.08351896 -0.0005046715 -0.07055735 -0.022258407 -0.057039205
-0.021501137 -0.031243905 0.004911687 0.026764164 0.009954101 0.003246558 -0.10667169 0.0195559
0.04408737 0.12375873 0.07043206 0.047402225 0.16071495 -0.02332762 0.09880099 -0.09960585
0.07607637 0.0060073026 0.013934008 0.09996615 0.015288582 -0.03190993 0.014932256 0.0018961958
-0.14330773 -0.06310102 -0.1411165 0.019232146 -0.033217546 -0.0078715505 -0.025801416 -0.049709693
-0.023679532 -0.01566202 -0.075671785 -0.025274273 -0.07105894 -0.07080187 -0.04776769 0.06727182
-0.084941134 -0.014935785 -0.13756914 -0.0882741 -0.046338666 -0.060634162 0.025206452 -0.03065185
-0.0540393 -0.1278077 -0.07282983 -0.04782942 0.0107381595 0.0573008 -0.13043007 0.061543074
-0.09756493 0.012910531 0.003741719 -0.06501349 -0.05319751 0.0035439746 0.1020496 0.10353153
0.00017282518 0.024651326 -0.027977621 0.037273042 -0.031748515 -0.04544619 -0.0018734863 0.12355752
-0.0072016567 0.046940178 -0.025901265 -0.11989081 0.0058023934 -0.018128201 -0.07987711 0.088022284
0.12221081 0.15187275 0.024596132 -0.1425268 -0.034391478 0.0960529 0.1109369 0.06928532
-0.030433819 -0.048616357 0.03518211 -0.04856683 0.14648543 0.018047815 -0.107639074 0.09669444
-0.044305656 -0.0019534302 0.09849589 -0.35015985 -0.070021115 -0.05627574 0.022775738 0.047776032
-0.033410314
00000000: 576e c2bc 2df2 59bd a00a 67bd 73bb eebd
00000010: 0540 cfbc 70a0 1ebd 7084 99bd 1010 7a3c
00000020: 5f1c adbd c82a 82bd f1ec 9cbd d9e0 f3bd
00000030: bc52 c1bd 61f3 47bd b691 46bd 661e 08bb
00000040: 65aa 9abd 4313 dcbd 5985 2a3d 23bf 263b
00000050: 1816 42bd e7c7 b7bd dbc2 b9bd 1204 733c
00000060: 4508 a73b b4c7 5dbd fdc0 863d 9106 cdbd
00000070: 8000 cbbd 145c c1bd fa04 d5bd f123 ebbd
00000080: 89ca 5b3d ecf7 903c 17ef dfbc 33aa a4bc
00000090: 2818 55bd 754e bdbd 69e2 b63c f783 033d
000000a0: f341 aebd aba0 42bd d944 363d 5e68 1a3d
000000b0: 0379 cc3d bdf6 363d 0c89 2d3d e90f 863d
000000c0: 79af 603c 946f 9d3d b621 c8bb fd0b abbd
000000d0: ee4b 04ba 5f80 90bd 4357 b6bc f1a1 69bd
000000e0: 2723 b0bc 38f3 ffbc 38f2 a03b 8540 db3c
000000f0: 8716 233c 34c4 543b b076 dabd b233 a03c
00000100: f594 343d 3875 fd3d af3e 903d d628 423d
00000110: 7692 243e 9119 bfbc 2c58 ca3d 27fe cbbd
00000120: eecd 9b3d e8d8 c43b 774b 643c 0ebb cc3d
00000130: f67c 7a3c fdb3 02bd 6ca6 743c c689 f83a
00000140: 43bf 12be 1c3b 81bd d880 10be bc8c 9d3c
00000150: 1f0f 08bd adf7 00bc 7e5d d3bc 649c 4bbd
00000160: 94fb c1bc a34d 80bc cff9 9abd fe0b cfbc
00000170: 5987 91bd 9200 91bd 0ea8 43bd cfc5 893d
00000180: 9ef5 adbd 39b5 74bc edde 0cbe 0dc9 b4bd
00000190: 9dcd 3dbd 875b 78bd c37d ce3c 9719 fbbc
000001a0: 5058 5dbd 06e0 02be ce27 95bd c8e8 43bd
000001b0: 1bef 2f3c 3eb4 6a3d 768f 05be 9714 7c3d
000001c0: 1fd0 c7bd b186 533c a137 753b cb25 85bd
000001d0: a2e5 59bd 0742 683b 61ff d03d 5708 d43d
000001e0: 6838 3539 94f1 c93c 5331 e5bc 9eab 183d
000001f0: bb0a 02bd c925 3abd c58f f5ba ba0b fd3d
00000200: e0fb ebbb 5844 403d e42e d4bc 5089 f5bd
00000210: 0122 be3b 9881 94bc 9c96 a3bd 0745 b43d
00000220: a949 fa3d 8884 1b3e d47d c93c 8cf2 11be
00000230: 14de 0cbd 62b7 c43d e332 e33d 76e5 8d3d
00000240: 5850 f9bc f221 47bd 1e1b 103d 03ee 46bd
00000250: 4700 163e 03d9 933c e071 dcbd bc07 c63d
00000260: d979 35bd 1f05 00bb 37b8 c93d 2748 b3be
00000270: 3b67 8fbd 6481 66bd 2f94 ba3c cdb0 433d
00000280: 41d9 08bd

encoder.0.2.dw_conv.0.weight f4 [161, 1, 5]
0.33989817 0.4591949 -0.28237483 -0.26123726 -0.089852124 -0.07304158 -0.011627869 -0.44207728
0.26100686 0.17196411 0.54628766 -0.15035531 0.19624503 -0.45889828 -0.120750464 -0.4465202
0.47486135 -0.076157816 -0.14191273 0.08249363 -0.24435216 0.24752343 0.120282955 0.5282398
0.14731105 0.1708292 0.27639425 -0.023348853 0.5183042 0.034921676 0.4418096 -0.049289655
0.1580968 -0.015336935 -0.5734133 -0.05580846 0.6070333 0.23420504 0.5346533 -0.26459998
-0.02032354 -0.2524764 -0.301573 0.39894807 0.16968384 -0.57908946 -0.47617367 -0.62197715
-0.4908991 -0.71915966 0.38078824 -0.10592738 -0.5002235 -0.31884015 0.30078727 0.059769712
0.2006096 -0.706625 -0.017157698 0.43483177 0.12594815 0.17546263 0.25192317 0.46305665
0.111560576 -0.20299877 -0.1468996 -0.08162613 0.635572 -0.113398165 -0.5049684 0.21573983
0.41580904 0.2341068 -0.56947094 -0.49538785 -0.7721903 -0.42692512 0.05561218 -0.45371395
0.30114895 0.13152418 -0.09855941 0.57466656 -0.0038842447 -0.07197023 -0.47331637 0.2434754
0.40025404 -0.11507395 -0.045441702 0.04926084 0.074596696 0.40030494 -0.57919365 -0.12833111
0.14695822 -0.23116891 -0.2622802 0.5309714 -0.81048226 -0.09731844 0.3532825 0.38751623
0.14907621 -0.28423357 0.4454341 0.21356875 0.19347194 -0.17743775 0.023699312 -0.19000481
0.24933723 0.3248029 -0.3845357 0.43428826 -0.14582328 -0.47894666 -0.059708964 0.031380173
0.17057718 0.3429942 -0.03191194 -0.39552882 0.098897144 0.44105417 0.061118487 -0.046636365
-0.40403596 -0.19020426 -0.060542427 0.48608533 -0.34727156 -0.0866132 -0.041220065 -0.07885897
0.30248594 0.17762604 0.5219213 -0.20281425 -0.073539734 0.41304424 -0.0028897803 0.014698559
-0.32957587 -0.11443475 -0.45616692 -0.040705908 0.41591805 0.09340513 0.35512584 -0.09503348
-0.24595329 -0.45446983 0.4121097 -0.13713169 -0.2534267 -0.11760532 -0.22745979 -0.073584825
0.07487238 -0.46566197 0.30678397 -0.17587157 0.1365531 0.16771348 0.36493367 -0.5041373
0.21416666 0.15038282 -0.091245726 -0.24458353 -0.34038556 -0.5335247 -0.15104052 -0.16541316
-0.3856849 -0.3612718 -0.01602263 -0.3115648 0.5567287 -0.18617047 -0.20282143 -0.07752509
-0.12044539 -0.059659593 0.08383183 0.3784029 -0.28508088 0.04083611 -0.28711224 0.3031966
0.30242574 0.28924125 -0.48302907 0.034937967 0.023676366 -0.0075730965 -0.026081687 -0.76850265
0.0060828584 -0.3827213 -0.4359717 -0.36220106 -0.039546385 -0.106086224 0.056531664 0.23947969
0.26589885 0.044047046 0.17236264 0.034187295 0.24462324 -0.46125123 -0.48960137 0.09379437
0.32745662 0.13481237 0.39159593 -0.1000677 -0.105431 0.20339431 0.55507475 0.23410489
0.1481144 -0.1736724 -0.020230735 -0.033651523 0.4301472 0.07352786 -0.21947357 0.2637803
0.291779 0.24165553 0.105927 -0.044145375 0.48057544 0.08751858 -0.57297325 -0.2847009
-0.012174569 0.2937539 0.30185863 0.41677317 0.18619075 0.40883553 -0.6819664 -0.18093462
-0.07977125 -0.1182684 -0.3669428 -0.38620272 0.48040313 0.13997467 0.30432773 0.36704463
00000000: 2207 ae3e 981b eb3e 6f93 90be e4c0 85be
00000010: 6404 b8bd d396 95bd d182 3ebc f457 e2be
00000020: b1a2 853e 5c17 303e 82d9 0b3f bef6 19be
00000030: 75f4 483e b7f4 eabe 054c f7bd 4c9e e4be
00000040: 0721 f33e a1f8 9bbd 9251 11be 6cf2 a83d
00000050: 7437 7abe c876 7d3e e956 f63d b93a 073f
00000060: b5d8 163e daed 2e3e 8c83 8d3e 1846 bfbc
00000070: 96af 043f 080a 0f3d de34 e23e f3e3 49bd
00000080: 21e4 213e c547 7bbc 37cb 12bf 6997 64bd
00000090: 8966 1b3f 72d3 6f3e 0adf 083f a679 87be
000000a0: 8d7d a6bc 9644 81be c767 9abe ec42 cc3e
000000b0: 9ac1 2d3e 353f 14bf 09cd f3be e539 1fbf
000000c0: 2057 fbbe d91a 38bf adf6 c23e 74f0 d8bd
000000d0: a60e 00bf 043f a3be ca00 9a3e 16d1 743d
000000e0: 9a6c 4d3e 60e5 34bf 4d8e 8cbc 45a2 de3e
000000f0: 8df8 003e 7aac 333e 13fc 803e c315 ed3e
00000100: df79 e43d e9de 4fbe d96c 16be 9a2b a7bd
00000110: d9b4 223f 4c3d e8bd 9c45 01bf e7ea 5c3e
00000120: ece4 d43e b1b9 6f3e d9c8 11bf 7aa3 fdbe
00000130: 43ae 45bf ee95 dabe 99c9 633d 324d e8be
00000140: 3230 9a3e 46ae 063e 84d9 c9bd 591d 133f
00000150: d08e 7ebb 2165 93bd 8656 f2be 9e51 793e
00000160: 19ee cc3e e4ab ebbd 1421 3abd bcc5 493d
00000170: 27c6 983d c5f4 cc3e 0946 14bf 3b69 03be
00000180: 377c 163e 8bb7 6cbe 9749 86be beed 073f
00000190: c47b 4fbf e44e c7bd 72e1 b43e 8768 c63e
000001a0: 6fa7 183e 1087 91be f00f e43e c4b1 5a3e
000001b0: 821d 463e 3eb2 35be 0f25 c23c 9f90 42be
000001c0: 4252 7f3e 914c a63e dde1 c4be 085b de3e
000001d0: b352 15be 7f38 f5be 6391 74bd 7f88 003d
000001e0: c9ab 2e3e f09c af3e 18b6 02bd c182 cabe
000001f0: 968a ca3d dad1 e13e 6157 7a3d c605 3fbd
00000200: cddd cebe e8c4 42be 56fb 77bd 2de0 f83e
00000210: 94cd b1be 4362 b1bd 5fd6 28bd d080 a1bd
00000220: 70df 9a3e 9ae3 353e a29c 053f 8aae 4fbe
00000230: 009c 96bd 897a d33e 7862 3dbb 3ad2 703c
00000240: 2bbe a8be c45c eabd b68e e9be 3dbb 26bd
00000250: 36f3 d43e 304b bf3d 0ed3 b53e eaa0 c2bd
00000260: 2edb 7bbe 45b0 e8be 0b00 d33e 406c 0cbe
00000270: 25c1 81be 0fdb f0bd 38eb 68be a4b3 96bd
00000280: b156 993d 3f6b eebe ca12 9d3e ad17 34be
00000290: 93d4 0b3e 15bd 2b3e 96d8 ba3e 240f 01bf
000002a0: 814e 5b3e f4fd 193e 0adf babd 1b74 7abe
000002b0: 0447 aebe 1395 08bf 5eaa 1abe 1162 29be
000002c0: 7e78 c5be 9ef8 b8be e441 83bc 6c85 9fbe
000002d0: c685 0e3f 79a3 3ebe 6cb0 4fbe 79c5 9ebd
000002e0: 13ac f6bd 9e5d 74bd 06b0 ab3d 06be c13e
000002f0: 1ff6 91be c443 273d 6000 93be 963c 9b3e
00000300: 8cd7 9a3e 6e17 943e 964f f7be 1d1b 0f3d
00000310: f0f4 c13c bd27 f8bb 43a9 d5bc 97bc 44bf
00000320: b752 c73b 0cf4 c3be af37 dfbe 6b72 b9be
00000330: 64fb 21bd bc43 d9bd bf8d 673d 2a3a 753e
00000340: e523 883e ad6a 343d d57f 303e fa07 0c3d
00000350: 847e 7a3e 1f29 ecbe 08ad fabe 4317 c03d
00000360: 65a8 a73e 410c 0a3e 437f c83e 4bf0 ccbd
00000370: 35ec d7bd 9946 503e 6119 0e3f 31b9 6f3e
00000380: 4dab 173e 2dd7 31be edba a5bc 2ed6 09bd
00000390: 413c dc3e c695 963d aebd 60be 360e 873e
000003a0: 0f64 953e 8c74 773e 41f0 d83d c8d1 34bd
000003b0: fc0d f63e f13c b33d 60ae 12bf 51c4 91be
000003c0: d877 47bc e966 963e 378d 9a3e 4b63 d53e
000003d0: caa8 3e3e e452 d13e 5a95 2ebf ed46 39be
000003e0: 1c5f a3bd b436 f2bd eddf bbbe 5dbc c5be
000003f0: 66f7 f53e 8555 0f3e d8d0 9b3e 46ed bb3e
